tests/models/mnist_model_20241222_192131.pth (torch, 109309 bytes, 34 tensors)

block1.0.weight f4 [16, 1, 3, 3]
000000 6f fd 82 3e 6c 47 a9 3e 50 50 b1 bd 40 2a 97 3e
       0.2558398 0.33062303 -0.086578965 0.29524422
000010 86 ee 22 bd 9b ee 2b 3d 40 a9 59 be 03 48 35 3e
       -0.039778255 0.0419756 -0.2125597 0.17703252
000020 69 17 87 3e 93 b3 94 be e8 54 67 3e 44 ef 0e 3d
       0.26385048 -0.29043254 0.22590983 0.03489615
000030 e1 02 6d 3e ec 70 46 3d 16 83 56 3e 2a f8 0e bd
       0.2314563 0.048447534 0.20948443 -0.034904636
000040 56 d0 8d 3e 03 b6 b2 3d f8 b7 31 be b0 bb b5 3d
       0.2769801 0.08726122 -0.17355335 0.08873689
000050 2c d7 d9 bd 03 0a 44 be 9b 50 f1 bd d1 8a 7a 3e
       -0.10636744 -0.19144444 -0.117829524 0.24467017
000060 dd 0d ae be 7b e4 24 be 30 7a 85 bd ee 5f 2a be
       -0.33994952 -0.16102783 -0.06517446 -0.16638157
000070 ac d7 79 3c 25 ec c1 be 31 bc a7 3e ba 13 89 be
       0.015249174 -0.37875476 0.32760766 -0.26772863
000080 fd b4 6c 3e 51 38 80 3d bb 3f a7 bd 96 7d 68 3e
       0.23115917 0.062607415 -0.081664525 0.22704157
000090 e3 e6 0e bd 73 2e 69 3e 16 9f 02 3c 96 94 0f be
       -0.03488816 0.22771625 0.007972499 -0.14021525
0000a0 0d 4e e9 3d 32 ed b4 bd bd d5 94 3d 06 00 a0 3e
       0.1139184 -0.08834304 0.0726733 0.31250018
0000b0 23 0b 8c 3e 14 52 10 be 36 b2 37 3e e5 f6 1d bc
       0.27352247 -0.1409381 0.17939076 -0.009641384
0000c0 cd 34 32 3e 6f 7c 49 be 95 08 b0 be 55 b2 0f be
       0.17402954 -0.19676374 -0.34381548 -0.14032872
0000d0 3d 69 60 be 8e da a2 3e 49 e6 9e 3d 80 21 23 3e
       -0.21915145 0.3180737 0.07758767 0.15930748
0000e0 3d 5f d8 3d 10 0d fd bc e8 d7 78 3e ba 01 6f be
       0.1056504 -0.030890018 0.24301112 -0.23340502
0000f0 73 64 27 bd 6c 16 8c be a2 bd a2 3d d1 11 e4 bd
       -0.04086728 -0.27360857 0.07946326 -0.11136211
000100 b5 91 8f 3d 1b 0b d8 bd 20 c4 82 3e 33 26 4e be
       0.07010213 -0.10548993 0.25540257 -0.2013176
000110 2e 6e 62 be dd 93 33 be f2 5d ab 3e 15 e9 07 3e
       -0.22112343 -0.17536874 0.33470112 0.13272507
000120 d9 33 90 3e 1a 82 98 be 6c e4 97 be 2b 58 a6 be
       0.28164557 -0.2978676 -0.2966646 -0.32489142
000130 dc 4d 89 be d5 15 b0 3d c3 47 96 3d 79 2f 4f 3e
       -0.26817214 0.08597914 0.07337906 0.20232953
000140 8c ba 80 be 59 49 76 be c1 d8 23 3e e0 24 16 be
       -0.25142324 -0.24051417 0.16000654 -0.14662504
000150 30 48 38 3e 76 3c 37 bd 6f 7f 67 3e 60 c2 7e be
       0.17996287 -0.044735394 0.22607206 -0.24878836
000160 54 59 30 be a7 09 05 3e 40 e1 aa 3d 6e 89 f3 bd
       -0.17221576 0.12991963 0.08343744 -0.11891447
000170 c1 80 ea 3d e8 72 8f 3e 25 6c 79 be a9 22 3b be
       0.11450339 0.28017354 -0.2435766 -0.1827494
000180 2e bf a0 3e 66 94 04 be a7 3c d0 bd b8 85 41 be
       0.3139586 -0.12947235 -0.101678185 -0.18898666
000190 37 b6 13 ba 93 66 56 3e 6b e5 3b bd f7 e1 1d be
       -0.0005634757 0.20937566 -0.045873087 -0.1541823
0001a0 62 e7 4a 3d 85 04 b2 bd c3 ce 32 be 75 ee 8e be
       0.04953707 -0.08692268 -0.17461686 -0.27916303
0001b0 4c 2f a4 be 49 b0 28 be c9 df b7 3e 02 c1 92 bd
       -0.32067335 -0.16473497 0.35912922 -0.071657196
0001c0 9c 96 cb 3d 17 e5 90 be ce 56 84 be 12 35 b4 bd
       0.09940836 -0.28299782 -0.25847477 -0.08799185
0001d0 a0 0a b3 3d e8 71 aa be dc 32 44 be 3c 54 51 be
       0.08742261 -0.3329003 -0.19160026 -0.20442289
0001e0 f8 ec b6 3c d6 f1 43 be b2 e4 7c bd 28 96 1a be
       0.022329792 -0.19135222 -0.06174154 -0.15096343
0001f0 ba 04 92 be 07 9e 31 be c1 40 04 be 17 b4 82 be
       -0.2851923 -0.17345439 -0.12915327 -0.25528023
000200 aa 43 9c 3e 26 6b bf bd b5 ea 8f 3e f1 44 38 3e
       0.30520374 -0.09346609 0.28108755 0.17995049
000210 60 b3 90 be 0e da 52 3e 81 5d 58 bd 17 4b 2d be
       -0.28261852 0.20590994 -0.052823547 -0.16923176
000220 08 37 99 be ab 59 ad be 1c a6 2a bb 2d c6 1d be
       -0.29924798 -0.33857474 -0.002603895 -0.1540763
000230 3f 66 b8 3d a1 18 8e be 96 04 5e 3e ed 6e 86 be
       0.09003877 -0.27753165 0.21681437 -0.26256505

block1.0.bias f4 [16]
000000 d7 e7 cc bd 05 da e8 3b 33 0d 6d 3e 1d c3 8b 3e
       -0.100051574 0.007106068 0.23149566 0.27297297
000010 99 d6 97 3e a9 23 9c be e2 9a d3 3d 80 3d ed bd
       0.29655913 -0.30495957 0.10332276 -0.11583996
000020 e0 4c 9e bd de 69 96 be 28 e2 97 3e 8b f5 72 be
       -0.077295065 -0.29377645 0.2966473 -0.2372648
000030 e9 9d 30 3e 12 22 0e 3e 9c a1 a2 3d 80 cb fc bd
       0.17247738 0.13880184 0.07940981 -0.12343502

block1.1.weight f4 [16]
000000 2a 14 69 3f d2 14 6d 3f 47 d1 73 3f 28 4c 7e 3f
       0.9104639 0.92609894 0.95241207 0.99334955
000010 6d e6 6d 3f 30 6d 8c 3f a2 de 89 3f 6e ff 82 3f
       0.92929727 1.0970821 1.0771067 1.0234201
000020 1b d8 6d 3f b1 84 88 3f 08 8d 84 3f 40 b0 82 3f
       0.92907876 1.0665494 1.0355539 1.0210037
000030 f9 ba 7a 3f fb 9a 7a 3f 2c 7c 7b 3f 02 cc 74 3f
       0.9794155 0.9789273 0.98236346 0.9562379

block1.1.bias f4 [16]
000000 4b d3 b9 bd ad 1a 09 bd b7 f2 69 3c 2f 23 c5 3d
       -0.09073504 -0.033472706 0.014279059 0.09625851
000010 4e 53 4c bd 5f 40 f1 3b 9f ae b1 ba a4 d8 d3 bd
       -0.049884133 0.00736241 -0.001355607 -0.10344055
000020 cb bc d6 bd c1 5f ab 3b 20 8e fa bc d2 b6 b0 bc
       -0.10485228 0.0052299206 -0.030585349 -0.02157155
000030 b7 1a 70 3a 8b 28 1d bc bc 51 cd 3c 41 ea 2d bd
       0.0009159254 -0.009592186 0.025063388 -0.04245973

block1.1.running_mean f4 [16]
000000 14 94 fb 3c 98 85 db 3d d5 19 05 3e 3c 0c 8a 3e
       0.030710258 0.1071884 0.12998135 0.2696246
000010 c9 73 c8 3e c7 01 b4 be 63 4c e9 3d b3 a7 f3 bd
       0.39150837 -0.35157606 0.11391523 -0.118972205
000020 aa 0e 34 be 5c de 9e be 51 31 99 3e 78 ac a3 be
       -0.17583719 -0.31029022 0.29920438 -0.3196752
000030 70 dc c1 3d f6 4f 75 bd b9 2a c4 3d 89 b9 8b be
       0.09465873 -0.05989071 0.09578461 -0.2728999

block1.1.running_var f4 [16]
000000 98 b6 8c 3d 25 ff 55 3d d3 3f 4a 3d bb a3 39 3c
       0.068707645 0.052245278 0.049377274 0.01133054
000010 a3 02 2e 3d 18 da 7d 3c 0e 79 05 3c 52 a0 b6 3b
       0.042482983 0.015493892 0.0081465375 0.005573311
000020 b6 bf 50 3d 8e 0d e3 3b 4a da 81 3c 3b 48 05 3d
       0.05096408 0.006929106 0.015851159 0.032539587
000030 c4 85 0c 3d 90 f5 17 3e 37 dc af 3c df 85 b3 3d
       0.034307256 0.14839768 0.021467311 0.08765768

block1.3.weight f4 [16, 16, 3, 3]
000000 25 8f 85 3d 59 3c 1a 3d c7 a4 c6 3c b1 f0 a7 bd
       0.06521443 0.03765521 0.024248494 -0.08200205
000010 9d a0 d5 3c 31 cb 8a bc b8 74 13 bd 71 8c 95 3d
       0.026077563 -0.016942592 -0.035999984 0.07302178
000020 01 95 c9 3c 80 14 5e bd 65 bd 56 bd 0f 83 0b bd
       0.024607183 -0.05421877 -0.052426714 -0.034060534
000030 82 64 eb 3c 16 10 34 bd d0 71 7d bd e7 c8 47 bc
       0.02873445 -0.043960653 -0.06187612 -0.012193895
000040 a9 11 33 bd d1 8f 44 3d b9 25 61 3d af a6 9f bd
       -0.043718014 0.047988717 0.054967616 -0.07795464
000050 de 1c 0b bd cf 48 ae 3c c6 61 e7 bc f5 1e a7 bd
       -0.033963077 0.021274952 -0.028244864 -0.081602015
000060 63 ab 55 3c 8c 5b 18 3d eb a8 15 bd 5d 34 b4 bc
       0.01304135 0.03719668 -0.036538046 -0.021997625
000070 a8 a4 18 bc fd 22 80 bd a6 7b 80 bb 51 67 a3 bb
       -0.009316601 -0.062566735 -0.00392099 -0.0049866815
000080 43 26 38 3d 12 c9 03 3e 9e 72 ad 3d 69 2e 0f 3d
       0.044958364 0.12869671 0.08469127 0.03495637
000090 31 33 57 bc 25 65 21 bc 2a 92 9c 3b 2e a0 fc 3c
       -0.013134764 -0.009850775 0.0047781663 0.030838098
0000a0 f6 8b 91 bd 56 59 b9 bc 88 cc ae 3d ad f4 51 3d
       -0.071067736 -0.022625607 0.08535105 0.05125873
0000b0 5b 61 c3 3c ce ee b0 bc 8f ab 91 bc 43 5c ad bd
       0.023850134 -0.021598246 -0.017782 -0.08464863
0000c0 6b 2c a5 3c a5 ee c3 3d c2 c1 9c 3d a1 63 9b 3d
       0.020162782 0.09567002 0.07654144 0.07587362
0000d0 8a ec 57 bd 2d 23 66 bd e0 0e 83 3d b2 57 2d 3e
       -0.052715816 -0.05618589 0.063993216 0.16927984
0000e0 8c 7d b3 3d b7 ad ea bb 64 cd 38 3d 45 d9 7d bd
       0.087641805 -0.0071618217 0.04511775 -0.061974782
0000f0 dd 30 86 bd 46 c6 9b 3b c0 61 70 bd 9e c8 aa bc
       -0.06552289 0.0047538606 -0.05868697 -0.020847615
000100 0c ee 01 bd 85 39 20 3d 11 f1 9d 3d 91 83 02 3d
       -0.03172116 0.039117355 0.077119954 0.031863753
000110 b3 3c 18 3a f4 63 62 bc 3a 36 cb 3b e3 05 9f 3d
       0.0005807385 -0.013817776 0.0062015327 0.07764795
000120 48 a0 ca bc 1c 8d 3d 3d ce 85 a0 3d 8e a0 cb 3c
       -0.024734631 0.04627715 0.07838021 0.024856832
000130 96 76 74 3b 11 9f 15 bd a7 8b 38 bd 87 34 87 bd
       0.0037302128 -0.03652865 -0.045055058 -0.06601816
000140 ad 47 15 3d 07 d8 f5 bc 82 ad cc bc 22 93 c5 bd
       0.03644531 -0.030010236 -0.024985079 -0.09647204
000150 56 a5 af bd 3a 14 f5 bd 48 c0 b4 bd 9d 23 0b 3c
       -0.08576457 -0.119667485 -0.08825737 0.008492378
000160 8a a5 38 bc a0 1b 7e 3d 53 70 65 bd 69 aa ae bd
       -0.011269936 0.062038064 -0.056015324 -0.08528597
000170 c5 b1 83 bc 76 5e a6 bd 4f a1 62 bd bf ec ef bd
       -0.016075978 -0.08123486 -0.055329617 -0.117150776
000180 40 a3 81 bc 61 42 81 bd b1 40 c6 3c 70 c3 5c 3d
       -0.015824914 -0.06311489 0.02420077 0.05389732
000190 cd 22 ab 3d e4 bc d7 bd 91 df a0 3d fa a3 84 bd
       0.08356247 -0.10534075 0.07855142 -0.064765885
0001a0 db 58 a1 bc 38 c7 47 3d 6e 5e 0f bd ee 82 78 bd
       -0.01969569 0.048773974 -0.035002165 -0.06067174
0001b0 14 fc b9 3c a9 84 ae bd 8d 2b 11 bc cf f0 a4 bd
       0.022703208 -0.08521397 -0.008860481 -0.08053743
0001c0 a3 29 07 3d 10 ee cb 3c e1 17 8e 3d 6d ae c6 bd
       0.032998692 0.02489379 0.06938148 -0.09701238
0001d0 1d 66 0c be 4b 4c a9 ba 6f 44 c0 3c 32 e6 03 be
       -0.13710828 -0.0012916414 0.023470132 -0.12880781
0001e0 bc 2e 8e bc da bc 84 bd 59 da 1c bd 21 e6 19 bd
       -0.017356269 -0.06481333 -0.03829417 -0.037572984
0001f0 ad 9e 4a bd 8a 39 a1 bd a6 d2 53 bd 05 9f 6a 3d
       -0.04946773 -0.07872303 -0.051714562 0.05728056
000200 56 2a 62 3d 28 1d 66 bd 34 35 84 bd de f2 8b bd
       0.055216156 -0.05618015 -0.0645546 -0.068334326
000210 ee d0 bb bd 8f ab b7 bd 4c f2 f5 3c 6a 08 92 bd
       -0.091707096 -0.08968269 0.030022763 -0.07130511
000220 26 6c 8e bd 34 2e 15 bd 94 79 da bc 2c 78 35 bd
       -0.069542214 -0.036421016 -0.026669301 -0.044304058
000230 28 7e 81 bc 36 55 94 bb 75 50 23 bd 8b 6a a3 bd
       -0.015807226 -0.0045267595 -0.03987165 -0.07979306
000240 ce e2 04 be 82 c4 ee 3c 4f 14 25 bd 02 57 e0 3b
       -0.12977144 0.029146437 -0.04030257 0.0068463096
000250 e6 c1 80 bd a8 13 2c 39 3a f5 c5 3d d6 4a 11 3d
       -0.06286983 0.00016410521 0.09665914 0.03547176
000260 ea e7 ce bd 88 91 25 3c 55 6e 8a 3d 88 71 05 3d
       -0.10102828 0.010105498 0.067593254 0.032578975
000270 40 6e 5e 3d 99 6e 8b 3d 8b 18 62 bc 95 80 9f 3c
       0.05430436 0.06808204 -0.013799797 0.019470492
000280 65 38 95 bd f0 8b c2 bc eb a5 91 3d 6c e0 3c 3d
       -0.07286147 -0.023748368 0.071117245 0.046112463
000290 78 6f 51 bd 7f ac b1 bd ab d2 95 bd a6 77 9a bd
       -0.051131696 -0.08675479 -0.07315572 -0.075423524
0002a0 b0 c9 80 bd a7 7d e4 bb 65 1b 88 3d 82 25 9e 3d
       -0.06288469 -0.0069729867 0.0664585 0.07721998
0002b0 27 c1 9a bd 2b da 99 bd af df a3 3d bc 5b aa bc
       -0.07556372 -0.07512315 0.08001649 -0.020795695
0002c0 22 81 df bc 54 f9 0a 3d f2 fc ec bc a8 bd ea bc
       -0.027283255 0.033929184 -0.028929207 -0.028654888
0002d0 cc 0b 28 bd 00 20 3f bd 79 01 2d bd 14 1c aa bd
       -0.041026875 -0.046661377 -0.042237733 -0.08306137
0002e0 a7 bb bb bd 6b 6e 76 bd e0 be b6 3d 47 2a 7c bd
       -0.09166651 -0.060163897 0.08923125 -0.061563756
0002f0 7c 25 ae bd f4 05 36 3c 5b fa 42 3d 71 ac ab 3d
       -0.08503243 0.011109818 0.04760204 0.083825
000300 bb fd 55 3d 1c 2a 5d 3d d0 bd 04 bd df 4e 7f bd
       0.05224393 0.053995237 -0.03240758 -0.062331077
000310 55 ef 11 3d 13 59 14 bb 61 cc fb bd a5 e7 8c 3d
       0.035628635 -0.00226361 -0.122948416 0.0688012
000320 85 e2 17 bc 33 e2 aa bd e5 9b 87 bd 76 b1 79 3c
       -0.009270315 -0.08343925 -0.066215314 0.015240064
000330 cc e6 cc 3c 12 46 0b 3c e5 3d a2 3b d0 09 15 bd
       0.025012396 0.008500593 0.004951226 -0.03638631
000340 bd 84 cc bd e3 d5 dd bc ff 4b 02 3e 76 39 05 3d
       -0.09986255 -0.027079528 0.12724303 0.032525502
000350 92 be b2 bd 8f a8 eb 3c 5f e7 e5 ba 75 6f a5 bd
       -0.08727755 0.028766898 -0.0017540267 -0.08077899
000360 41 94 8c 3c 95 5c fb 3c 98 f0 66 3d 18 10 01 be
       0.017160537 0.030683795 0.05638179 -0.12603796
000370 5a 32 f3 3c e8 a3 c6 bd 83 cb d0 bc 73 c3 44 3d
       0.029687095 -0.096992314 -0.025487667 0.048037957
000380 7e c9 75 3c ad 4c 95 3d 53 f2 b4 bd d9 af 02 3d
       0.015001653 0.07290015 -0.08835282 0.031905983
000390 12 1e dd bc c1 74 ac bd 2c a8 c2 3b c7 7a 0d bc
       -0.026991878 -0.084207065 0.005940458 -0.008635229
0003a0 6f 11 0b bc 1b 43 9e 3b 9c 61 3c 3d 44 1b 65 bd
       -0.008488043 0.004829777 0.045991525 -0.055934206
0003b0 06 d2 d2 bd da 64 4a 3d f4 5c aa 3d 80 4a 5b bd
       -0.10293965 0.049412586 0.08318511 -0.053537846
0003c0 53 54 65 3c 55 de dc 3d cf 72 9f 3c ac f0 43 3c
       0.013997155 0.10784594 0.019463925 0.011959236
0003d0 12 1d 82 3b 94 f8 8b bd 72 b4 b7 bd f3 fb 2b bd
       0.0039707506 -0.06834522 -0.08969964 -0.041988324
0003e0 d9 ac f0 bc 60 02 e7 3c b7 fc 0b bc 2a a4 27 bc
       -0.029379295 0.028199375 -0.008544139 -0.010232011
0003f0 da 6c 9f 3d 61 c4 3a 3d 60 d9 97 3d f3 ab 4b bd
       0.07784434 0.045597438 0.07414508 -0.04972453

block1.3.bias f4 [16]
000000 50 ad 53 bc b0 5a 46 bd ad 9d e0 3c 80 43 40 bd
       -0.012919739 -0.04842633 0.027418936 -0.046939373
000010 59 83 a5 3d cd a8 b6 bd 5f fc fc bb 59 89 81 bd
       0.08081693 -0.08918915 -0.0077205147 -0.06325025
000020 42 c9 5c bc 9c 7e 92 3c 5f f9 06 be 61 27 de bd
       -0.013475718 0.017882638 -0.13181065 -0.10847355
000030 70 80 de 3d 36 9c 93 3d 9e 3b 28 3d 83 80 cc bd
       0.10864341 0.07207529 0.04107248 -0.09985449

block1.4.weight f4 [16]
000000 ff 3e 86 3f d3 74 80 3f 75 7d 6c 3f 38 a5 83 3f
       1.0487975 1.0035652 0.9237893 1.0284796
000010 97 9e 80 3f ae 75 7d 3f 29 f0 76 3f d1 7f 72 3f
       1.0048398 0.9900769 0.96460205 0.9472628
000020 8f 02 90 3f b0 8c 7c 3f fc fe 88 3f 13 56 73 3f
       1.1250781 0.9865217 1.0702815 0.95053214
000030 30 80 79 3f d2 97 84 3f 9a ec 8b 3f 70 6b 7b 3f
       0.97461224 1.0358832 1.093158 0.9821081

block1.4.bias f4 [16]
000000 72 6a 92 bd 65 fc a8 3d f5 a3 fc bd b5 41 02 bc
       -0.07149209 0.082512654 -0.1233596 -0.007950236
000010 3b 18 5f bc d6 58 93 bc a5 22 21 3c bd 04 ad bd
       -0.013616617 -0.017986696 0.00983492 -0.084481694
000020 d6 5c 01 3d 99 7c a7 bd c1 e0 3d 3d de d3 00 bd
       0.031582676 -0.08178062 0.04635692 -0.031452052
000030 63 00 91 bd 47 2e 0f bd 5f df ba bb 91 7d 9f bd
       -0.07080152 -0.034956243 -0.0057028974 -0.07787622

block1.4.running_mean f4 [16]
000000 9c f7 0a bf 41 b8 99 be cd 88 32 bd 3e db 04 bf
       -0.5428407 -0.30023387 -0.043587495 -0.5189704
000010 bd 4a c4 3c 8f 95 dd be 11 71 12 bf 84 65 dd be
       0.02396142 -0.43278167 -0.57203776 -0.43241513
000020 f9 3a 38 3d cd e9 e1 3d 7c 5a 57 bc 5a 56 b8 be
       0.044978116 0.11030922 -0.013144132 -0.3600338
000030 05 b5 5e be 46 04 c7 3d 24 1b f1 bd 58 a7 8e 3e
       -0.21748741 0.09717612 -0.11772755 0.27862048

block1.4.running_var f4 [16]
000000 36 af 6e 3e f0 a4 bd 3e 66 c3 5f 3e 58 b0 ac 3e
       0.23309025 0.370399 0.21851882 0.3372829
000010 60 13 df 3e 61 f3 a5 3e 3c c2 ef 3e 7a b9 03 3f
       0.4356947 0.32412246 0.46827877 0.5145489
000020 78 84 cb 3e bc 15 0d 3f 73 30 27 3f 46 3d 61 3f
       0.39749503 0.5511129 0.653083 0.8798412
000030 55 6a ac 3e da 26 f2 3e a5 8b e6 3e b2 16 be 3e
       0.33674875 0.47295266 0.45028415 0.3712669

block2.0.weight f4 [32, 16, 3, 3]
000000 b7 da c8 ba 46 86 43 b9 af 37 af 3d 0f ea 8b bd
       -0.0015323971 -0.0001864667 0.08555543 -0.068317525
000010 76 ae 08 bd 6c a3 30 bd 54 c4 d0 bd 44 43 06 3b
       -0.033369504 -0.0431246 -0.101936966 0.002048687
000020 c9 19 54 3d f0 bd ce 3b 62 62 8f 3c fe 4e 87 3d
       0.051782403 0.0063092634 0.017502967 0.066068634
000030 80 7d 00 b9 a8 9f ff bb d5 95 af 3c b2 54 b4 bc
       -0.00012253784 -0.007801015 0.02143375 -0.022013042
000040 e5 3d 44 3d 91 74 c0 3d b3 70 3f 3d 6d ff b5 3c
       0.04791059 0.09397233 0.046738338 0.022216523
000050 5a c8 97 3d 62 ed a5 bb 92 01 0c bc 93 24 d5 bc
       0.07411261 -0.0050636986 -0.008545296 -0.026018417
000060 0d 43 3e bd 0d 91 01 bd d3 cd d1 bd b1 55 b4 bd
       -0.046450663 -0.03163247 -0.10244336 -0.08805407
000070 a7 35 48 bd a9 04 9f bd e3 d6 e5 bd 05 59 ba 3d
       -0.04887929 -0.07764561 -0.11222627 0.090990104
000080 04 30 6c bc ba 7a da 3d 91 10 11 3e af b9 68 3d
       -0.014415745 0.106679395 0.14166476 0.056817707
000090 3b 30 09 3d 53 cb d0 3d f7 a1 ce 3c bf d7 03 3d
       0.03349326 0.10195031 0.025223715 0.032188173
0000a0 8c 90 db 3d eb 26 bf bd 88 00 98 bd 6b 58 5d 3d
       0.107209295 -0.09333595 -0.07421976 0.0540394
0000b0 97 ff c5 3c 76 ef 0d 3e af 22 bf 3b 0f d8 b1 bd
       0.024169726 0.13860878 0.005832992 -0.08683788
0000c0 fb 0e cc 3c 69 6b 5d bb 60 a6 b5 bd c1 76 f2 bd
       0.024909487 -0.0033785945 -0.08869624 -0.11839057
0000d0 58 6b cf bc 3e 58 b3 bc 07 d5 f6 3d ed 4d 1e 3d
       -0.02531974 -0.021892663 0.120523505 0.038648535
0000e0 82 55 fa 3c 2f c1 8a 3d 2e be b3 3c e0 7f 6d bd
       0.030558351 0.06775128 0.02194127 -0.05798328
0000f0 4a e5 b3 3c 75 4f 07 bd c2 dd 1f be ff 8b 36 3d
       0.02195992 -0.03303476 -0.15611938 0.044567104
000100 b4 71 51 3d d7 74 37 3c 8f aa 00 bd af 07 2e bc
       0.051133826 0.01119729 -0.031412657 -0.010621949
000110 a8 e6 dd bd 65 d9 4f 3d 1c fd 13 3d fd 11 aa bd
       -0.1083501 0.050744433 0.036130056 -0.08304212
000120 d1 5f ec 3c 4e 18 f6 bb 2c 34 8d 3d 3e 8c 85 bd
       0.028854283 -0.0075102216 0.068947166 -0.0652089
000130 ed d8 9f 3c 68 2a 39 3e da e9 16 3d a4 0a 34 3c
       0.019512618 0.18082583 0.036844112 0.010988865
000140 84 a3 a2 3c 64 5a 55 3d 1a 9e 5a 3d 6d d9 72 3d
       0.019853361 0.052088156 0.053373434 0.059289385
000150 a3 af 19 bd 09 d2 38 3c 8e b2 b7 bc 21 74 f3 3b
       -0.037521016 0.011280545 -0.022424009 0.007429615
000160 ca 0b e9 bc bd 67 38 bd 82 39 c6 3c ec e8 91 3d
       -0.028448004 -0.045020808 0.024197344 0.071245044
000170 cc cb c3 3a 8b 64 7b 3d bb c0 06 3d 32 2a a9 bd
       0.0014938056 0.061375182 0.032898646 -0.08260001
000180 b6 2e 8d 3c 76 54 57 bd 45 0d 73 bd b8 88 01 bc
       0.017234188 -0.052570783 -0.059338827 -0.007906131
000190 9d f4 90 3b fe 75 05 bd 53 9c bb 3d 77 1d 08 bd
       0.0044236914 -0.03258323 0.09160676 -0.033231225
0001a0 83 bc d3 bc ea 24 3f 3c be d4 42 bc a7 1a 2d bd
       -0.025846725 0.011666516 -0.011891542 -0.042261746
0001b0 be 49 80 3c 8a d0 56 bd 19 7f e5 bc bb 01 01 bc
       0.015660163 -0.052444972 -0.028014706 -0.007873948
0001c0 1b 8b c8 3d 82 66 b8 3d 20 ec 53 3d a9 f1 fa 3c
       0.09792157 0.09003927 0.05173886 0.03063281
0001d0 b7 b1 62 3d 54 ab f9 3c 3c 9b 35 3d 71 17 78 bc
       0.055345263 0.030477203 0.044337496 -0.015142308
0001e0 82 9a c4 bd 9e e0 2c bd 3c 4c d6 3b 92 fd 84 3b
       -0.095997825 -0.0422064 0.0065398496 0.0040585482
0001f0 16 2c 49 bd ac af 5b 3d 43 61 42 3c 2e 63 33 bd
       -0.04911431 0.05363433 0.011864009 -0.043795757
000200 38 ab 8e bd 42 24 6e bc 44 c6 96 3d 55 40 72 bd
       -0.06966251 -0.014535012 0.07362035 -0.059143383
000210 33 28 2c bc bb b7 d1 bd 97 90 a5 bd 26 93 33 3d
       -0.010507631 -0.10240122 -0.08084219 0.043841504
000220 9c b1 f1 3d f3 91 d5 3d a5 df 5e 3d 6a 6f af bd
       0.118014544 0.10428228 0.054412503 -0.085661724
000230 97 5d 09 bd 18 9b 76 bd b4 a2 0d be d6 64 77 bd
       -0.03353652 -0.060206503 -0.13831598 -0.0603989
000240 24 73 18 bd bd 84 44 3d 08 d7 c2 bd b2 cb 73 3d
       -0.03721918 0.04797815 -0.0951367 0.05952043
000250 60 9e ab 3c 62 4b 25 be ff f2 11 3d 23 cf 5a bd
       0.020949543 -0.16142038 0.03563213 -0.053420197
000260 7d 93 31 3c e0 48 86 3d b8 d6 6a bd 05 86 3a bd
       0.010838387 0.065568686 -0.057333678 -0.045537967
000270 0f 98 e4 3d 86 bc cd 3c 06 ed e8 bc 51 ca c3 3d
       0.111618154 0.025114309 -0.028433334 0.09560073
000280 9b f9 26 bd be 8e 3e 3a 05 7b be 3b 77 51 6e 3c
       -0.040765386 0.0007269195 0.005813005 0.01454579
000290 8d f5 0c bc 4c b1 27 bd aa 27 7f bd 2c e6 b8 3b
       -0.008603466 -0.040940568 -0.062293686 0.005642673
0002a0 2d bf f1 3c 78 85 0d 3d 6e d0 ba 3c 97 72 14 3d
       0.029510105 0.034551114 0.022804465 0.036242094
0002b0 11 d5 1f 3d 61 dc d3 bd 65 b6 48 bd e4 83 d3 bd
       0.039021555 -0.10344768 -0.04900207 -0.103278905
0002c0 0f fb bf 3c 5b 75 86 bd 53 6a 1f 3d a1 a1 80 3d
       0.023435144 -0.065653525 0.038919758 0.06280828
0002d0 b6 33 f0 bd 87 80 ad bd 15 26 f1 bc bc 94 ec bd
       -0.11728613 -0.0847178 -0.029437104 -0.11551806
0002e0 15 8b 25 3c 7d d5 84 bc 31 b9 1b be b0 63 5e 3d
       0.0101039605 -0.01621508 -0.15207364 0.05429429
0002f0 75 21 2a 3d 46 fa 4a bd e9 ea 61 bd 8a d6 33 3c
       0.041535813 -0.049555086 -0.05515567 0.010976443
000300 b0 67 76 bd e9 4d a6 bd 20 74 22 bd 98 22 b5 ba
       -0.060157478 -0.08120329 -0.039661527 -0.0013819514
000310 83 d4 06 bd af 53 5e bd 68 0f 47 3d c0 09 d2 3b
       -0.03291751 -0.054279026 0.048598677 0.0064098537
000320 16 c5 e2 3d 2e 57 ff bc 00 64 bf 3c a1 c0 4b 3b
       0.110727474 -0.0311695 0.023363113 0.0031090158
000330 30 6a e6 3b 9b 14 dd 3d aa c3 7b bd d7 5c 89 bc
       0.0070317015 0.10794946 -0.061465897 -0.016767902
000340 de ff 6c bd c4 51 86 3b 62 72 87 3d 9f 08 34 3d
       -0.0578612 0.0040991027 0.06613614 0.043953534
000350 b5 59 f4 bb 99 fd d0 bc a2 a7 98 3d 4b 4d 8c 3b
       -0.007456983 -0.02551155 0.074538484 0.004281675
000360 9c 95 f7 3d 92 7e ae bc dd fd d5 bd fc c3 a0 bc
       0.120890826 -0.021300588 -0.10448811 -0.019624703
000370 3a 83 5b 3d 8e b5 a1 bd cb 49 e1 bd 9c c3 e1 bd
       0.053591944 -0.07895957 -0.11000403 -0.11023638
000380 6e 22 fb bd 48 ed 9e 3b 90 08 c9 3c d4 3f ab bd
       -0.12262426 0.0048500635 0.024540216 -0.083617836
000390 6d 94 be 3c fa dd bd bd 04 a5 b8 bd b6 4e 76 bd
       0.023264134 -0.09270854 -0.09015849 -0.06013366
0003a0 43 c2 c6 bc 33 0d 9d 3c d3 f6 ac 3d 0c ba 73 3b
       -0.024262553 0.019171333 0.084455155 0.003718975
0003b0 60 59 81 3c fe 55 b4 3d a3 47 8a 3a 15 d8 aa 3c
       0.015789688 0.08805464 0.0010549914 0.020854989
0003c0 ee 1c 77 3c ff d6 b1 3d e5 52 c2 3d ba 8f 81 bd
       0.015082581 0.086835854 0.09488467 -0.06326242
0003d0 b8 4e 92 bc 52 d4 ea 3b 11 a7 56 3c f7 a0 87 bd
       -0.017859802 0.007166424 0.013101355 -0.066224985
0003e0 00 36 df 3d 29 29 c9 bb 68 a3 92 3d ed fc b9 3d
       0.108989716 -0.00613894 0.071600735 0.09081445
0003f0 de 4d 51 bd 71 7a ae 3c 48 32 5d 3d 12 c0 71 bd
       -0.05109965 0.021298619 0.05400303 -0.059021063

block2.0.bias f4 [32]
000000 b4 89 d0 bd d6 c5 8f 3b f2 9a 2c 3c f0 84 e8 bd
       -0.10182515 0.0043875976 0.010534989 -0.11353481
000010 42 47 92 bd b2 2a 1e bd 78 33 e3 bd 02 4b c9 bc
       -0.071424976 -0.038614936 -0.11093801 -0.0245719
000020 41 81 4e bd a9 a8 a0 3d d8 70 25 bd 28 67 9f bd
       -0.050416235 0.07844669 -0.04039082 -0.07783347
000030 d3 64 9d bd 0b 7f 13 3d 56 be 6f bd da d3 b1 3c
       -0.07685246 0.03600983 -0.058531128 0.021707464
000040 c7 0e 65 3a e1 39 a0 3d 0b e7 df bc d2 af 53 3d
       0.0008737859 0.078235395 -0.02733185 0.051681347
000050 dd 86 5d 3d b7 a0 8f bc 9e 9d 82 3c ef 93 84 3d
       0.054083694 -0.01753269 0.015944298 0.064735286
000060 b5 65 a8 bd 7f 79 0a bb a8 2d 5f 3d 24 65 c7 bd
       -0.08222524 -0.0021129546 0.0544869 -0.09736088
000070 f6 83 c0 bd b8 d6 ac bd 16 0c ad 3c e6 09 dd 3d
       -0.094001696 -0.08439392 0.021123927 0.107929036

block2.1.weight f4 [32]
000000 a0 8b 81 3f 31 9d 75 3f 68 69 88 3f 16 88 7a 3f
       1.0120735 0.9594298 1.0657167 0.978639
000010 c0 a5 73 3f 79 68 85 3f 75 8c 86 3f e9 f3 72 3f
       0.9517479 1.0422508 1.0511614 0.9490343
000020 0f 95 7e 3f 84 f3 7e 3f 94 65 6a 3f 0e 6b 81 3f
       0.99446195 0.99590325 0.91561246 1.0110795
000030 1f 01 84 3f 8f da 77 3f e2 25 85 3f c0 71 7d 3f
       1.0312842 0.9681787 1.0402186 0.99001694
000040 ad 66 7f 3f 05 39 86 3f 94 4b 7e 3f 3f 17 7d 3f
       0.99766046 1.0486151 0.99334073 0.98863596
000050 6e cc 8c 3f e2 84 82 3f 01 72 81 3f d6 5b 80 3f
       1.0999887 1.0196803 1.0112916 1.0028026
000060 52 ca 81 3f d5 ee 83 3f 45 5f 80 3f 4b f7 81 3f
       1.0139868 1.0307261 1.0029074 1.0153593
000070 b1 c9 78 3f 30 27 6c 3f eb ea 82 3f c5 fc 7b 3f
       0.97182757 0.92247295 1.0227941 0.9843257

block2.1.bias f4 [32]
000000 8e 7d 0a 3b 5b 0d c5 bc b3 85 74 3b bf ee f5 bc
       0.0021131965 -0.02405422 0.0037311136 -0.03002107
000010 e0 c0 d0 bc b9 f1 17 bd 94 7f fb 3b e7 01 e0 bd
       -0.025482595 -0.03709576 0.0076751206 -0.10937863
000020 70 70 ae bd ce bc a0 bd 32 b0 90 bd 2e c7 31 bc
       -0.085175395 -0.07848512 -0.070648566 -0.010850711
000030 73 a6 00 be 5d ec 6e bc 71 d0 47 bb 15 42 b5 bd
       -0.12563495 -0.014582721 -0.003048923 -0.08850495
000040 1a 6c b6 bd 78 0e ee bc 1e bf 3f bd bf a0 2e bd
       -0.089073375 -0.029059634 -0.046813123 -0.04263377
000050 d1 67 16 bc cd 9a e1 bc 22 95 68 3d 0d 3e 6c bd
       -0.009180025 -0.027539635 0.05678285 -0.057676364
000060 96 ac d3 bc 01 53 f4 bc 97 bd 98 bc 40 ea a9 3c
       -0.025839131 -0.029824736 -0.018645091 0.020741582
000070 dc fd 20 be 5d b9 09 be 89 fd cc bb bc 21 5c bc
       -0.1572184 -0.13449617 -0.0062558097 -0.013435777

block2.1.running_mean f4 [32]
000000 f6 76 42 3c fb 91 9b bd 39 77 5d bf f3 50 88 be
       0.011869183 -0.07596203 -0.86510044 -0.2662426
000010 98 72 25 bf a0 fb 44 be e0 90 42 bf 9e d0 8b bf
       -0.6462798 -0.19236612 -0.7600231 -1.092304
000020 c8 10 cf 3e 24 b2 48 bd c0 58 c0 3f af d8 e1 be
       0.4044249 -0.048998013 1.5027084 -0.4411063
000030 16 d2 c6 3e 55 0d 98 bf b9 5f c7 be 54 d4 fe 3e
       0.38832158 -1.1879069 -0.38940218 0.49771369
000040 9a 76 be be f3 af 39 3f 01 4d 52 3f 4b 65 84 bf
       -0.3719986 0.725341 0.8214875 -1.0343412
000050 92 1e c4 bc 8c fa a8 bd a0 47 c8 bc 6e 29 11 3f
       -0.023940358 -0.08250913 -0.024448216 0.5670384
000060 f6 16 ad 3d 7e 75 a9 bf f4 cc 9d 3e 83 df d5 3e
       0.08451645 -1.3238981 0.3082043 0.41772088
000070 b4 c9 67 3e fe fd 11 3f e5 9a 5b 3f 13 6d 62 bf
       0.22635537 0.57028186 0.85783225 -0.88447684

block2.1.running_var f4 [32]
000000 af 07 6b 3f ce 55 21 3f 9f dd 80 3f 38 23 59 3f
       0.918086 0.6302155 1.0067633 0.84819365
000010 4e c7 07 40 6e 5f 8c 3f 4e 23 2c 3f 08 d1 96 3f
       2.1215396 1.0966623 0.6724137 1.1782541
000020 dc 32 1a 3f 23 54 5b 3f 18 1a f1 3f 8b 5b 26 3f
       0.60233855 0.8567526 1.8836088 0.64983433
000030 b0 53 1a 3f 15 4d 25 40 cb 6c 46 3f 43 d8 4a 3f
       0.60283947 2.5828297 0.77509755 0.7923624
000040 76 f9 7d 3f 58 f7 2e 3f 30 2b 85 3f fb 43 a1 3f
       0.9920877 0.68346167 1.0403805 1.2598871
000050 a3 3b c6 3f fa 40 53 3f d5 7d 4b 3f c6 c6 54 3f
       1.548695 0.8252102 0.7948888 0.83115804
000060 eb 6e 12 3f 17 56 e1 3f 07 84 41 3f 33 d1 07 3f
       0.572005 1.7604398 0.7559208 0.5305359
000070 20 6b dd 3e e8 de c5 3f 7f 60 32 3f 5a 6d 70 3f
       0.43245792 1.545865 0.6967849 0.9391686

block2.3.weight f4 [16, 32, 3, 3]
000000 cf 86 ac bc 82 21 cc 3b 5d f0 b9 3c 77 74 21 bd
       -0.021060375 0.0062295804 0.022697622 -0.03941771
000010 ea 3c a9 3b 45 ab b9 bd 6d 22 a4 bd 95 b8 d6 bd
       0.005164732 -0.0906587 -0.08014379 -0.10484425
000020 fb 42 ce bd fc fe 60 3d 64 de ca 3b b0 5c 81 3d
       -0.10071369 0.054930672 0.006191062 0.06316507
000030 bf 8d 6e bd 55 92 87 bd 32 a2 93 3d 4d 95 48 3d
       -0.05824065 -0.066197075 0.07208671 0.04897051
000040 51 1b 31 3c 8c 29 80 bd 34 6b 3d 3d cb 5b 76 bd
       0.010809735 -0.062579244 0.046244815 -0.060146134
000050 a2 99 d8 ba a7 dc ae bc 48 6a 91 bc 2c 51 c9 bc
       -0.0016525278 -0.02134545 -0.017750874 -0.024574839
000060 49 70 10 be d1 e6 24 be 26 c6 da bd fc d4 51 3d
       -0.14105333 -0.16103674 -0.10682325 0.05122851
000070 3b 32 1c 3d 9f a6 13 bc 79 87 66 bd 0c 4c 9d bd
       0.03813384 -0.0090118935 -0.05628154 -0.076805204
000080 7e bc a5 b9 eb cd 5f 3d bb 96 b8 bc d5 0e 8a 3b
       -0.0003161169 0.054639738 -0.022532811 0.004213194
000090 d6 16 d6 3c b5 0f f6 3c a9 f2 35 bd af 5c 82 bd
       0.026133936 0.030036787 -0.044420872 -0.06365334
0000a0 68 60 f3 bc 55 5a bb ba 9b 5d cd bc 12 33 d8 ba
       -0.029709056 -0.0014293889 -0.025069049 -0.0016494712
0000b0 0f 5e ab bc 8f 6a 49 3d 0c 5a 0c bd fd cb aa bc
       -0.020918874 0.049173888 -0.034265563 -0.020849222
0000c0 32 47 62 3c c4 79 69 3d 13 b5 bc bb 42 fc 07 3e
       0.01381092 0.05700089 -0.0057588904 0.13279822
0000d0 f7 f0 46 3d a3 3b a5 3d 7a 24 1c bd 1f 67 31 bc
       0.048569646 0.080680154 -0.038120724 -0.010827809
0000e0 ff 20 0e bd 2f 6c 31 bd a5 f4 9c bc b5 c2 9f 3d
       -0.034699436 -0.043316063 -0.019159624 0.07800809
0000f0 da 8a 71 3c 90 b9 52 3c e6 52 b6 3d 46 31 a2 3c
       0.014742577 0.012861624 0.0890253 0.019798886
000100 53 85 9c bd 44 98 4e bd c5 c4 0c bd ac e7 8e bd
       -0.07642617 -0.05043818 -0.03436734 -0.06977782
000110 d4 8d 58 3c 11 8a 94 bc 68 a6 70 bd 1a a8 ad 3c
       0.013217408 -0.018132241 -0.058752447 0.021198321
000120 ab 51 95 3d b5 b5 23 3c 09 9d a5 3d 85 6e 75 ba
       0.072909676 0.009992053 0.08086593 -0.0009362477
000130 41 bf 52 3c 65 21 b9 3d 0a 82 58 bc 90 ff cd 3c
       0.012862981 0.090395726 -0.0132145975 0.025146276
000140 a6 a3 09 bd fb dc 1c bc 80 32 61 bd c4 da 7a 3d
       -0.033603333 -0.00957417 -0.0549798 0.061243787
000150 3a 1b 06 bd c9 af ea bc 53 ac 28 3c c2 d1 9c bb
       -0.03274081 -0.028648274 0.010294992 -0.0047857473
000160 64 33 23 3d 23 a8 ae bb 39 75 d9 3c 9d 49 87 bd
       0.03984393 -0.005330102 0.026545154 -0.066058375
000170 55 a5 97 bc 5f 47 7c bd 51 4b 69 bd bd 68 af 3c
       -0.018511454 -0.061591502 -0.056956593 0.021412248
000180 f3 70 15 bc 87 6d 52 3d 5e d3 29 3c ee 32 b3 bc
       -0.0091211675 0.051373985 0.010365335 -0.021874871
000190 ac 22 bc 3c 2e 7f 07 3c 26 c7 4d ba fa 4d 2c bd
       0.022965752 0.008270068 -0.0007849805 -0.04206655
0001a0 02 a7 6c 3d 3e 3f ce 3c fd ba a4 bc ef e5 e5 bb
       0.05777646 0.02517664 -0.020108694 -0.0070159356
0001b0 54 c1 8d bd 16 00 b6 3c d8 6a 39 bd 4b 66 3a bd
       -0.0692164 0.022216838 -0.04526791 -0.04550771
0001c0 0e 71 49 bc 92 ff 45 3d 67 7c 74 3d 9a f3 57 3d
       -0.012295021 0.048339434 0.05968895 0.05272255
0001d0 4d 69 14 3d d4 4b 1e bd 97 d2 4a bc 1e 9b 7f bd
       0.036233235 -0.038646534 -0.01237931 -0.06240379
0001e0 6e 8b 5b bd 1c 17 57 bd e5 c2 a6 bd 2a f6 9f ba
       -0.053599767 -0.052512273 -0.08142642 -0.00122041
0001f0 bf 4e 09 3d dd 1d 1c bd 8e 52 a4 3d 2d 41 ca 3d
       0.033522364 -0.038114417 0.080235586 0.098757125
000200 0c 59 f5 3d 14 a0 a2 3c 0c 7b 8d ba 4d e8 92 bd
       0.11979875 0.019851722 -0.0010794117 -0.07173214
000210 7f a9 2c bd ec eb c0 bc 15 8a 2c bd e2 14 ef 3b
       -0.04215383 -0.023549996 -0.042123873 0.0072961906
000220 ea 02 1c 3d c8 4a 0f 3d a7 28 e3 3c b5 9d aa 3c
       0.038088717 0.034983426 0.027729345 0.020827154
000230 44 b0 0e 39 78 7b fb bb ba 7c a7 3d 42 86 f4 3d
       0.0001360784 -0.0076746307 0.081780866 0.1193967
000240 22 05 8e 3c 04 8b c7 3d ae e0 a7 3d 64 d1 38 bd
       0.017336432 0.09743312 0.08197151 -0.045121565
000250 82 f7 5d bd d6 09 8b bc f8 bf 7d ba 71 4c c7 3c
       -0.05419112 -0.016972464 -0.00096797897 0.024328442
000260 13 a9 be 3c ab d6 64 3d e4 20 15 3d fd 77 83 3d
       0.02327398 0.055868786 0.03640832 0.0641937
000270 3c 42 52 3d 22 37 bf 3c b8 14 71 3c 61 18 8b 3d
       0.051332697 0.023341719 0.014714412 0.06791759
000280 76 f5 c5 3d af 38 d6 bc c5 f4 7c bb 4b c3 3a bd
       0.096659586 -0.026150076 -0.0038598042 -0.045596402
000290 fe 3e a8 3d 72 15 3a bc 24 7b b7 bc 5d b8 72 3d
       0.0821514 -0.011357652 -0.022397585 0.059257854
0002a0 60 77 08 3d 45 7d 0e 3d 38 d9 51 3c cd f5 92 bb
       0.03331697 0.034787435 0.012808137 -0.004484868
0002b0 b8 5e fa 3b 14 7c 81 3c db 07 94 bd 93 c5 52 bd
       0.007640686 0.015806235 -0.07228061 -0.051457953
0002c0 55 8b ca 3c 39 07 af bd c1 a3 bb bc f3 45 c9 bc
       0.024724642 -0.085462995 -0.022905232 -0.024569487
0002d0 38 84 51 3c 6a 17 59 bd a2 1b 48 3c 1f ac f2 bb
       0.012787871 -0.053000845 0.012213619 -0.0074057723
0002e0 80 9b 3f 3d ac 4a dd 3b e2 49 01 3d 36 b0 c4 3c
       0.046779156 0.0067532863 0.0315646 0.024009805
0002f0 64 42 81 3d 3b 7e 3e bd 66 29 ab bc e1 03 4b 3c
       0.06311491 -0.0465071 -0.020893764 0.0123910615
000300 fe 22 68 bd 9a ad 4b bb cd 05 41 bc fc 38 dc bd
       -0.056673996 -0.0031078816 -0.011781168 -0.107530564
000310 c8 cc 65 bd fd d6 f3 bb 62 3c b8 bc ca 4a 44 3c
       -0.056103498 -0.0074414 -0.02248973 0.011980722
000320 d1 5d a3 bd 9c f7 08 bd 05 cb 18 bd 6a 3b 20 3d
       -0.079768784 -0.033439264 -0.03730299 0.03911916
000330 52 27 81 3d 62 26 7a bb 11 d0 af 3d 4e 5a d0 bc
       0.06306328 -0.003816985 0.085846074 -0.025433686
000340 de 0b 46 bd fe c4 1b bc 7d c3 67 bd 5d a6 a9 bc
       -0.04835116 -0.009507416 -0.056582917 -0.020709211
000350 e4 66 cc 3c 22 af a7 bd 9d ec e1 bc 18 2d 40 3d
       0.024951406 -0.08187701 -0.027578646 0.046918005
000360 86 83 9b bc e4 6e d0 3d 3d 14 0f 3d c8 43 6a bd
       -0.018983614 0.10177401 0.03493141 -0.057193547
000370 bb 5c bd 3d ad 02 79 bd 56 a6 ac 3d 14 f7 10 ba
       0.092462026 -0.060793567 0.084301636 -0.00055299816
000380 3e d4 d5 bc af 7d 6e 3d 9c f9 c2 bc 02 ad ac bd
       -0.026102182 0.05822533 -0.023800664 -0.08431436
000390 2c 2c e0 3c 03 35 58 bc 66 9e 97 3d f9 aa a1 bd
       0.027364813 -0.013196233 0.07403259 -0.078939386
0003a0 ac f7 a9 bc 24 04 93 bc 43 c8 83 bd 62 34 c2 ba
       -0.020747982 -0.01794631 -0.06434681 -0.0014816637
0003b0 ca cd c0 bc 66 84 bd bd 46 f7 43 bd fb 2d 78 bd
       -0.023535628 -0.092537686 -0.04784324 -0.060590725
0003c0 96 16 82 bd 0a 2f fb bc 4f 8a 55 bd 5c b2 97 3d
       -0.06351964 -0.030662078 -0.052133854 0.07407066
0003d0 1f 53 90 3d 63 bb d1 3d b7 2c 14 3d 5b fb d7 bc
       0.07047104 0.10240819 0.036175456 -0.026364973
0003e0 d4 9b 83 bd ed 97 8d bd b4 77 23 bd 70 b0 06 bd
       -0.06426206 -0.06913743 -0.03990908 -0.032883108
0003f0 ed 25 c3 3b 1c c3 28 bb 66 11 07 bd 15 40 62 bb
       0.005955449 -0.002575106 -0.032975577 -0.003452306

block2.3.bias f4 [16]
000000 d7 e4 59 3c 10 51 74 bb 5a 2a c6 3c bc 89 31 3d
       0.013299189 -0.0037279762 0.024190117 0.043344244
000010 58 e7 48 bc 21 8d 63 3d 1d c9 c7 3a 63 34 9d 3c
       -0.012262188 0.055554513 0.0015242432 0.019190019
000020 f6 19 26 bc 99 a0 3e bd f2 23 1f 3d be d8 6a 3c
       -0.0101380255 -0.046539877 0.03885264 0.014333902
000030 55 23 38 3d 64 60 62 bd 6a a5 28 bc 1f 04 aa 3c
       0.04495557 -0.055267707 -0.010293344 0.020753918

block2.4.weight f4 [16]
000000 73 ea 75 3f d4 42 80 3f 4a 61 8c 3f 3a d1 73 3f
       0.96060866 1.0020394 1.096719 0.9524113
000010 ca c7 7e 3f 61 84 83 3f 39 86 6d 3f ae b6 68 3f
       0.99523604 1.0274774 0.9278293 0.9090375
000020 44 0b 86 3f 93 c3 6a 3f 7f 65 84 3f 82 59 7e 3f
       1.0472188 0.9170467 1.0343474 0.9935533
000030 b4 24 81 3f bf 0d 81 3f cd 12 86 3f a7 f6 81 3f
       1.0089326 1.008232 1.0474488 1.0153397

block2.4.bias f4 [16]
000000 60 02 ed bd de cb a2 bd d8 0a bd bd 2c 62 9d 3b
       -0.115727186 -0.07949041 -0.09230584 0.0048029628
000010 8e e9 89 bd 09 2f 88 bd 1b 1d b8 bd a5 c4 1d bd
       -0.06734 -0.06649596 -0.089899264 -0.038517613
000020 5c d3 1b 3d 8a af 75 bc 85 43 ac 3d 81 81 c5 bd
       0.038043365 -0.014995465 0.08411316 -0.096438415
000030 ad e2 6a bd 22 8c 83 bd 8b 0a 18 bd d4 81 93 bd
       -0.05734508 -0.064232126 -0.03711943 -0.07202497

block2.4.running_mean f4 [16]
000000 2f 43 16 be 4f 05 ca bd 6d 8d 46 bf ac 08 5f 3e
       -0.14674066 -0.09864294 -0.7755955 0.21780652
000010 cc 41 85 3d ef c5 2c 3f 9c 7c b5 be dd 97 7b be
       0.065066904 0.6748952 -0.35446632 -0.2456965
000020 78 62 93 bd 24 64 04 bf a7 78 71 bf 73 f6 76 bd
       -0.07196516 -0.517153 -0.94324726 -0.060293626
000030 65 9a 28 bf a4 8f 29 3c 06 f5 b2 bf 45 af e4 bd
       -0.6586059 0.010349188 -1.3981025 -0.111662425

block2.4.running_var f4 [16]
000000 1c f5 42 3f 81 6a 5b 3f ad b7 9a 3f a0 de 55 3f
       0.7615526 0.8570939 1.2087303 0.83542824
000010 a4 02 66 3f a2 07 80 3f 66 3f e3 3f ff 3d 5d 3f
       0.8984778 1.0002329 1.7753723 0.86422724
000020 20 ee 7d 3f 06 a2 80 3f 03 b8 1b 40 de 15 d8 3f
       0.99191475 1.0049446 2.4331062 1.6881673
000030 fc 66 95 3f 4b 4b a7 3f 2b 9c 71 3f 75 7d 47 3f
       1.1672053 1.3069853 0.9437892 0.7792581

block3.0.weight f4 [32, 16, 3, 3]
000000 cd 83 e8 3c 3b 61 6c 3d 03 4c 8b bd 08 e4 56 bd
       0.02838316 0.057709914 -0.068016075 -0.05246356
000010 1f b2 3f bc fd ac 63 3d a4 b8 23 be e6 49 7d bd
       -0.011700182 0.055584896 -0.15988404 -0.061838053
000020 f9 4f bd 3d 62 bf 5f bc 7f b1 1c bd c5 b8 82 3d
       0.09243769 -0.013656469 -0.03825521 0.06382898
000030 0c 2b 2a bc b0 56 4c bc b0 f2 0d 3e 67 b0 42 3d
       -0.01038624 -0.01247184 0.13862109 0.04753151
000040 db 65 50 3d 0b bf 54 3c 58 a1 bd bd 9b 86 51 bc
       0.050878387 0.012985001 -0.092592895 -0.01278844
000050 e1 97 ea 3d f3 30 0a 3d 54 b6 e3 3c 95 a3 a4 3d
       0.1145475 0.033738088 0.027796902 0.08039013
000060 6e 67 95 3c ec 48 97 bd fd c2 ea 3c cb 53 a6 bc
       0.018237796 -0.073869556 0.02865743 -0.020303627
000070 6b 1e 23 3d c4 20 5e bc e0 87 88 3d 75 15 09 3e
       0.03982393 -0.013557617 0.06666541 0.13387091
000080 67 f6 e7 bd 02 73 86 3b 1b 1e 6f 3c 57 6e 8e bc
       -0.113262944 0.0041030655 0.01459458 -0.017386599
000090 4a 50 6d 3d d5 5f a5 bb 76 4c d5 bd 13 35 56 bc
       0.057937898 -0.0050468245 -0.104149744 -0.013074177
0000a0 ab 55 29 bc fa 70 e9 bc fa c9 cc bd 18 99 4d 3d
       -0.010335366 -0.028496254 -0.099994615 0.05019483
0000b0 5d 24 87 3d 31 21 33 3c 7b 4a b2 3d 2e 75 24 bd
       0.065987326 0.010933206 0.08705612 -0.040150814
0000c0 76 76 07 be da 12 fe 3c 30 2d 83 3d c9 fb 8b 3d
       -0.13228783 0.031014849 0.06405103 0.068351336
0000d0 5a 22 92 3d dc f6 cc 3d 10 ba ea 3b 34 21 ff bb
       0.07135458 0.10008022 0.0071632937 -0.0077859405
0000e0 42 65 8f 3c fc e0 76 bd 21 93 0c 3d f7 0b c9 bd
       0.017504338 -0.060273156 0.03432 -0.09816735
0000f0 96 8e 0c bd 18 bb cf 3d 53 bb 32 3b cb 9e 9c bc
       -0.034315668 0.10143107 0.0027272298 -0.019118687
000100 96 2c 81 bd c2 4f b9 bd fe c8 76 bd 5e 00 99 bd
       -0.06307332 -0.09048416 -0.060250275 -0.07470773
000110 e0 82 11 bd 83 59 dd 3b bf 9e 71 bc 8b 06 b4 3c
       -0.035525203 0.0067550554 -0.014747321 0.021975776
000120 ba fd 50 bc 43 ec ff bc 53 fd 02 bd d5 97 ac bc
       -0.012755806 -0.031240588 -0.03197987 -0.021068493
000130 77 16 c6 bc b5 aa 8b 3b e7 5c e3 bc e7 32 e2 3c
       -0.024180634 0.004262293 -0.02775426 0.027612163
000140 a6 d7 a4 3c 4a f5 82 bb 18 2d 3d bd f1 e0 76 bd
       0.02012236 -0.003996526 -0.046185583 -0.060273115
000150 26 22 48 3c b6 cb 77 3d bc 33 07 3c de 49 72 3d
       0.012215173 0.06049701 0.0082520805 0.059152476
000160 6d f0 94 bc db 34 ab 3d 82 3b 9f bc 4e 51 7d 3d
       -0.01818105 0.08359691 -0.019437555 0.061845116
000170 cb 90 37 bd 9c 82 c4 bb 14 e5 f3 3d e6 47 e0 bd
       -0.04481582 -0.005997015 0.119089276 -0.109512135
000180 6b 05 8b bc 5c f1 61 bc 39 be 31 bd 71 91 8b 3c
       -0.016970357 -0.013790455 -0.0433943 0.017037125
000190 99 09 cb 3d 69 d9 54 3c 47 13 81 3d 02 eb ff 3d
       0.0991394 0.012991288 0.06302505 0.12495996
0001a0 0d e5 09 3d 2d 60 d4 bd 96 4c 4a bd bf 71 95 3d
       0.033665705 -0.103699066 -0.049389444 0.07297086
0001b0 4a 08 1d 3e 63 1e 6c 3d 6c 9c 37 bd 7e db 18 3b
       0.15335193 0.057646167 -0.04482691 0.0023324187
0001c0 5c 83 63 bd ad 49 2d 3d e5 52 b5 bd 18 17 50 bd
       -0.055545196 0.04230659 -0.088537015 -0.050803274
0001d0 ee 93 00 bd b5 34 ae 3d b1 88 d1 3d 48 b6 cf bb
       -0.031391077 0.08506147 0.1023115 -0.0063388683
0001e0 1a ab 66 bd 97 76 a0 bb 8f 5d 18 3e 47 82 02 3d
       -0.05631552 -0.0048969495 0.1487944 0.031862523
0001f0 c1 70 f8 3d 00 84 90 3b 42 8d d7 3d 75 9b e0 3d
       0.12130881 0.004410267 0.1052499 0.10967151
000200 3e f4 33 bd a4 22 8e 3b d0 c1 9c 3c f2 1c 46 3b
       -0.0439341 0.0043376256 0.019135386 0.0030229655
000210 e5 d0 8c bd 41 2c 6f 3c ef 81 98 bd df 65 71 bd
       -0.06875781 0.014597953 -0.07446658 -0.058935042
000220 7c 08 98 3c d1 bd 68 3d 1d 2b e8 3d a8 8d 4f 3d
       0.018558733 0.056821648 0.11336348 0.050672203
000230 fa 15 e6 bd 9d 19 1e bd 19 27 3e bd 2a c5 90 bc
       -0.112346604 -0.038598645 -0.046424005 -0.01767214
000240 15 41 8e 3c 4b b7 13 3e 8c 59 c4 3d 8f c2 4f 3c
       0.017365018 0.1442539 0.09587392 0.012680664
000250 ac a8 0a 3c b0 6a ab 3d 13 42 93 3c 8e b3 73 bd
       0.008463066 0.083699584 0.017975843 -0.05949741
000260 62 f1 9b bb 15 3a 21 3d ed 7f 97 bd ca fd 3e bd
       -0.0047589997 0.039362032 -0.07397447 -0.04662875
000270 13 33 ce bc 38 4d 46 3d 6a 50 16 3d bd 77 91 3b
       -0.025170838 0.048413485 0.036697783 0.0044393227
000280 18 9e 90 bb 03 7d 23 3c ff 8e fd 3d 04 f3 9c 3d
       -0.0044133775 0.009978536 0.1238079 0.07663539
000290 46 ec 30 3d c2 85 8d bd b9 8b 88 bd a8 84 e6 bd
       0.043194078 -0.06910278 -0.06667275 -0.11255771
0002a0 bb 75 6c bd bf b2 34 bd 1f c7 c8 bc f4 ca f6 3c
       -0.057729464 -0.044115778 -0.02450901 0.030126072
0002b0 73 a6 09 be 5d 9b af bc d0 cf 90 3d 53 a3 09 3d
       -0.13442402 -0.021436388 0.07070887 0.033603024
0002c0 d5 b7 31 bd db 50 2b bd 06 b8 0b 3d 1d fa 2a 3d
       -0.043388207 -0.041825157 0.034111045 0.041742433
0002d0 0a 7c ab 3a 6f 51 66 3d a6 6a 53 3e bc ce 08 bb
       0.0013083231 0.056230005 0.20646152 -0.0020875176
0002e0 ee 02 17 3d 9a c5 bd 3d 1e 5d 10 3d 32 3a d0 bd
       0.03686803 0.09266205 0.035245053 -0.1016735
0002f0 d4 62 ec 3d 0a 48 58 3d cf 51 30 3d d1 75 e2 3c
       0.115422875 0.052803077 0.04304677 0.02764407
000300 9f 7f 38 3d 7c a7 1a bd 01 28 90 bd dc 32 32 3d
       0.045043584 -0.03775738 -0.0703888 0.043505535
000310 0b 87 52 3d 9f 78 7e 3c 67 24 d3 bc 6a 61 20 bd
       0.05139832 0.015531688 -0.025774194 -0.0391554
000320 9c 39 1f be 7b 96 93 3d af 39 0b 3c a3 bd 84 3d
       -0.1554932 0.07206436 0.00849764 0.06481483
000330 ba b7 77 bc 84 1c b0 3d 90 3a 9c 3c 0d 12 f6 bb
       -0.015119487 0.08599189 0.019070894 -0.007509476
000340 28 d7 0d 3d c2 97 ce bb 10 5b 07 bb 77 d9 32 bb
       0.034629017 -0.006304712 -0.0020653643 -0.0027290264
000350 bf a5 7b 3d 75 5c 12 bd b1 03 1b bd bf 6b 80 bd
       0.061437365 -0.035732705 -0.037845317 -0.06270551
000360 3d e5 9b 3d 4c 75 5a 3d 3e 83 6e bd 25 0c cc 3c
       0.07612083 0.05333452 -0.05823063 0.024908135
000370 99 d4 94 3d a8 99 d5 3c 2e af 86 3d 30 04 63 3c
       0.07267112 0.026074246 0.065763816 0.013855979
000380 c5 f2 b1 3d 2d 9a bf 3d 0e 16 3f 3d 76 23 34 3c
       0.08688883 0.093555786 0.046651892 0.010994783
000390 30 cd 2c bd 19 84 3c 3d f1 e4 11 bc cc 1b ed 3d
       -0.04218787 0.046024416 -0.008904682 0.115775675
0003a0 ae c1 60 3d a7 77 93 3b 94 c8 03 3d db 50 62 bd
       0.054872207 0.0045003477 0.032173708 -0.05525289
0003b0 b6 74 c2 bd f5 57 52 bd 23 2d 7f 3d 50 a1 31 bd
       -0.09494917 -0.051353414 0.062298905 -0.04336673
0003c0 58 a5 99 3d 51 5e bb 3d b0 11 13 3e bc bb c8 3c
       0.0750224 0.09148849 0.14362216 0.024503581
0003d0 b1 13 78 3c 8c 85 85 3d a9 01 ca 3b a9 94 2f 3d
       0.015141414 0.06519613 0.0061647487 0.042866383
0003e0 5e 74 18 3e 9a ff 3d 3d f4 bc bb 3d 3c 4d 23 3d
       0.1488814 0.04638634 0.09166899 0.03986858
0003f0 fc d3 ee 39 96 d9 b7 3d 26 df 14 bc 8e 8f c2 3d
       0.00045552838 0.08977048 -0.009086406 0.09500037

block3.0.bias f4 [32]
000000 3e 8c 46 bc 5a cc 43 3d a3 cc d8 bd 91 8c 08 bd
       -0.012118397 0.047802307 -0.10585906 -0.03333718
000010 30 2f 01 bd c0 d5 1f bb ff 1f 48 bd e1 1c f9 bc
       -0.031539142 -0.002438888 -0.04885864 -0.030409278
000020 79 84 e5 3c 18 2f 76 bc 71 59 7b bd 69 f5 92 bc
       0.02801727 -0.015025876 -0.061364595 -0.017939286
000030 58 18 0d 3d c2 1e f0 bb 08 41 8a 3d c4 83 5f bd
       0.034447044 -0.0073278854 0.06750685 -0.05456902
000040 81 7c a9 3d 5e 6f 6b 3c 60 5c 94 bd 0c 3b b9 bd
       0.082757 0.014369814 -0.07244182 -0.090444654
000050 38 2d ac 3c 2a 9f 96 bc 2f 61 38 3b c5 4a 13 3d
       0.021017656 -0.018386442 0.0028134098 0.035959978
000060 fb 72 47 bd 04 52 3a 3a 37 ea 81 bc 25 7d bd bd
       -0.04869364 0.0007107558 -0.015858753 -0.09252385
000070 43 a2 13 3d cb d4 88 3c 5e 2b 96 bd ff 16 b4 3d
       0.036043417 0.01670303 -0.073324904 0.08793449

block3.1.weight f4 [32]
000000 11 79 9c 3f 94 9b 96 3f 8f 59 99 3f 9d 32 9a 3f
       1.2224447 1.1766229 1.1980456 1.2046696
000010 04 35 9d 3f 6a d7 97 3f 38 fa 9f 3f 74 ba a4 3f
       1.2281804 1.1862614 1.2498236 1.2869401
000020 a1 c6 9b 3f 09 77 94 3f 0a e2 9c 3f e9 3b a0 3f
       1.2169992 1.1598827 1.2256482 1.2518283
000030 5b 6b 9a 3f d5 8f 9d 3f 01 7a a8 3f 2c 47 9a 3f
       1.2064012 1.2309519 1.3162233 1.205297
000040 4a 73 98 3f f4 74 9d 3f 0b ef 98 3f c3 59 94 3f
       1.1910183 1.2301316 1.194795 1.1589893
000050 f5 8f 9c 3f 51 6f 9a 3f 03 79 98 3f f7 cd 9e 3f
       1.2231432 1.2065221 1.191193 1.2406605
000060 2e 67 9a 3f df 8f 9f 3f 2a ff a0 3f da 9f 9e 3f
       1.2062738 1.2465781 1.257787 1.2392533
000070 f1 43 9a 3f 79 29 9f 3f 19 a7 9c 3f f0 f9 9f 3f
       1.2051984 1.2434531 1.2238494 1.249815

block3.1.bias f4 [32]
000000 0d 3f 96 bd e8 84 86 bd d0 19 89 3b 48 84 fd bc
       -0.07336245 -0.065683186 0.0041839853 -0.030946866
000010 ed 36 f8 3c 11 3b 3b 3d 63 47 1a bd 9d bd 30 3d
       0.030299628 0.045710627 -0.037665736 0.04314958
000020 0f b4 7f 3c 87 b2 88 bc 4b c7 9f bd 51 6e 9d bc
       0.015606894 -0.016686691 -0.07801684 -0.019217642
000030 cd 8b 31 bd 41 3f 39 bd d4 d6 14 bb ea ac 5d bd
       -0.043346215 -0.04522634 -0.0022711055 -0.05411998
000040 44 6f af 3c 05 5c cb 3c 3e fd 8f bd 3e b7 40 3c
       0.02141536 0.024824152 -0.07030724 0.011762438
000050 65 0e 06 3d dc fb c9 bc d8 8f b2 bc f0 86 82 3c
       0.03272857 -0.024656229 -0.021797106 0.015933484
000060 84 ac 32 bd 46 e8 c3 bc 8d c6 71 3c b5 51 35 bd
       -0.043621555 -0.023914468 0.014756811 -0.044267375
000070 ac d7 73 3c 5f 6d 5c bc a5 76 62 3c 81 58 0c bd
       0.014882963 -0.0134538105 0.013822232 -0.03426409

block3.1.running_mean f4 [32]
000000 dc d6 07 3f ec 84 8d 3f 94 67 6b bf e2 ba 0d be
       0.53062224 1.105619 -0.9195492 -0.13840821
000010 c6 57 1b 3f e7 76 ab be 40 3e cf 3c 2f 86 67 bc
       0.60680807 -0.33489153 0.025298238 -0.014131113
000020 aa 83 ee 3e b0 af 2b be 98 f2 fa be 2a 06 21 3c
       0.46584827 -0.16766238 -0.4901321 0.00982813
000030 43 d5 d8 3e 7e 3f b0 3e 3d ad ba 3e c0 dc 0c bc
       0.42350206 0.3442344 0.36460295 -0.008597553
000040 9a ae b7 bd 04 a0 45 3f 3e d8 ad bc 30 11 dc bd
       -0.089688495 0.7719729 -0.021221276 -0.10745466
000050 19 a5 b9 3e 58 0b f5 3e f7 63 43 3f c8 1f 08 3f
       0.36258772 0.47860217 0.7632441 0.53173494
000060 f0 df 4d 3e 8a 59 be 3e 9a 07 1d 3e 88 96 86 be
       0.20104957 0.37177688 0.15334931 -0.2628672
000070 d4 6d f2 3e 25 2f ce 3e 3c 0f 47 3a 18 37 39 3f
       0.47349417 0.40270343 0.00075935177 0.7234969

block3.1.running_var f4 [32]
000000 d2 08 11 3f 37 14 e4 3e ab 21 1b 3f 69 69 19 3f
       0.56654084 0.44546673 0.6059825 0.5992647
000010 05 4b 39 3f c4 b5 1b 3f b0 52 18 3f 7b 75 f2 3e
       0.72380096 0.6082423 0.5950117 0.47355255
000020 89 99 38 3f 57 be 1f 3f 02 e6 22 3f e4 bf 1e 3f
       0.72109276 0.6239981 0.63632214 0.6201155
000030 7d 47 29 3f 97 ce 3a 3f 7c de 1a 3f 82 29 1d 3f
       0.6612471 0.7297148 0.60495734 0.6139146
000040 c8 c6 4e 3f 8e c1 13 3f 7a e2 07 3f d2 21 4b 3f
       0.80772066 0.57717216 0.5307995 0.7934848
000050 e9 5d 25 3f d1 2c 5c 3f c0 75 30 3f 3e 21 5d 3f
       0.6459642 0.86005884 0.6892967 0.8637885
000060 94 ee 1d 3f cb c0 26 3f f6 d7 01 3f b2 e2 27 3f
       0.61692166 0.6513793 0.50720155 0.65580285
000070 b4 3c 46 3f 52 a7 e8 3e fd 3d 1f 3f ad 06 0e 3f
       0.77436376 0.45440155 0.6220396 0.55478936
