src/models/mnist_model_20241222_185030.pth (torch, 109309 bytes, 34 tensors)

block1.0.weight f4 [16, 1, 3, 3]
0.2652574 0.28290936 -0.10284079 0.28950307 -0.06889073 0.06519157 -0.15294454 0.20491336
0.28868842 -0.2566915 0.25199383 0.064650565 0.25714165 0.039770342 0.18985678 -0.012299469
0.2579646 0.08286231 -0.11457155 0.13605015 -0.120018095 -0.0554793 -0.07592946 0.24080978
-0.21221976 -0.14782842 -0.13643034 -0.21141376 0.0054433825 -0.35661528 0.31292537 -0.26622453
0.23270354 0.07578757 -0.07485138 0.21048217 -0.005879975 0.26054558 0.01674876 -0.14520398
0.08246535 -0.123513795 0.09500572 0.2927782 0.22017232 -0.13043046 0.19546612 0.02291034
0.18768679 -0.17011453 -0.3358947 -0.14157383 -0.21870948 0.30501533 0.077426314 0.13609098
0.11662267 -0.030114412 0.22930674 -0.23592639 -0.035343993 -0.27045727 0.06945034 -0.11709835
0.07918064 -0.07907244 0.25668272 -0.20369774 -0.21671663 -0.18010038 0.3217778 0.13517621
0.28449553 -0.29775146 -0.3547975 -0.25288904 -0.23070617 0.09332566 0.14634874 0.2712329
-0.19740023 -0.24334732 0.156555 -0.13506535 0.20103413 -0.05624554 0.20077778 -0.24840494
-0.1735412 0.11209322 0.08430789 -0.10216826 0.1412892 0.25794068 -0.24803552 -0.18558909
0.30617008 -0.13038945 -0.098733164 -0.30487353 -0.11328097 0.121606655 -0.020959916 -0.20361437
0.0076428927 -0.19359064 -0.23414704 -0.24005958 -0.2883475 -0.19686939 0.36186773 0.029152496
0.11137171 -0.28775653 -0.21049365 -0.07821334 0.04647317 -0.3030379 -0.110227644 -0.19524296
-0.009903572 -0.08100908 -0.013039907 -0.26780668 -0.18237776 -0.20428479 -0.120526806 -0.25547487
0.29876825 -0.06667904 0.28950715 0.13248771 -0.27370206 0.22446467 -0.076641105 -0.1313501
-0.24096212 -0.29533145 0.066728614 -0.06703751 0.111236274 -0.2990283 0.23667619 -0.26811662
00000000: d1cf 873e 7fd9 903e 319e d2bd bf39 943e
00000010: 9516 8dbd 2883 853d 7e9d 1cbe cfd4 513e
00000020: f8ce 933e 116d 83be 5605 813e 8467 843d
00000030: 12a8 833e 3ae6 223d d169 423e b683 49bc
00000040: f013 843e b7b3 a93d 7da4 eabd bb50 0b3e
00000050: 0ccc f5bd 433e 63bd e880 9bbd d796 763e
00000060: 2350 59be 5560 17be 65b4 0bbe d97c 58be
00000070: 675e b23b 4796 b6be c137 a03e 954e 88be
00000080: d649 6e3e 8336 9b3d ae4b 99bd a388 573e
00000090: ceac c0bb 3b66 853e b234 893c 5ab0 14be
000000a0: 98e3 a83d cdf4 fcbd 5c92 c23d 06e7 953e
000000b0: da74 613e 908f 05be 4528 483e 77ae bb3c
000000c0: f730 403e 8132 2ebe 64fa abbe bbf8 10be
000000d0: 61f5 5fbe f82a 9c3e b091 9e3d 6f5b 0b3e
000000e0: ded7 ee3d 80b2 f6bc 63cf 6a3e b096 71be
000000f0: ddc4 10bd 6079 8abe fb3b 8e3d 42d1 efbd
00000100: 7629 a23d bbf0 a1bd eb6b 833e 2496 50be
00000110: f7ea 5dbe 3c6c 38be 0fc0 a43e a26b 0a3e
00000120: 66a9 913e e172 98be 05a8 b5be ac7a 81be
00000130: 3d3e 6cbe 8621 bf3d 72dc 153e 0adf 8a3e
00000140: 4923 4abe 0a30 79be f44f 203e 924e 0abe
00000150: e4db 4d3e b961 66bd b198 4d3e dd5d 7ebe
00000160: c9b4 31be 2191 e53d 9da9 ac3d 983d d1bd
00000170: 1eae 103e cd10 843e 06fd 7dbe 110b 3ebe
00000180: 53c2 9c3e d084 05be 9d34 cabd 6218 9cbe
00000190: daff e7bd e90c f93d 21b4 abbc 4980 50be
000001a0: 3b71 fa3b a03c 46be 3ec4 6fbe 2ed2 75be
000001b0: 49a2 93be 2198 49be ba46 b93e 37d1 ee3c
000001c0: da16 e43d d354 93be a68b 57be 512e a0bd
000001d0: a75a 3e3d c927 9bbe 08bf e1bd c5ed 47be
000001e0: 9742 22bc 17e8 a5bd 56a5 55bc f51d 89be
000001f0: 3cc1 3abe 0830 51be c2d6 f6bd 9acd 82be
00000200: 27f8 983e 058f 88bd 483a 943e dcaa 073e
00000210: ad22 8cbe 11da 653e 03f6 9cbd a480 06be
00000220: c6be 76be af35 97be 03a9 883d f64a 89bd
00000230: d8cf e33d 3d1a 99be 3e5b 723e 9546 89be

block1.0.bias f4 [16]
-0.043028772 0.11861331 0.14640409 0.2433747 0.3029918 -0.25612327 0.042453445 -0.17391536
-0.020695021 -0.27336434 0.26287928 -0.30330998 0.12756045 0.1479976 0.11883435 -0.18520352
00000000: f03e 30bd 89eb f23d f4ea 153e 3837 793e
00000010: be21 9b3e 9722 83be aae3 2d3d de16 32be
00000020: 9b88 a9bc 69f6 8bbe 1d98 863e 724b 9bbe
00000030: 359f 023e af8c 173e 6c5f f33d fea5 3dbe

block1.1.weight f4 [16]
0.9628068 0.96698105 1.0181499 1.0041648 0.983036 1.0571619 1.0379695 1.0057129
0.9675562 1.0013784 1.0122387 0.99578524 0.99788845 1.0154139 0.9835096 0.9996117
00000000: 827a 763f 128c 773f bc52 823f 7988 803f
00000010: 3fa8 7b3f 1551 873f 2fdc 843f 33bb 803f
00000020: c3b1 773f 2b2d 803f 0a91 813f c8eb 7e3f
00000030: 9e75 7f3f 15f9 813f 49c7 7b3f 8de6 7f3f

block1.1.bias f4 [16]
-0.04107325 0.01025575 0.016854865 0.022812828 -0.025760064 0.011390535 0.041702516 -0.061714087
-0.02532446 -0.011593854 -0.0062007336 -0.01685673 -0.007830729 0.006793097 0.008343598 -0.011608025
00000000: 6d3c 28bd bc07 283c 3713 8a3c f8e1 ba3c
00000010: c506 d3bc 5e9f 3a3c 42d0 2a3d e9c7 7cbd
00000020: 3e75 cfbc 26f4 3dbc 862f cbbb 2017 8abc
00000030: 754c 00bc a198 de3b 96b3 083c 962f 3ebc

block1.1.running_mean f4 [16]
0.09651966 0.233931 0.08324509 0.23592119 0.39356884 -0.2916757 0.05095524 -0.17089939
-0.088473655 -0.29848272 0.26889193 -0.4560704 0.06014694 -0.029745616 0.13527763 -0.2983515
00000000: 19ac c53d 9c8b 6f3e 677c aa3d 5395 713e
00000010: db81 c93e 8456 95be 71b6 503d 4000 2fbe
00000020: ad31 b5bd bad2 98be 34ac 893e 0f82 e9be
00000030: a35c 763d 14ad f3bc 3886 0a3e 87c1 98be

block1.1.running_var f4 [16]
0.072747506 0.059380528 0.018173585 0.011910804 0.03550284 0.011460871 0.007509025 0.0048154187
0.034423508 0.0071217325 0.014638275 0.092104666 0.022618046 0.11126574 0.01789385 0.048096415
00000000: a5fc 943d ff38 733d c5e0 943c 8825 433c
00000010: 6d6b 113d 61c6 3b3c 440e f63b a9ca 9d3b
00000020: aaff 0c3d 6c5d e93b 60d5 6f3c 5fa1 bc3d
00000030: 7b49 b93c 4bdf e33d 2096 923c bf00 453d

block1.3.weight f4 [16, 16, 3, 3]
0.066416 0.027424566 0.018481081 -0.08806851 0.026570098 -0.016653629 -0.045073546 0.06854019
0.0151301585 -0.0477036 -0.039254524 -0.011676374 0.03219684 -0.03798135 -0.064271174 -0.016972348
-0.050115574 0.025237685 0.070729524 -0.08977102 -0.018770307 0.04169117 0.0003429731 -0.050236616
0.031046398 0.053583577 0.014889267 -0.051061913 -0.05509248 -0.023350902 -0.010936437 -0.02774131
0.03406211 0.10048894 0.027478201 0.001356192 -0.0030141622 -0.0027799082 0.007973154 0.025044538
-0.07041196 -0.035378087 0.08659002 0.043579537 0.0041177147 -0.042157196 -0.029634602 -0.053267978
0.020266099 0.08752877 0.08676819 0.048665017 -0.06599144 -0.043946654 0.0025807642 0.11114626
0.050419867 -0.01678819 0.059906848 -0.018021682 -0.06508117 0.021393444 -0.05376707 -0.02490723
-0.06753811 0.036079254 0.08196649 0.027560074 -0.036934886 -0.05388134 -0.04155168 0.05521984
-0.009238196 0.059494913 0.052157674 0.019399054 0.021172134 -0.024225336 -0.051241934 -0.067767754
0.033505637 -0.02182469 -0.036438383 -0.08410393 -0.050563797 -0.09736169 -0.08775798 -0.00922169
-0.011925481 0.029096516 -0.06556056 -0.08389678 -0.002669158 -0.066281244 -0.021264996 -0.0751768
0.024994856 -0.029304035 0.06946736 0.049438532 0.05683611 -0.083572134 0.07040157 -0.039759614
0.022418974 0.07248186 -0.014085611 -0.005573261 0.034549538 -0.056965802 0.036291566 -0.046451077
0.050243728 0.05110884 0.06715225 -0.06443881 -0.09585445 0.010864798 0.026412573 -0.12052846
-0.014902328 -0.05551246 -0.01325171 -0.040324867 -0.025395047 -0.017528918 -0.046581455 0.075243056
0.06470438 -0.020257616 -0.045962308 -0.062001184 -0.069199726 -0.09472327 0.011362525 -0.059549753
-0.078056194 -0.04482254 -0.028371898 -0.033744592 0.006308776 -0.012940499 -0.020466663 -0.03756562
-0.10736053 0.044751547 -0.032243174 -6.006536e-05 -0.040613636 0.017457355 0.08691836 0.039152913
-0.074745335 0.021366691 0.07447058 0.03494657 0.052577987 0.07877585 -0.010385112 0.021421557
-0.06887921 -0.012032488 0.03972082 0.051055197 -0.058202785 -0.07705181 -0.063162014 -0.07328633
-0.07761836 -0.020249203 0.06604263 0.05361582 -0.051963214 -0.065723516 0.044792466 -0.028458297
-0.01691996 0.033505067 -0.0015444267 -0.0421241 -0.03256006 -0.040578917 -0.048053186 -0.08106452
-0.08131463 -0.040161364 0.09230158 -0.04925398 -0.052952886 -0.031629287 0.025913034 0.036855433
0.034794506 0.0637016 -0.07533857 -0.014473998 0.02255681 -0.056043282 -0.08509794 0.06537816
-0.040234778 -0.054810796 -0.068630144 0.016285975 0.01091749 -0.0034552787 -0.015717324 -0.03765943
-0.08896687 0.0071806256 0.09784744 0.034414016 -0.07310227 0.04279546 -0.012209668 -0.05386883
0.06514138 0.07081316 0.056498602 -0.05635648 0.04142063 -0.103178054 -0.0017465374 0.04863553
0.011723142 0.04380921 -0.021103889 0.011093951 0.0049759992 0.0011635313 0.0029481244 -0.03947792
0.074287444 0.04759099 0.010857626 -0.06421335 -0.089229316 0.034501176 0.065925434 -0.04270986
0.003222546 0.099559985 0.0071428968 -0.015037417 -0.022606801 -0.07077094 -0.09071819 -0.04640648
-0.039789278 0.017021107 -0.024337636 -0.027069213 0.049657572 0.011657501 0.06759141 -0.04403973
00000000: 1d05 883d 7ca9 e03c a365 973c 435d b4bd
00000010: 89a9 d93c 316d 88bc 0a9f 38bd cd5e 8c3d
00000020: 7ce4 773c da64 43bd 5ac9 20bd 434e 3fbc
00000030: d5e0 033d 5592 1bbd 9ba0 83bd 9809 8bbc
00000040: fd45 4dbd 43bf ce3c a4da 903d ded9 b7bd
00000050: 30c4 99bc 5cc4 2a3d 12d1 b339 e9c4 4dbd
00000060: 0455 fe3c 747a 5b3d 1df2 733c 4c26 51bd
00000070: a7a8 61bd 644a bfbc be2e 33bc be41 e3bc
00000080: b684 0b3d 25cd cd3d f719 e13c 41c2 b13a
00000090: 4089 45bb 1f2f 36bb d5a1 023c 342a cd3c
000000a0: 2534 90bd 9de8 10bd 1c56 b13d 7580 323d
000000b0: e5ed 863b 06ad 2cbd 44c4 f2bc 862f 5abd
000000c0: 1705 a63c 4942 b33d 85b3 b13d f854 473d
000000d0: 8526 87bd 6801 34bd 0a22 293b a6a0 e33d
000000e0: 1085 4e3d 6387 89bc e260 753d 35a2 93bc
000000f0: 4749 85bd 4e41 af3c dc3a 5cbd 3f0a ccbc
00000100: 6c51 8abd d7c7 133d 0cde a73d aac5 e13c
00000110: 0949 17bd aeb2 5cbd 1832 2abd 332e 623d
00000120: cd5b 17bc f0b0 733d 49a3 553d c4ea 9e3c
00000130: 2f71 ad3c 3674 c6bc 10e3 51bd d2c9 8abd
00000140: 353d 093d b1c9 b2bc 6a40 15bd ae3e acbd
00000150: fc1b 4fbd 9165 c7bd 75ba b3bd 9216 17bc
00000160: 1863 43bc d15b ee3c 9d44 86bd 13d2 abbd
00000170: 0aed 2ebb 76be 87bd ee33 aebc 4bf6 99bd
00000180: 03c2 cc3c 040f f0bc e744 8e3d 0f80 4a3d
00000190: fbcc 683d de27 abbd b32e 903d fada 22bd
000001a0: ffa7 b73c 5f71 943d 56c7 66bc e79f b6bb
000001b0: d183 0d3d f954 69bd 77a6 143d 7c43 3ebd
000001c0: 5ecc 4d3d 8157 513d 1e87 893d 7ff8 83bd
000001d0: 564f c4bd 4402 323c 2e5f d83c a0d7 f6bd
000001e0: e528 74bc 0961 63bd b31d 59bc b02b 25bd
000001f0: 4609 d0bc ce98 8fbc 32cc 3ebd 0819 9a3d
00000200: bb83 843d 4df3 a5bc f942 3cbd f4f4 7dbd
00000210: 96b8 8dbd 46fe c1bd e229 3a3c 71ea 73bd
00000220: eddb 9fbd d797 37bd 2f6c e8bc c537 0abd
00000230: d9b9 ce3b 6304 54bc b4a9 a7bc 68de 19bd
00000240: d6df dbbd 664d 373d 6b11 04bd b0ee 7bb8
00000250: 7c5a 26bd ba02 8f3c 4102 b23d ce5e 203d
00000260: 1514 99bd 3309 af3c 0884 983d 2224 0f3d
00000270: 045c 573d 3c55 a13d 5126 2abc 437c af3c
00000280: 8b10 8dbd ea23 45bc 4cb2 223d 411f 513d
00000290: 0b66 6ebd 57cd 9dbd 165b 81bd 2517 96bd
000002a0: 60f6 9ebd a8e1 a5bc 5c41 873d 439c 5b3d
000002b0: 61d7 54bd 0d9a 86bd 4e78 373d 6021 e9bc
000002c0: ba9b 8abc 9c3c 093d 5c6e caba 528a 2cbd
000002d0: b35d 05bd 1436 26bd 6bd3 44bd 2805 a6bd
000002e0: 4988 a6bd 3e80 24bd 9c08 bd3d 8bbe 49bd
000002f0: 20e5 58bd b68d 01bd 9247 d43c b9f5 163d
00000300: af84 0e3d fc75 823d 1c4b 9abd 5924 6dbc
00000310: 0fc9 b83c a48d 65bd d447 aebd fce4 853d
00000320: 39cd 24bd 4981 60bd f68d 8cbd 2a6a 853c
00000330: 46df 323c f571 62bb 9ec1 80bc c640 1abd
00000340: 4334 b6bd 744b eb3b 3d64 c83d b6f5 0c3d
00000350: a5b6 95bd 4b4a 2f3d 0f0b 48bc 90a5 5cbd
00000360: d868 853d 7d06 913d 146b 673d 0dd6 66bd
00000370: aea8 293d 044f d3bd 12ec e4ba 0d36 473d
00000380: 6c12 403c 4971 333d 10e2 acbc 67c3 353c
00000390: b50d a33b a281 983a 5235 413b 99b3 21bd
000003a0: 0424 983d c5ee 423d 2fe4 313c 4a82 83bd
000003b0: dcbd b6bd 1b51 0d3d ea03 873d 89f0 2ebd
000003c0: 5a31 533b 1be6 cb3d f60e ea3b 805f 76bc
000003d0: e631 b9bc 5bf0 90bd 75ca b9bd b914 3ebd
000003e0: 15fa 22bd d96f 8b3c b95f c7bc 41c0 ddbc
000003f0: bd65 4b3d 1aff 3e3c 5d6d 8a3d 0163 34bd

block1.3.bias f4 [16]
0.034154106 -0.019132 0.09228714 -0.024876345 0.08159064 -0.06067975 -0.082254596 -0.028698042
-0.024439506 0.03436621 -0.094175346 -0.059889838 0.07152539 0.035137925 0.020215606 -0.06719161
00000000: 2de5 0b3d b6ba 9cbc 0a01 bd3d 7ac9 cbbc
00000010: fe18 a73d 548b 78bd 1975 a8bd 2818 ebbc
00000020: 5c35 c8bc 95c3 0c3d 01df c0bd 0c4f 75bd
00000030: e77b 923d c9ec 0f3d 339b a53c c19b 89bd

block1.4.weight f4 [16]
1.037883 1.0089697 0.96214044 1.0023451 0.98502845 0.9854045 0.9986075 0.99085915
1.032851 1.0024896 1.060061 0.99337476 0.95824397 1.0249214 1.0526788 0.97009754
00000000: 5ad9 843f eb25 813f d64e 763f d84c 803f
00000010: d32a 7c3f 7843 7c3f bea4 7f3f f2a8 7d3f
00000020: 7634 843f 9451 803f 14b0 873f cf4d 7e3f
00000030: 7a4f 753f a030 833f 2ebe 863f 5058 783f

block1.4.bias f4 [16]
-0.04949965 -0.015599659 -0.03409168 -0.011042969 -0.0012981358 -0.04212797 -0.0009201027 -0.012991227
0.036009196 -0.006546444 0.033280358 -0.03019467 -0.035970464 0.026884688 -0.0051237936 -0.025577728
00000000: 25c0 4abd b695 7fbc b8a3 0bbd 92ed 34bc
00000010: 3626 aaba 618e 2cbd 0c33 71ba 28d9 54bc
00000020: 617e 133d 8d83 d6bb fc50 083d d05a f7bc
00000030: c455 13bd 473d dc3c 7fe5 a7bb 6288 d1bc

block1.4.running_mean f4 [16]
-0.31896234 -0.2760908 -0.14315385 -0.49924362 0.32374775 -0.34695503 -0.21510538 -0.03452139
0.03687285 0.013272791 0.12506627 -0.029197041 -0.24069156 0.22559331 -0.24643904 0.27982858
00000000: 084f a3be c65b 8dbe ec96 12be dc9c ffbe
00000010: 44c2 a53e 17a4 b1be 9644 5cbe 4d66 0dbd
00000020: fc07 173d 1f76 593c 5f11 003e a22e efbc
00000030: d977 76be ef01 673e 845a 7cbe b145 8f3e

block1.4.running_var f4 [16]
0.10818913 0.14954352 0.10196262 0.2803637 0.28265557 0.1010218 0.31541198 0.14785966
0.18809451 0.34052828 0.21213055 0.4203118 0.18705285 0.231076 0.25879028 0.19325462
00000000: 4392 dd3d f021 193e c7d1 d03d d58b 8f3e
00000010: 3bb8 903e 84e4 ce3d ae7d a13e 8668 173e
00000020: d99b 403e b959 ae3e c038 593e 1c33 d73e
00000030: c88a 3f3e 309f 6c3e 2980 843e 8ae4 453e

block2.0.weight f4 [32, 16, 3, 3]
-0.050093744 -0.07419051 0.049510438 -0.05371543 -0.059219234 -0.051542573 -0.058383588 0.020372674
0.045557372 0.032338597 -0.0016667071 0.09634514 0.02905135 -0.013313345 -0.03461047 -0.05768729
0.024848642 0.012454725 0.06822984 -0.012635515 0.019867752 -0.03296697 -0.028235085 -0.031930782
-0.0668151 -0.025910052 -0.0563303 -0.027241869 -0.0018983933 -0.026623493 -0.089989 0.0464848
-0.04437723 0.050216563 0.088614225 -0.0039625545 -0.022626523 0.040929757 0.08187995 0.0034379552
0.03133706 -0.07695946 -0.07157287 0.042133916 -0.0015297931 0.119206935 0.003891077 -0.008361704
0.07670346 0.07081324 0.008005007 -0.08931434 -0.042623326 -0.0384104 0.09655112 0.0024755707
-0.013516791 0.07567472 0.049758527 -0.06905204 0.052193414 0.033948913 -0.07256361 0.094695665
0.06290838 -0.011898117 -0.020843545 0.0048844847 -0.062092647 0.04773133 0.055650607 -0.04232933
0.045632247 -0.059221163 0.027306361 -0.06262377 -0.00019944269 0.06314154 0.048500005 -0.01520889
-0.017486181 0.078782775 0.06719535 0.023992585 -0.010121955 0.039568614 0.019885039 0.055175684
-0.0012225992 0.0068798345 -0.0005721871 0.009040883 -0.039026223 0.07704086 0.020900777 -0.08822899
0.017112233 -0.07047019 -0.090100676 0.025109874 0.024419468 -0.017476492 0.100321405 -0.014084679
-0.02776061 -0.03505563 -0.0068090023 -0.026281191 0.0727655 -0.040370036 -0.038938254 0.011329388
0.084129184 0.03388782 0.016436437 0.028059157 0.067604996 0.06793485 0.070821606 0.012821405
-0.072885424 -0.038083635 0.037532743 -0.0055586323 -0.05511747 0.039867803 0.024299845 -0.024361413
0.01260416 -0.042278368 0.068815045 4.8877555e-05 -0.008389616 -0.09785813 -0.05828297 0.03747625
0.086081915 0.0706066 0.051514335 -0.05663256 -0.008688091 -0.0565435 -0.09355043 -0.015253977
-0.043767344 0.04976656 -0.09579279 0.034454826 0.02597554 -0.15711318 0.0145855015 -0.08415284
-0.01473806 0.07280883 -0.02418199 -0.051328167 0.045387484 -0.006238448 -0.021486972 0.04131494
-0.04342655 -0.002706802 0.026266733 0.04322791 -0.04143215 0.015164013 -0.037794393 -0.024461957
0.044786803 0.001501668 -0.020895554 -0.0027417543 0.00035707376 -0.08854638 -0.075213805 -0.09311136
-0.009011866 -0.061566237 0.04016021 -0.00023089252 -0.08679619 -0.037411936 -0.037730712 -0.06688856
-0.02982883 -0.102380715 -0.09923362 0.016584734 -0.004465649 -0.05549191 -0.018640308 0.0418582
-0.08631836 -0.060285244 -0.07499049 -0.03932628 -0.024964228 -0.049908005 0.073367916 -0.04008755
0.06016078 -0.029777566 -0.00040942972 0.00528762 -0.008643693 0.06595982 -0.06848286 -0.004025372
-0.02704656 0.018537335 0.042974327 0.04064593 0.012652881 -0.08378499 0.04381418 -0.014339125
0.07781396 -0.06514837 -0.02931457 -0.06305868 0.046864327 -0.035893723 -0.10723412 -0.065550186
-0.067212656 0.019962916 0.03961983 -0.02550363 0.027148137 -0.05553659 0.010177409 -0.1019129
-0.031288963 0.039434686 0.1149035 0.03802964 0.024871072 0.07760166 0.015345642 0.04731938
-0.0054492056 0.08564833 0.14550151 -0.06131169 -0.0020768798 -0.018145347 0.008428781 -0.07825595
0.05524284 -0.039860126 0.045541767 0.05023453 -0.057209678 0.014470077 0.03910197 -0.08449348
00000000: 192f 4dbd 32f1 97bd 75cb 4a3d b604 5cbd
00000010: de8f 72bd 4e1e 53bd a123 6fbd 98e4 a63c
00000020: 5e9a 3a3d 7a75 043d 6975 daba 9a50 c53d
00000030: 19fd ed3c 3720 5abc b5c3 0dbd 8249 6cbd
00000040: 618f cb3c e70e 4c3c 16bc 8b3d 3105 4fbc
00000050: b2c1 a23c 6008 07bd 444d e7bc dac9 02bd
00000060: 5bd6 88bd 5141 d4bc 9aba 66bd 572a dfbc
00000070: 82d3 f8ba 8319 dabc 274c b8bd d866 3e3d
00000080: e6c4 35bd e2af 4d3d 607b b53d 51d8 81bb
00000090: 425b b9bc f6a5 273d adb0 a73d 514f 613b
000000a0: 4a5b 003d ec9c 9dbd cc94 92bd 9d94 2c3d
000000b0: 5783 c8ba c422 f43d 7001 7f3b 87ff 08bc
000000c0: b416 9d3d 8806 913d 6f27 033c 70ea b6bd
000000d0: cc95 2ebd 3954 1dbd 98bc c53d 2f3d 223b
000000e0: 8875 5dbc 59fb 9a3d 99cf 4b3d 286b 8dbd
000000f0: c3c8 553d 040e 0b3d 3b9c 94bd cdef c13d
00000100: 1cd6 803d 52f0 42bc 15c0 aabc 070e a03b
00000110: dc54 7ebd ed81 433d e4f1 633d 8561 2dbd
00000120: e1e8 3a3d e491 72bd 97b1 df3c e440 80bd
00000130: 7d21 51b9 5a50 813d f1a7 463d b52e 79bc
00000140: 2e3f 8fbc dd58 a13d b79d 893d 198c c43c
00000150: 8ed6 25bc b312 223d f3e5 a23c e6ff 613d
00000160: 9f3f a0ba 3c70 e13b d4fe 15ba 3620 143c
00000170: f6d9 1fbd 99c7 9d3d 1b38 ab3c 67b1 b4bd
00000180: f42e 8c3c ad52 90bd b486 b8bd 39b3 cd3c
00000190: 560b c83c dc2a 8fbc 4f75 cd3d 6dc3 66bc
000001a0: 386a e3bc 7e96 0fbd 0d1e dfbb a74b d7bc
000001b0: 1406 953d 0d5b 25bd b87d 1fbd e69e 393c
000001c0: ec4b ac3d f4cd 0a3d b5a5 863c 51dc e53c
000001d0: 7d74 8a3d 6d21 8b3d eb0a 913d df10 523c
000001e0: f444 95bd 96fd 1bbd efbb 193d 3025 b6bb
000001f0: dbc2 61bd 6c4c 233d 7810 c73c 9691 c7bc
00000200: ae81 4e3c 152c 2dbd e7ee 8c3d e001 4d38
00000210: 9a74 09bc d869 c8bd 20ba 6ebd b280 193d
00000220: b74b b03d 319a 903d b200 533d 8bf7 67bd
00000230: 7f58 0ebc 289a 67bd 5e97 bfbd d1eb 79bc
00000240: 6345 33bd 05d8 4b3d 032f c4bd 8120 0d3d
00000250: a8ca d43c 47e2 20be 07f8 6e3c 5358 acbd
00000260: e777 71bc cc1c 953d 4f19 c6bc 7c3d 52bd
00000270: 3ae8 393d e56b ccbb 7205 b0bc db39 293d
00000280: 0ae0 31bd 9a64 31bb 552d d73c c00f 313d
00000290: c2b4 29bd 7b72 783c 4bce 1abd 7164 c8bc
000002a0: 5e72 373d 9ed3 c43a 272d abbc 01af 33bb
000002b0: a135 bb39 ce57 b5bd b209 9abd 2bb1 bebd
000002c0: 81a6 13bc e12c 7cbd 087f 243d bd1b 72b9
000002d0: 33c2 b1bd 423d 19bd 858b 1abd dffc 88bd
000002e0: 975b f4bc fbac d1bd ff3a cbbd b5dc 873c
000002f0: 9454 92bb 7c4b 63bd 8fb3 98bc 8173 2b3d
00000300: aec7 b0bd a9ed 76bd 9d94 99bd 9814 21bd
00000310: c881 ccbc 566c 4cbd eb41 963d d832 24bd
00000320: 266b 763d 15f0 f3bc baa8 d6b9 c543 ad3b
00000330: 479e 0dbc f115 873d be40 8cbd 45e7 83bb
00000340: bf90 ddbc 9cdb 973c d905 303d 597c 263d
00000350: 084e 4f3c 7797 abbd 7f76 333d a6ee 6abc
00000360: ed5c 9f3d 826c 85bd 1c25 f0bc e924 81bd
00000370: cff4 3f3d 4c05 13bd 909d dbbd 2d3f 86bd
00000380: caa6 89bd 4589 a33c 6748 223d fdec d0bc
00000390: c565 de3c 567a 63bd 26bf 263c b6b7 d0bd
000003a0: db28 00bd 4486 213d 8752 eb3d f8c4 1b3d
000003b0: 6bbe cb3c 9eed 9e3d 4a6c 7b3c f7d1 413d
000003c0: 408f b2bb 6468 af3d 59fe 143e f721 7bbd
000003d0: 431c 08bb 8da5 94bc df18 0a3c a844 a0bd
000003e0: 5146 623d 5f44 23bd 018a 3a3d b9c2 4d3d
000003f0: b254 6abd e713 6d3c 6329 203d eb0a adbd

block2.0.bias f4 [32]
-0.022067335 -0.025740946 0.0003260108 0.011776326 -0.048786245 -0.064089715 -0.08742 -0.033848945
0.005280655 0.058880758 -0.040960077 -0.09075372 0.012979771 0.07129386 -0.060511753 -0.045099672
0.0049402104 0.029614622 -0.0057767592 0.03150946 0.053225204 0.028850885 0.045690756 0.011397173
-0.060638264 0.01902891 0.076821424 -0.06386865 -0.08707895 -0.072583206 0.05289282 0.079314694
00000000: 8ec6 b4bc adde d2bc 6eec aa39 7ef1 403c
00000010: 16d4 47bd 7841 83bd 4209 b3bd 31a5 0abd
00000020: 5809 ad3b f32c 713d c1c5 27bd 16dd b9bd
00000030: 1ba9 543c 8402 923d 2cdb 77bd 6fba 38bd
00000040: 7de1 a13b 5d9a f23c f84a bdbb 1010 013d
00000050: ac02 5a3d b158 ec3c 3b26 3b3d 35bb 3a3c
00000060: d45f 78bd 84e2 9b3c 8d54 9d3d 91cd 82bd
00000070: 7356 b2bd 81a6 94bd 24a6 583d be6f a23d

block2.1.weight f4 [32]
0.9607015 0.99460185 1.0362893 1.0285877 1.0007641 1.0026276 1.0342944 1.0158623
0.99759775 0.95732665 0.9894279 1.0107403 1.012524 1.0068277 1.0108218 1.0093986
1.0094805 0.9874777 1.0180476 1.006311 0.987849 1.0001976 0.99875915 0.9930276
0.98696166 0.97514224 0.98971236 1.0010736 0.9984703 0.98829186 1.001417 0.9867105
00000000: 89f0 753f 3a9e 7e3f 21a5 843f c3a8 833f
00000010: 0a19 803f 1a56 803f c263 843f c707 823f
00000020: 9162 7f3f 5c13 753f 264b 7d3f f05f 813f
00000030: 639a 813f bbdf 803f 9c62 813f f933 813f
00000040: a836 813f 57cb 7c3f 624f 823f cdce 803f
00000050: ace3 7c3f 7a06 803f aeae 7f3f 0f37 7e3f
00000060: 85a9 7c3f eca2 793f ca5d 7d3f 2e23 803f
00000070: c09b 7f3f b200 7d3f 6f2e 803f 0f99 7c3f

block2.1.bias f4 [32]
-0.04923693 -0.011432686 0.0053033275 0.02607067 0.010802205 -0.07367341 0.019060548 -0.022914136
-0.04189306 -0.030323043 0.008142652 0.0048949365 -0.061205316 -0.029099045 0.0014615639 -0.018616267
-0.0059841974 0.009759048 -0.056160867 -0.013420758 -0.007007574 -0.037064567 -0.005101627 -0.020909606
0.008366384 -0.040173173 -0.011803694 -0.031721815 -0.04350627 -0.06462529 0.011258411 -0.012875016
00000000: aaac 49bd 2950 3bbc 89c7 ad3b 2892 d53c
00000010: bbfb 303c 16e2 96bd de24 9c3c 6db6 bbbc
00000020: 0f98 2bbd 0868 f8bc c268 053c b465 a03b
00000030: 6db2 7abd 1f61 eebc f291 bf3a 2481 98bc
00000040: 1617 c4bb 6ae4 1f3c f008 66bd bde2 5bbc
00000050: cb9f e5bb 04d1 17bd 8d2b a7bb 9f4a abbc
00000060: 2813 093c a08c 24bd 4864 41bc bcee 01bd
00000070: a133 32bd 445a 84bd 3375 383c bbf1 52bc

block2.1.running_mean f4 [32]
0.25057715 -0.4507898 -0.63774514 -0.013698608 -0.5420202 -0.38249668 -0.46681917 -0.56725353
0.014046915 -0.1470954 0.23212478 -0.6194082 0.38597298 -1.3959204 -0.36150575 0.36503023
0.15699507 0.5097625 0.5892724 0.28715175 -0.16946413 0.31869966 -0.25941452 0.48539445
-0.21752739 -0.85201705 0.25229484 0.07138453 0.1486322 0.37331694 0.46735987 0.11150003
00000000: a64b 803e eccd e6be 4443 23bf 2070 60bc
00000010: d6c1 0abf 9bd6 c3be ec02 efbe 8737 11bf
00000020: 0825 663c 2da0 16be 1eb2 6d3e 8991 1ebf
00000030: 409e c53e 85ad b2bf 4817 b9be 3ee5 ba3e
00000040: 51c3 203e cc7f 023f 8eda 163f 8e05 933e
00000050: 0188 2dbe 9a2c a33e fbd1 84be 9f85 f83e
00000060: 80bf 5ebe ca1d 5abf ca2c 813e 0d32 923d
00000070: 0a33 183e 6623 bf3e cb49 ef3e 215a e43d

block2.1.running_var f4 [32]
0.7761939 0.38418463 0.4830097 0.4841369 0.7280066 0.28549677 0.38826206 0.61632556
0.3125679 0.37622884 0.513651 0.24033646 0.31652364 0.8254993 0.41518718 0.34747043
0.62251145 0.37161782 0.44608214 0.37362108 0.707142 0.6052048 0.56371504 0.39049947
0.48803744 1.3548472 0.38230735 0.2682922 0.3339458 0.42023817 0.37538332 0.32224712
00000000: a5b4 463f d9b3 c43e 0c4d f73e cbe0 f73e
00000010: a45e 3a3f a22c 923e 49ca c63e 83c7 1d3f
00000020: e608 a03e 11a1 c03e a27e 033f c31a 763e
00000030: 630f a23e ec53 533f 6a93 d43e a5e7 b13e
00000040: e95c 1f3f b144 be3e e164 e43e 434b bf3e
00000050: 4207 353f b4ee 1a3f a14f 103f 8cef c73e
00000060: 0be0 f93e a26b ad3f cabd c33e 985d 893e
00000070: f2fa aa3e 7529 d73e 3e32 c03e 93fd a43e

block2.3.weight f4 [16, 32, 3, 3]
0.017611753 0.0056553716 0.029176336 -0.062007833 0.023794312 -0.042345732 -0.025969971 -0.044072635
-0.056619745 0.06743962 0.022311764 0.027593082 -0.04231362 -0.05198703 0.017229442 0.032883797
0.040423404 -0.05743077 0.03946996 -0.050630786 0.007541985 -0.024313776 0.015627058 0.0031749508
-0.08603919 -0.06634268 0.01593591 0.021929748 0.022841146 -0.0010980444 -0.045094237 -0.09872257
-0.0014749989 0.046933815 -0.033868168 -0.028151887 0.02556855 0.044889476 -0.016938698 -0.044577803
0.018932318 0.046240143 0.030341975 -0.00016015055 0.02529765 0.06551844 -0.078163885 -0.005271533
0.0070429402 0.028658936 -0.020578437 0.07536375 0.0006203069 0.019058157 -0.029921127 -0.011143183
-0.02763972 -0.05066616 -0.0074578226 0.045543995 -0.01583954 0.011249814 0.07605783 0.03136495
0.030850885 0.036775034 -0.03787124 -0.020253869 -0.017157977 -0.018523555 -0.08307159 -0.02244406
0.080718026 0.014635139 0.03845723 0.054737758 0.019628206 0.07690925 0.0103731975 0.016115183
-0.08205318 0.020209007 -0.04918868 0.01708675 -0.004740305 -0.017925149 0.004213103 0.0051928377
0.0473037 -0.010524286 0.04340936 -0.031600904 -0.00021662883 -0.04521791 -0.060622327 -0.0046022097
0.0055765007 0.029281594 -0.006032087 -0.0187752 0.00091048446 -0.036201287 -0.01628465 -0.03926831
0.04953654 -0.023798903 -0.05666143 -0.042888734 -0.054354656 0.00069459865 -0.037574377 -0.0010304976
-0.013746139 0.04734099 -0.023557931 0.035416815 0.047201872 -0.018392747 -0.016492812 -0.07675653
-0.049271602 -0.023850003 -0.009140961 -0.020975605 0.01039717 -0.040740862 0.047736023 0.065855846
0.04287394 0.011018418 -0.023431983 -0.056474403 -0.052908648 -0.015621253 0.017531183 0.01634599
0.04401818 -0.006453868 0.043514922 0.021074172 -0.0432335 0.032489218 0.08001845 0.0961746
-0.011104782 0.044084646 0.025791412 -0.054497283 -0.06242152 -0.06601629 0.01760102 0.04876987
0.043867793 0.029850286 -0.030998891 0.011907205 -0.0092506725 -0.039121203 -0.060373276 0.082915105
0.097160265 -0.010865606 -0.019202372 -0.05712152 0.03121054 -0.015766194 -0.013772351 0.031277284
0.014592501 0.065118656 0.02159862 0.014036497 0.042073827 -0.014506722 -0.060449734 -0.024723396
0.02832945 -0.058020473 0.05597809 0.046216052 0.03201815 -0.03886401 -0.0063058306 0.006665554
0.06204637 -0.0031012094 0.015545956 0.029189132 0.054525126 -0.038627986 -0.01827787 0.006374769
-0.03506251 0.0042323936 0.024617767 -0.057196297 -0.005834297 -0.0055471887 -0.031402312 0.05540279
-0.028439369 0.011048924 0.006350637 0.0035909242 0.07220137 -0.009952393 0.059474524 -0.02410417
-0.041834332 -0.061562803 -0.004497937 0.03515966 0.014685517 -0.028697172 -0.050865 0.0070135836
-0.00397556 0.06805805 0.041300446 -0.042456914 0.03581684 -0.048619922 0.06460834 -0.017840523
-0.031059446 0.05554745 -0.008482722 -0.046988934 0.024159597 0.0006438374 0.06693928 -0.07999209
-0.02673668 -0.022586523 -0.029720062 -0.013595246 -0.061664026 -0.0616507 -0.06791512 -0.057025444
-0.017233243 -0.028148066 -0.047803376 0.030835664 0.037493393 0.049154595 0.021132624 -0.025343707
-0.041464373 -0.03506985 0.0054066638 0.0022408753 0.01726416 -0.01377265 -0.05135443 -0.019454375
00000000: 8646 903c b250 b93b 3603 ef3c edfb 7dbd
00000010: 4aec c23c b872 2dbd fabe d4bc 8285 34bd
00000020: 1bea 67bd c91d 8a3d 29c7 b63c e30a e23c
00000030: 0c51 2dbd 5af0 54bd c224 8d3c 29b1 063d
00000040: 0393 253d 873c 6bbd 41ab 213d 3a62 4fbd
00000050: c122 f73b af2d c7bc 5104 803c d612 503b
00000060: 5135 b0bd acde 87bd 078c 823c 04a6 b33c
00000070: 5b1d bb3c 42ec 8fba bcb4 38bd 0f2f cabd
00000080: c054 c1ba ac3d 403d 59b9 0abd c99e e6bc
00000090: 2375 d13c 07de 373d 06c3 8abc 3797 36bd
000000a0: f317 9b3c 4e66 3d3d bc8f f83c 16ee 27b9
000000b0: 043d cf3c 882e 863d 6314 a0bd d3bc acbb
000000c0: 77c8 e63b 25c6 ea3c 1c94 a8bc 4f58 9a3d
000000d0: 179c 223a da1f 9c3c 271d f5bc e691 36bc
000000e0: b26c e2bc 5287 4fbd c060 f4bb 578c 3a3d
000000f0: ecc1 81bc 2451 383c 35c4 9b3d 8978 003d
00000100: ffba fc3c 6ba1 163d e01e 1bbd 71eb a5bc
00000110: e38e 8cbc b6be 97bc 7021 aabd 9bdc b7bc
00000120: 7e4f a53d 39c8 6f3c 5485 1d3d b334 603d
00000130: 55cb a03c 9982 9d3d 58f4 293c fd03 843c
00000140: 7f0b a8bd 5c8d a53c 127a 49bd 83f9 8b3c
00000150: 8f54 9bbb c3d7 92bc 120e 8a3b ae28 aa3b
00000160: 86c1 413d 0e6e 2cbc 03ce 313d f36f 01bd
00000170: dc26 63b9 6a36 39bd 1e4f 78bd 22ce 96bb
00000180: 14bb b63b f4df ef3c d0a8 c5bb 73ce 99bc
00000190: 94ad 6e3a cd47 14bd 6367 85bc cfd7 20bd
000001a0: d4e6 4a3d ebf5 c2bc d115 68bd 19ac 2fbd
000001b0: fda2 5ebd ba15 363a 97e7 19bd c311 87ba
000001c0: 7c37 61bc a0e8 413d 90fc c0bc 3911 113d
000001d0: c056 413d 63ac 96bc ef1b 87bc 8732 9dbd
000001e0: 05d1 49bd 1561 c3bc f8c3 15bc 08d5 abbc
000001f0: e458 2a3c e4df 26bd d986 433d 6edf 863d
00000200: 969c 2f3d 9886 343c 6ef4 bfbc b451 67bd
00000210: bdb6 58bd 49f0 7fbc 8e9d 8f3c 07e8 853c
00000220: 684c 343d f87a d3bb b43c 323d bea3 ac3c
00000230: 9c15 31bd 6a13 053d b7e0 a33d 30f7 c43d
00000240: d5f0 35bc 1a92 343d 8348 d33c 8b38 5fbd
00000250: b5ad 7fbd 8c33 87bd 0430 903c eac2 473d
00000260: b7ae 333d 9688 f43c 63f1 fdbc 7016 433c
00000270: 2290 17bc 8e3d 20bd f849 77bd 65cf a93d
00000280: f6fb c63d a805 32bc 4b4e 9dbc 41f8 69bd
00000290: 3fad ff3c 1b28 81bc 6da5 61bc 9c1c 003d
000002a0: 6315 6f3c ee5c 853d 97ef b03c 56f9 653c
000002b0: 9b55 2c3d 9aad 6dbc 249a 77bd b888 cabc
000002c0: 2a13 e83c e0a6 6dbd 4849 653d 0b4d 3d3d
000002d0: 7725 033d de2f 1fbd 24a1 cebb b86a da3b
000002e0: 5624 7e3d a93d 4bbb 77b4 7e3c 0c1e ef3c
000002f0: bd55 5f3d 6138 1ebd 79bb 95bc 70e3 d03b
00000300: b59d 0fbd e4af 8a3b 33ab c93c aa46 6abd
00000310: a12d bfbb 31c5 b5bb b69f 00bd 09ee 623d
00000320: aef9 e8bc 8c06 353c 0119 d03b b655 6b3b
00000330: 50de 933d 5d0f 23bc 8f9b 733d 1c76 c5bc
00000340: 7a5a 2bbd 4729 7cbd 6e63 93bb 9303 103d
00000350: 869b 703c 5516 ebbc d157 50bd 34d2 e53b
00000360: 6a45 82bb 0562 8b3d a82a 293d 4de7 2dbd
00000370: aeb4 123d af25 47bd 6151 843d 4a26 92bc
00000380: 6170 febc b985 633d 1dfb 0abc 7877 40bd
00000390: 59ea c53c 32c7 283a 7617 893d e5d2 a3bd
000003a0: e206 dbbc 5f07 b9bc 7d77 f3bc 98be 5ebc
000003b0: 6b93 7cbd 7285 7cbd 1517 8bbd 8393 69bd
000003c0: bb2c 8dbc c696 e6bc 79cd 43bd 139b fc3c
000003d0: ac92 193d 5456 493d 531e ad3c 9b9d cfbc
000003e0: 8cd6 29bd 67a5 0fbd 622a b13b a6db 123b
000003f0: 916d 8d3c aea6 61bc 0659 52bd c85e 9fbc

block2.3.bias f4 [16]
0.03503858 -0.022618579 -0.0050851777 0.02527411 0.01187743 0.05855067 0.0108440835 0.007745392
-0.0781244 -0.041109845 -0.0106223235 0.0047977744 0.05244562 -0.062521756 -0.0028713322 0.02751044
00000000: 9d84 0f3d 994a b9bc 90a1 a6bb a60b cf3c
00000010: 8d99 423c d4d2 6f3d 62ab 313c 0fcd fd3b
00000020: afff 9fbd cc62 28bd 4109 2ebc a636 9d3b
00000030: 38d1 563d 680b 80bd f62c 3cbb 935d e13c

block2.4.weight f4 [16]
1.0108771 0.9899766 1.029851 0.9776794 0.9892177 1.0040392 0.952101 1.0137959
0.9999749 1.0322902 1.0259051 0.9771762 1.0111047 0.9959805 1.033068 0.9712383
00000000: 6c64 813f 1b6f 7d3f 28d2 833f 3249 7a3f
00000010: 5f3d 7d3f 5b84 803f e4bc 733f 10c4 813f
00000020: 5bfe 7f3f 1622 843f dc50 833f 3828 7a3f
00000030: e16b 813f 94f8 7e3f 923b 843f 13a3 783f

block2.4.bias f4 [16]
-0.04883161 -0.008268792 -0.073679045 -0.0037006882 -0.019144038 -0.02594712 -0.056637287 -0.019548485
-0.07317789 0.003419348 0.020827167 -0.02616974 -0.015986253 -0.058161996 -0.013305188 -0.044514477
00000000: a703 48bd d479 07bc 0ae5 96bd 3f87 72bb
00000010: f5d3 9cbc 0e8f d4bc 80fc 67bd 2524 a0bc
00000020: 4ade 95bd 2417 603b bc9d aa3c ec61 d6bc
00000030: 9af5 82bc 463b 6ebd 01fe 59bc d054 36bd

block2.4.running_mean f4 [16]
-0.16201109 0.26989624 -0.35242945 0.1192372 0.3762983 0.2945067 -0.19414169 0.1297487
-0.16031502 -0.67129195 -0.37670216 -0.3372755 -0.07104905 -0.28558445 -0.79572856 -0.011005006
00000000: 3ce6 25be d72f 8a3e a271 b4be a232 f43d
00000010: 2caa c03e 95c9 963e 14cd 46be d8dc 043e
00000020: 9f29 24be cad9 2bbf 1bdf c0be 60af acbe
00000030: 2a82 91bd 2038 92be deb4 4bbf 574e 34bc

block2.4.running_var f4 [16]
0.40399775 0.32384938 0.72257537 0.459776 0.3799627 0.54960376 0.91742736 0.48162085
0.46421736 0.3805582 0.879309 0.49370715 0.46724698 0.5998267 0.37267855 0.259481
00000000: cbd8 ce3e 96cf a53e b3fa 383f c367 eb3e
00000010: 798a c23e d5b2 0c3f 85dc 6a3f 0297 f63e
00000020: e6ad ed3e 86d8 c23e 651a 613f 2fc7 fc3e
00000030: ff3a ef3e 3e8e 193f b9cf be3e b2da 843e

block3.0.weight f4 [32, 16, 3, 3]
0.0475067 0.059492964 -0.019921536 -0.03269189 -0.004068492 0.039328147 -0.06741575 -0.05643784
0.016025813 -0.0088573955 -0.05616765 0.04446847 0.029984975 0.036688812 0.12813567 0.10720965
-0.0027420819 0.0052567534 -0.013303477 -0.0046377834 0.069434226 0.05345579 0.073211715 0.05906369
0.11105518 0.00037563016 0.021900533 -0.013817854 0.06421431 -0.021683564 -0.0136351 0.018804457
-0.042343095 0.012118738 0.022963652 -0.008250044 0.04360624 -0.06829337 -0.013176243 -0.028098114
-0.07135976 -0.008080366 -0.095860355 0.034465484 0.0021342894 0.03850988 0.020571293 -0.07884626
-0.05989763 0.00028982293 0.046653405 0.04767975 0.036658816 0.05435551 -0.06992743 -0.055363648
0.035109278 -0.053451497 0.09296045 -0.060426094 -0.031001521 0.07953114 -0.07423212 -0.010840683
0.0050878474 -0.0639229 0.012112489 -0.0055609215 -0.027301777 -0.010860685 -0.045195833 0.041803475
0.009657359 -0.010490788 -0.007986058 0.014904499 -0.087058835 -0.036384255 -0.102175914 0.00051193725
-0.008797129 0.01674002 -0.06063442 -0.06701396 -0.045885924 0.0053144447 0.018199883 -0.09221887
-0.093651205 0.14349253 0.014703282 0.08691672 -0.034770418 -0.005331539 0.062145952 -0.05153014
-0.04001756 -0.019573292 -0.004478893 -0.03534821 0.059987593 0.033778977 0.04895179 0.09292353
0.0882357 -0.04458252 -0.0005058356 0.01935141 0.02588927 -0.019107644 0.04368204 -0.039707296
0.0032997632 0.019875359 0.00089783233 -0.06345178 -0.13858025 0.048127357 0.0846382 0.014886114
0.012631852 -0.02246287 0.07275891 0.013191312 0.057482265 0.014660003 0.085796684 0.091589466
-0.058376085 0.08351439 0.017865403 -0.0034842677 -0.07919035 0.010075131 -0.06441817 0.0045336396
-0.023567209 0.13036107 0.058689523 0.07364604 -0.10685339 0.000119703356 -0.040308252 -0.0050482885
0.02607384 0.086304046 0.0063131135 0.058299724 -0.016073834 0.040507756 0.07603942 -0.035453912
-0.0058080857 0.0080195125 -0.0338153 -0.04931762 -0.027739728 0.04316524 0.0075163166 0.0134453615
-0.019175543 0.021023203 0.046472125 0.014209714 -0.020013807 -0.051386178 -0.016602984 -0.06672898
-0.050461333 -0.055457067 -0.036733635 0.04967765 -0.058029536 -0.03260433 0.038014654 0.029387167
-0.008017948 -0.051608566 -0.0068245106 0.028315263 -0.051890034 -0.020253407 0.06448091 -0.0026259413
-0.015004722 0.022399373 0.055132546 -0.09201239 0.061540015 -0.024912333 -0.029848648 0.00473429
0.015927838 -0.07829259 -0.07225395 -0.034533173 0.031671077 -0.009731798 -0.008448992 0.039334606
-0.06362843 0.07067575 0.018421719 0.06516098 -0.05855445 0.025519127 -0.0015397614 0.12818019
0.14996462 -0.028725509 -0.0033677933 -0.0564983 -0.012450048 -0.034447014 -0.02070813 -0.045401566
0.017240802 0.02149493 0.03278999 0.041758444 0.025957538 -0.0064287772 -0.010275128 0.055578284
0.054754645 0.15202665 0.11907898 0.03807466 -0.055809576 -0.013093245 0.0126587665 0.08571421
-0.010782357 0.03624878 0.021607166 -0.045106813 -0.06179012 -0.055735506 0.043794464 -0.031429976
0.06171818 0.01267083 0.08404295 0.009916205 -0.0155050475 0.041198805 -0.023380902 -0.02971534
0.10136546 0.122935034 0.102720514 0.07024554 -0.057254408 0.019993812 0.0045489925 0.055063758
00000000: 6396 423d e5ae 733d 7d32 a3bc eee7 05bd
00000010: fc50 85bb 8d16 213d 4511 8abd 5d2b 67bd
00000020: 9148 833c 9c1e 11bc 0d10 66bd 9224 363d
00000030: 0da3 f53c 0247 163d ff35 033e bc90 db3d
00000040: 80b4 33bb d840 ac3b d4f6 59bc 8cf8 97bb
00000050: 8833 8e3d 75f4 5a3d 06f0 953d c5ec 713d
00000060: e670 e33d 3af0 c439 bf68 b33c 4864 62bc
00000070: cb82 833d bba1 b1bc c165 5fbc ce0b 9a3c
00000080: f46f 2dbd ac8d 463c 451e bc3c 312b 07bc
00000090: 759c 323d 65dd 8bbd 2be1 57bc 042e e6bc
000000a0: 1125 92bd 8363 04bc 6f52 c4bd ae2b 0d3d
000000b0: 6fdf 0b3b 89bc 1d3d 2185 a83c 267a a1bd
000000c0: 3857 75bd 60f3 9739 a417 3f3d d74b 433d
000000d0: 8e27 163d e2a3 5e3d 1d36 8fbd fec4 62bd
000000e0: bfce 0f3d f5ef 5abd 0c62 be3d 5a81 77bd
000000f0: e7f6 fdbc 39e1 a23d 0207 98bd 1f9d 31bc
00000100: f5b7 a63b 02ea 82bd 7673 463c 6438 b6bb
00000110: faa7 dfbc 04f1 31bc 441f 39bd 1f3a 2b3d
00000120: e639 1e3c 8ee1 2bbc f4d7 02bc 0032 743c
00000130: e74b b2bd a807 15bd 9b41 d1bd 8733 063a
00000140: d521 10bc 5e22 893c cc5b 78bd 9d3e 89bd
00000150: e1f2 3bbd cb24 ae3b ec17 953c 3fdd bcbd
00000160: 34cc bfbd b5ef 123e 09e6 703c 6501 b23d
00000170: 6d6b 0ebd 31b4 aebb c18c 7e3d 4511 53bd
00000180: 74e9 23bd 2b58 a0bc adc3 92bb 49c9 10bd
00000190: 8db5 753d d35b 0a3d ac81 483d b14e be3d
000001a0: ebb4 b43d 299c 36bd 0d9a 04ba d986 9e3c
000001b0: bc15 d43c a287 9cbc f0eb 323d 1ea4 22bd
000001c0: d740 583b a6d1 a23c 825c 6b3a 02f3 81bd
000001d0: fbe7 0dbe 3121 453d cb56 ad3d e3e4 733c
000001e0: d4f5 4e3c 0e04 b8bc a002 953d 5f20 583c
000001f0: 8672 6b3d 8230 703c 2cb6 af3d 4293 bb3d
00000200: c31b 6fbd 9809 ab3d 775a 923c 5058 64bb
00000210: 8d2e a2bd 2a12 253c aced 83bd ed8e 943b
00000220: 0510 c1bc 5f7d 053e 6d64 703d bcd3 963d
00000230: f3d5 dabd 4009 fb38 441a 25bd 1d6c a5bb
00000240: ce98 d53c 2dc0 b03d 3cde ce3b b1cb 6e3d
00000250: 46ad 83bc 76eb 253d 8eba 9b3d 1f38 11bd
00000260: c151 bebb 4664 033c e981 0abd 4601 4abd
00000270: 6d3e e3bc 09ce 303d 6f4b f63b ef49 5c3c
00000280: 0716 9dbc da38 ac3c 8e59 3e3d dccf 683c
00000290: fff3 a3bc 507a 52bd fb02 88bc 34a9 88bd
000002a0: 8bb0 4ebd f326 63bd 0276 16bd cb7a 4b3d
000002b0: 61b0 6dbd 1e8c 05bd 41b5 1b3d 5bbd f03c
000002c0: b65d 03bc 8163 53bd 25a0 dfbb 69f5 e73c
000002d0: a58a 54bd 79ea a5bc 910e 843d fc17 2cbb
000002e0: 5ed6 75bc e47e b73c aad2 613d fe70 bcbd
000002f0: 6211 7c3d f314 ccbc 2785 f4bc 1a22 9b3b
00000300: 197b 823c de57 a0bd e1f9 93bd a872 0dbd
00000310: 88b9 013d 1f72 1fbc a46d 0abc 531d 213d
00000320: 9f4f 82bd 73be 903d 25e9 963c 1f73 853d
00000330: cad6 6fbd 7d0d d13c d2d1 c9ba ab41 033e
00000340: 5390 193e c251 ebbc 32b6 5cbb c36a 67bd
00000350: 49fb 4bbc 5018 0dbd 19a4 a9bc fef6 39bd
00000360: 953c 8d3c 2316 b03c cc4e 063d e70a 2b3d
00000370: e7a4 d43c 7ea8 d2bb 0359 28bc 0ea6 633d
00000380: 6846 603d e0ac 1b3e aedf f33d 2df4 1b3d
00000390: 9598 64bd 0d85 56bc b766 4f3c ef8a af3d
000003a0: 7ca8 30bc 9a79 143d 8301 b13c ecc1 38bd
000003b0: a317 7dbd ea4a 64bd d361 333d b8bc 00bd
000003c0: 34cc 7c3d 5099 4f3c b61e ac3d 9477 223c
000003d0: e208 7ebc 14c0 283d 4e89 bfbc 966d f3bc
000003e0: b298 cf3d 5dc5 fb3d 225f d23d e5dc 8f3d
000003f0: 9983 6abd 10ca a33c b70f 953b 898a 613d

block3.0.bias f4 [32]
0.0025551557 0.030382173 -0.07507442 -0.019466642 -0.027618952 -0.025438828 -0.024996566 -0.03453777
0.055743903 4.7693073e-05 -0.057157595 -0.004157058 0.034070615 -0.039461136 0.06653111 -0.05512836
0.08482848 0.033143606 -0.038266268 -0.067376986 0.019458305 -0.01997041 0.023247197 0.03982751
-0.056256432 0.020923316 -0.027991068 -0.07274829 0.013458249 0.02609459 -0.06443995 0.07135095
00000000: 6674 273b 09e4 f83c 9ec0 99bd 8278 9fbc
00000010: 2441 e2bc 1765 d0bc 99c5 ccbc 7a77 0dbd
00000020: b853 643d 0c0a 4838 151e 6abd ee37 88bb
00000030: a18d 0b3d 00a2 21bd 7641 883d 46ce 61bd
00000040: 8eba ad3d 97c1 073d 17bd 1cbd f2fc 89bd
00000050: 0667 9f3c fc98 a3bc e870 be3c 2c22 233d
00000060: 256d 66bd 6067 ab3c 864d e5bc 0efd 94bd
00000070: fd7f 5c3c 52c4 d53c 18f9 83bd 7220 923d

block3.1.weight f4 [32]
1.1522951 1.1566612 1.135267 1.1372509 1.1650388 1.129783 1.1561468 1.1510166
1.1293167 1.1326716 1.1630514 1.1497624 1.1274762 1.1308823 1.1663313 1.152629
1.1318781 1.1718214 1.1453221 1.1377025 1.1483775 1.1682417 1.1535797 1.1435411
1.13441 1.1738974 1.1737784 1.1384146 1.1319686 1.1495949 1.1652344 1.148835
00000000: 687e 933f 790d 943f 6e50 913f 7091 913f
00000010: fe1f 953f bb9c 903f 9efc 933f 8354 933f
00000020: 738d 903f 62fb 903f dede 943f 6a2b 933f
00000030: 2451 903f c0c0 903f 584a 953f 5989 933f
00000040: 62e1 903f 3efe 953f ea99 923f 3ca0 913f
00000050: 09fe 923f f288 953f 80a8 933f 8e5f 923f
00000060: 5934 913f 4542 963f 5f3e 963f 92b7 913f
00000070: 59e4 903f ed25 933f 6726 953f 060d 933f

block3.1.bias f4 [32]
0.033170134 0.02997999 0.07636583 0.020777695 0.067038015 0.059777487 0.075487316 0.06350027
0.0334377 0.06113389 0.051176105 0.04199479 0.027152924 0.05504615 0.07335731 0.06430897
0.084417984 0.07754769 0.042261317 0.06523992 0.05002323 0.09328013 0.054360993 0.041215383
0.074391484 0.03687445 0.07076981 0.04486377 0.07119002 0.064957604 0.064457916 0.06407307
00000000: 68dd 073d 9998 f53c b065 9c3d fc35 aa3c
00000010: 3a4b 893d 3dd9 743d 1899 9a3d 6e0c 823d
00000020: f8f5 083d 8867 7a3d 099e 513d bb02 2c3d
00000030: cf6f de3c 1278 613d 5b3c 963d 6cb4 833d
00000040: 56e3 ac3d 53d1 9e3d 341a 2d3d 829c 853d
00000050: 29e5 4c3d a709 bf3d a2a9 5e3d 76d1 283d
00000060: 905a 983d aa09 173d c3ef 903d 13c3 373d
00000070: 13cc 913d 7e08 853d 8302 843d be38 833d

block3.1.running_mean f4 [32]
0.37501013 0.53689533 -0.2110453 0.27738836 0.3111684 -0.33014467 0.20670158 -0.03791218
0.8787207 -0.067083396 -0.1423479 -0.032196444 0.185781 0.2974563 0.29300052 0.24435157
0.4550243 0.5207296 0.18248662 0.35753953 0.18171509 0.45207217 0.14967595 -0.07953731
0.15237881 0.07866551 0.3301488 -0.37140262 0.3168767 0.541699 0.24262924 0.6740626
00000000: 5401 c03e f971 093f 421c 58be d905 8e3e
00000010: 7751 9f3e b908 a9be 94a9 533e cd49 1bbd
00000020: d7f3 603f 0563 89bd a6c3 11be 6be0 03bd
00000030: 603d 3e3e 314c 983e 2a04 963e 4c37 7a3e
00000040: f2f8 e83e 894e 053f c6dd 3a3e 6c0f b73e
00000050: 8513 3a3e 0176 e73e a744 193e 75e4 a2bd
00000060: 3109 1c3e 621b a13d 4309 a93e 7c28 bebe
00000070: aa3d a23e c9ac 0a3f cd73 783e 5e8f 2c3f

block3.1.running_var f4 [32]
0.2732915 0.28577012 0.19623461 0.30796596 0.31988594 0.25515074 0.29950067 0.26593563
0.39476383 0.28302774 0.3007724 0.2941226 0.23353638 0.46246752 0.2120748 0.2963574
0.42196703 0.3280424 0.23236334 0.35916746 0.28953236 0.34441656 0.32464543 0.29228172
0.42268813 0.19411036 0.24548696 0.2752642 0.23815365 0.24549662 0.33375832 0.3245056
00000000: ddec 8b3e 7650 923e baf1 483e b7ad 9d3e
00000010: 17c8 a33e 1ea3 823e 2758 993e b728 883e
00000020: 7c1e ca3e 03e9 903e d7fe 993e 3d97 963e
00000030: 2924 6f3e 8bc8 ec3e 232a 593e 28bc 973e
00000040: 100c d83e 2cf5 a73e a8f0 6d3e cce4 b73e
00000050: 963d 943e 5e57 b03e ed37 a63e f3a5 953e
00000060: 946a d83e dec4 463e ef60 7b3e 6eef 8c3e
00000070: 8dde 733e 7763 7b3e 5fe2 aa3e 9925 a63e

classifier.1.weight f4 [24, 288]
-0.00978762 0.012240477 -0.08122048 -0.051926687 0.0044314982 0.026907224 -0.049019277 0.071486525
0.026476935 -0.058306538 -0.050247382 -0.09231429 0.08116754 0.00045985435 0.16275927 -0.014071101
0.041587416 -0.0059645665 -0.015615507 -0.033491205 0.030682743 0.007373865 0.042756744 0.0794863
-0.13530093 -0.020876389 -0.011352805 0.018741997 -0.011461401 -0.020551613 0.09836357 0.09259969
0.015201584 0.09065001 0.008832515 0.08816783 0.07826341 -0.046531774 0.06685894 -0.03451679
0.014748645 0.08801035 -0.01590501 0.0028757358 -0.04053134 0.08130815 0.034462214 0.06319694
0.025529979 -0.033128854 -0.067883305 -0.024233285 0.014744173 -0.023485739 0.049493704 0.062389623
-0.038373567 -0.0078111463 -0.038615473 0.05365662 0.16298734 0.10492478 0.055975117 -0.042834274
0.011311035 0.023512369 0.010315888 0.08512733 0.03786923 0.06795518 0.023239804 0.09701003
-0.0053836494 -0.0066342293 -0.011765411 -0.060367733 0.065185934 -0.12427241 0.077105984 0.031352717
0.035944544 0.016908912 0.038110647 -0.08323238 0.043882947 0.02177842 0.035528846 0.068995185
0.044916607 -0.01721047 0.08598491 -0.03651857 0.0024491479 -0.032998655 -0.07986849 0.037836578
0.07554642 0.13904798 0.045162264 -0.05301133 0.02375447 0.11513047 0.011698293 -0.000688541
-0.015515033 0.025130149 0.018599298 -0.019343609 0.0032824941 0.10302523 0.018570064 0.040148586
0.09874488 -0.024597304 0.021739269 0.05850196 0.110455886 0.06413037 0.07221766 0.091994666
0.032056548 0.009480987 0.020282438 0.06336647 0.081338674 0.108490616 -0.061076723 0.025034025
0.01292538 -0.020076642 -0.06492501 -0.02765521 -0.043071277 0.05574309 0.05387284 0.039299995
0.0040867855 0.013256695 0.02344888 0.057962738 -0.08035271 0.11820462 0.0381933 0.09673435
-0.029294366 0.0065442533 -0.044601817 -0.0070099304 0.00645251 -0.036100775 -0.07816319 -0.016530419
0.06737094 0.08045308 -0.05522228 -0.061721247 0.046384294 0.14900212 0.09140678 0.024676269
0.053120304 -0.015878426 0.02495315 0.076508075 -0.001144776 0.0042649982 -0.03289588 0.011095517
0.04524989 0.038346726 -0.024890572 -0.05746889 0.10872558 0.118294 0.06301693 0.06475988
0.116926976 0.10039198 0.11931471 0.037084237 -0.013035931 -0.07823752 -0.05443167 0.0017513507
-0.068094164 -0.011636241 0.037512932 0.10257459 0.15721823 0.024570903 0.030202173 -0.03204908
-0.07652669 0.035364322 -0.021779805 0.0019290005 -0.08073597 0.08508047 -0.013770985 0.06003112
-0.041521765 0.071491115 0.034567665 0.06899062 0.05555166 0.081985354 0.038237568 -0.006230006
0.006571063 0.093842454 0.056128424 0.040636476 0.05602786 0.04339247 0.0050483583 -0.0044869585
-0.022625444 0.03155498 -0.013591749 -0.0070697404 -0.022728955 -0.065365806 -0.041610695 0.022847248
0.03985841 -0.049272444 0.05097142 0.092240915 0.08628593 0.02193882 -0.043194406 -0.033280544
-0.053448796 -0.04975085 0.006144789 0.006479513 -0.09680325 0.058997355 0.075165294 0.13591048
0.03397381 -0.07085669 -0.027579429 -0.036540963 -0.09131703 -0.0927341 -0.006467477 0.045126505
0.094183624 -0.057028808 -0.09928923 0.07457085 0.069688685 -0.014309979 0.012090646 0.047835276
00000000: 415c 20bc 488c 483c ec56 a6bd 14b1 54bd
00000010: 1a36 913b 8a6c dc3c 70c8 48bd 8767 923d
00000020: 28e6 d83c d6d2 6ebd 33d0 4dbd 460f bdbd
00000030: 2b3b a63d 9b18 f139 5eaa 263e 7a8a 66bc
00000040: 9157 2a3d 6972 c3bb 2fd8 7fbc 132e 09bd
00000050: 605a fb3c 77a0 f13b b221 2f3d b7c9 a23d
00000060: 548c 0abe f604 abbc 1e01 3abc d188 993c
00000070: 9ac8 3bbc db5b a8bc d772 c93d e8a4 bd3d
00000080: 1110 793c b6a6 b93d 41b6 103c 5691 b43d
00000090: 9148 a03d 1a98 3ebd 57ed 883d 7a61 0dbd
000000a0: 4da4 713c c53e b43d 394b 82bc d776 3c3b
000000b0: 3104 26bd e384 a63d 4028 0d3d 666d 813d
000000c0: 3f24 d13c 1fb2 07bd 6706 8bbd e284 c6bc
000000d0: 8b91 713c 2a65 c0bc e9b9 4a3d 438c 7f3d
000000e0: 9a2d 1dbd a5f4 ffbb 422b 1ebd 0bc7 5b3d
000000f0: 27e6 263e cee2 d63d 2a46 653d fe72 2fbd
00000100: eb51 393c 039d c03c f803 293c 3d57 ae3d
00000110: c41c 1b3d 162c 8b3d 6761 be3c 32ad c63d
00000120: 5369 b0bb f363 d9bb b6c3 40bc 2844 77bd
00000130: 3480 853d 8982 febd bee9 9d3d b56b 003d
00000140: 963a 133d 8f84 8a3c e919 1c3d bd75 aabd
00000150: 9bbe 333d a868 b23c b286 113d 594d 8d3d
00000160: 7afa 373d f9fc 8cbc db18 b03d 7f94 15bd
00000170: e281 203b 9929 07bd 1792 a3bd 87fa 1a3d
00000180: 15b8 9a3d 9862 0e3e 11fc 383d 6922 59bd
00000190: bc98 c23c 86c9 eb3d 32aa 3f3c 347f 34ba
000001a0: c432 7ebc bedd cd3c 8e5d 983c 7d76 9ebc
000001b0: 1d1f 573b e4fe d23d 3f20 983c d872 243d
000001c0: c13a ca3d 4980 c9bc 8d16 b23c c09f 6f3d
000001d0: b236 e23d c956 833d dae6 933d b367 bc3d
000001e0: ba4d 033d 2456 1b3c 5b27 a63c 48c6 813d
000001f0: e494 a63d 5430 de3d 962b 7abd 2814 cd3c
00000200: f9c4 533c c577 a4bc 67f7 84bd 2e8d e2bc
00000210: 826b 30bd de52 643d c4a9 5c3d 08f9 203d
00000220: 71ea 853b 9c32 593c de17 c03c 566a 6d3d
00000230: f68f a4bd 4415 f23d 9470 1c3d a91c c63d
00000240: bdfa efbc 2d71 d63b 65b0 36bd 8fb3 e5bb
00000250: 946f d33b 68de 13bd 0614 a0bd cd6a 87bc
00000260: c7f9 893d 96c4 a43d c230 62bd 6bcf 7cbd
00000270: 75fd 3d3d 0394 183e 7a33 bb3d e325 ca3c
00000280: ad94 593d 7913 82bc 8c6a cc3c 44b0 9c3d
00000290: 4f0c 96ba 66c1 8b3b d5bd 06bd f9c9 353c
000002a0: f357 393d 7511 1d3d 50e7 cbbc 8064 6bbd
000002b0: 84ab de3d 2044 f23d 050f 813d d4a0 843d
000002c0: 6977 ef3d 4f9a cd3d 455b f43d a4e5 173d
000002d0: a894 55bc fe3a a0bd bef3 5ebd 948d e53a
000002e0: f474 8bbd efa5 3ebc 29a7 193d a012 d23d
000002f0: d1fd 203e eb48 c93c 8c6a f73c e545 03bd
00000300: 06ba 9cbd 2eda 103d 906b b2bc 84d6 fc3a
00000310: e658 a5bd ab3e ae3d b39f 61bc 31e3 753d
00000320: ba12 2abd ef69 923d d396 0d3d f44a 8d3d
00000330: 238a 633d f0e7 a73d ff9e 1c3d 1425 ccbb
00000340: 1252 d73b 7930 c03d ebe6 653d 6f72 263d
00000350: 787d 653d 4dbc 313d b36c a53b 5607 93bb
00000360: ff58 b9bc cb3f 013d edaf 5ebc 48a9 e7bb
00000370: 1332 babc 82de 85bd fa6f 2abd 272a bb3c
00000380: 9242 233d e7d1 49bd 68c7 503d cee8 bc3d
00000390: adb6 b03d 0ab9 b33c 9eec 30bd 2e51 08bd
000003a0: 20ed 5abd 8cc7 4bbd 3a5a c93b 1852 d43b
000003b0: c840 c6bd 36a7 713d 43f0 993d 1e2c 0b3e
000003c0: 1f28 0b3d 501d 91bd 41ee e1bc faab 15bd
000003d0: 6c04 bbbd 60eb bdbd 21ed d3bb 92d6 383d
000003e0: 58e3 c03d 0a97 69bd 2758 cbbd 9ab8 983d
000003f0: f1b8 8e3d 6774 6abc d817 463c ecee 433d

classifier.1.bias f4 [24]
0.0005580381 -0.014944743 0.038768902 0.04282232 0.07693555 0.044088624 0.05222476 -0.037223917
0.03975416 0.03240992 0.07857126 -0.061200578 0.051806435 0.06252226 0.082337536 0.0767614
-0.019595804 -0.02454879 0.049429785 0.045422446 -0.03639883 0.015826495 0.015860427 -0.014485309
00000000: 4e49 123a ccda 74bc 24cc 1e3d 7566 2f3d
00000010: 6390 9d3d 4696 343d a1e9 553d 1b78 18bd
00000020: 42d5 223d 44c0 043d f8e9 a03d 75ad 7abd
00000030: fc32 543d ac0b 803d 95a0 a83d 1535 9d3d
00000040: 6187 a0bc 8b1a c9bc e376 4a3d e30c 3a3d
00000050: f116 15bd 91a6 813c baed 813c ca53 6dbc
