src/models/mnist_model_20241222_185438.pth (torch, 109309 bytes, 34 tensors)

block1.0.weight f4 [16, 1, 3, 3]
000000 f2 75 94 3e c9 35 8e 3e 54 78 f9 bd 6e 72 90 3e
       0.28996235 0.2777541 -0.12181154 0.28212303
000010 ef 1f aa bd 18 e5 22 3d c4 e7 1a be 0f b4 46 3e
       -0.08306872 0.039769262 -0.15127474 0.19404624
000020 50 e0 93 3e ab c0 75 be 8e 0c 8f 3e 32 cd 31 3d
       0.28882074 -0.23999278 0.27939266 0.04340858
000030 33 a8 8c 3e 27 48 6a 3d a2 6e 41 3e b7 c9 38 bd
       0.27472076 0.057197716 0.1888986 -0.045114245
000040 a3 ac 77 3e 88 a4 5d 3d 00 5c 1b be 59 7a 0c 3e
       0.2418695 0.054111987 -0.15171814 0.13718547
000050 db 69 f1 bd af 94 a2 bd c1 96 8f bd 6e 26 6e 3e
       -0.117877685 -0.079385154 -0.07011176 0.23256847
000060 b8 f2 8b be 45 eb 2d be 91 8a e7 bd 2c 87 52 be
       -0.27333617 -0.1698428 -0.11305726 -0.20559376
000070 87 58 0f bc 70 a0 bb be a9 be a1 3e e3 64 8c be
       -0.008749134 -0.36645842 0.31590775 -0.2742072
000080 60 ae 5c 3e 50 01 ab 3d 97 8d a0 bd 68 ae 55 3e
       0.21550894 0.0834986 -0.07839506 0.20867312
000090 c7 a8 b0 3c 30 77 8d 3e e0 54 87 3c 9a 30 e2 bd
       0.021564854 0.27629995 0.016519964 -0.11044426
0000a0 20 55 f7 3d 58 5a e4 bd ff 95 b2 3d 34 6f 98 3e
       0.12076783 -0.11150044 0.08720016 0.2977234
0000b0 42 f5 59 3e 7a 02 f9 bd 80 c1 41 3e c5 1a b7 3b
       0.21284965 -0.121586755 0.1892147 0.005587908
0000c0 f6 2b 3a 3e 62 25 46 be fe 69 a4 be a9 79 1f be
       0.18180832 -0.19350198 -0.32112116 -0.15573753
0000d0 a8 87 71 be ed 92 a1 3e 7e e4 bf 3d b5 b0 13 3e
       -0.23586905 0.31557408 0.09369753 0.14422877
0000e0 e4 10 15 3e 12 7a 18 bd 61 db 5c 3e 36 e6 60 be
       0.14557225 -0.03722579 0.21568061 -0.21962819
0000f0 b2 44 30 bd 39 13 91 be 61 07 5b 3d 6f 14 f3 bd
       -0.043034263 -0.28334978 0.053473834 -0.11869132
000100 69 4e aa 3d 85 72 8f bd 1c d4 84 3e 0d 8e 58 be
       0.08315737 -0.07004265 0.25943077 -0.21147938
000110 9e fe 62 be f4 8d 3b be c8 24 a1 3e 34 9c 0b 3e
       -0.22167441 -0.1831587 0.31473374 0.13633806
000120 56 15 99 3e 97 85 91 be 02 a5 b8 be 6d 0e 8c be
       0.2989909 -0.28422233 -0.3606339 -0.27354756
000130 d5 ff 75 be b0 64 a3 3d c8 69 e6 3d 47 28 82 3e
       -0.24023373 0.07978189 0.11250645 0.25421354
000140 e0 c3 61 be 04 5c 79 be 62 dd 34 3e 90 8a e6 bd
       -0.22047377 -0.24351507 0.17662576 -0.112568974
000150 d4 01 39 3e 2f 0e 27 bd 2e 39 63 3e da 38 83 be
       0.18067104 -0.04078501 0.22189781 -0.25629312
000160 50 14 31 be 05 78 e9 3d da 4e 8a 3d a1 8d eb bd
       -0.17292905 0.11399845 0.06753321 -0.11501623
000170 d8 ec 0f 3e bf 2b 82 3e 0c a9 7c be 58 8e 40 be
       0.14055192 0.25424 -0.24673861 -0.188043
000180 b1 f2 a1 3e 90 89 09 be 30 34 c0 bd 48 d5 88 be
       0.3163047 -0.13431382 -0.09384954 -0.2672522
000190 d7 34 4e bd 99 ef 49 3e 2d dd a6 bb 43 c6 3c be
       -0.05034336 0.19720306 -0.005092284 -0.18435006
0001a0 07 b3 04 3d 03 ab c1 bd 4d f0 5b be 3e 23 78 be
       0.032397296 -0.09456446 -0.21478386 -0.24232194
0001b0 c3 76 6c be 91 08 01 be 9e e9 c5 3e e5 93 03 3d
       -0.23092179 -0.12600924 0.38654798 0.032123465
0001c0 8a ef 03 3e 85 f7 95 be 3a f2 55 be 08 c2 c1 bd
       0.12884346 -0.29290405 -0.20893183 -0.09460837
0001d0 27 4c 5b 3d 43 76 ad be f3 3f 1e be d9 2f 32 be
       0.05353942 -0.3387929 -0.15454082 -0.17401065
0001e0 37 95 48 3a 27 67 cc bd 29 70 83 bc eb 4c 56 be
       0.0007651629 -0.09980612 -0.016044693 -0.2092778
0001f0 87 95 30 be 65 d0 5d be a9 f8 0a be 71 78 7f be
       -0.1724454 -0.21661527 -0.13571419 -0.24948289
000200 48 4a 9b 3e 6b ba 9a bd 37 e8 98 3e 72 9a 23 3e
       0.3033011 -0.07555088 0.29864666 0.15976885
000210 24 a8 85 be 3c 7d 5f 3e a2 12 b1 bd 36 b3 01 be
       -0.26104844 0.21825117 -0.08646132 -0.1266602
000220 95 47 86 be 5e b1 8c be ed 66 72 3d 5a 32 96 bd
       -0.26226488 -0.2747907 0.05918019 -0.073338225
000230 59 53 d9 3d 75 c3 86 be 0f b1 7f 3e 6e 2e 91 be
       0.106116004 -0.26320997 0.24969886 -0.28355736

block1.0.bias f4 [16]
000000 29 8e a7 bd 90 ba 2d 3d 20 d6 4b 3e 6e 18 96 3e
       -0.08181412 0.042414248 0.19905901 0.29315513
000010 06 97 86 3e 68 c1 71 be 8e 9f 0e 3d 77 a5 16 be
       0.26287097 -0.23608935 0.034820132 -0.14711557
000020 3d 3b 48 bd 79 07 6e be 11 4f a3 3e 9f b3 86 be
       -0.04888462 -0.23245038 0.3189626 -0.26308915
000030 1c 1e 4f 3e c8 3f e8 3d 88 12 21 3e 40 de 13 be
       0.2022633 0.1134029 0.15729725 -0.1444025

block1.1.weight f4 [16]
000000 b3 bf 75 3f 41 2e 70 3f 0f 91 7c 3f 8b fa 83 3f
       0.95995635 0.9382058 0.9865884 1.0310835
000010 09 84 6f 3f 25 ea 8d 3f 8b fc 85 3f 4a e1 82 3f
       0.93560845 1.108708 1.0467695 1.0225003
000020 c4 36 6b 3f 2f 54 7c 3f f9 d7 81 3f 42 de 7f 3f
       0.9188044 0.98565954 1.0144035 0.99948514
000030 4e ed 7f 3f 62 54 81 3f ae e4 7e 3f 65 bc 7a 3f
       0.99971473 1.0103877 0.9956769 0.9794372

block1.1.bias f4 [16]
000000 89 b9 35 bd ca f6 53 bc 90 ad 50 3b 5b f8 3e 3d
       -0.044366393 -0.012937257 0.0031841733 0.04662357
000010 18 63 61 bd c0 1d e6 3c d9 b9 c2 3c e6 9f 9f bd
       -0.055026144 0.028090358 0.02377026 -0.0779417
000020 f3 78 96 bd f4 37 4a 3c 74 92 7d bc 5d db d5 bc
       -0.07347288 0.012342442 -0.015476812 -0.026105577
000030 55 03 0e bb 4b 06 ad 39 95 a1 d8 3b fb 8c 13 bd
       -0.0021669467 0.0003300182 0.006611059 -0.03602312

block1.1.running_mean f4 [16]
000000 e0 df 4b 3d 68 78 1a 3e 7a 2a f5 3d 47 bf 8e 3e
       0.04977405 0.15084994 0.119709924 0.27880308
000010 d6 e7 ba 3e 7e be 8d be 60 c1 22 3d 47 21 1c be
       0.36505002 -0.27684397 0.039735198 -0.1524707
000020 e7 5e fd bd fe 74 7c be 16 c4 a2 3e ce a3 bb be
       -0.12371617 -0.24654004 0.31790227 -0.3664841
000030 51 6c 1b 3e 3a 0a 79 bd 80 c9 36 3e 07 4c 82 be
       0.15178038 -0.06080077 0.17850304 -0.2544863

block1.1.running_var f4 [16]
000000 8b 98 84 3d 98 d8 64 3d 0e ee e2 3c 8e b4 55 3c
       0.06474408 0.055870622 0.027701404 0.013043536
000010 33 87 38 3d 1e 01 5f 3c f5 fc 13 3c e2 03 97 3b
       0.04505081 0.013611106 0.009032478 0.004608617
000020 35 e5 20 3d 31 2e e2 3b e5 7e 6a 3c a4 82 42 3d
       0.03928109 0.006902479 0.014312481 0.04748787
000030 6c 31 69 3c c4 be e2 3d 22 f4 a5 3c 1f c3 3a 3d
       0.0142329745 0.11071542 0.020258013 0.04559624

block1.3.weight f4 [16, 16, 3, 3]
000000 d5 1e 93 3d f7 f3 0b 3d 50 02 63 3c dd a7 bd bd
       0.07183615 0.03416821 0.013855532 -0.09260533
000010 2a 17 b0 3c c0 f7 81 bc f0 15 7b bd f9 03 84 3d
       0.02149542 -0.015865207 -0.061300218 0.0644607
000020 b1 6d 2b 3c dc 5e 3d bd df fa 22 bd dd e6 95 bc
       0.010463164 -0.046233043 -0.03979003 -0.01829856
000030 f3 05 e8 3c d9 0f 4b bd 3e 81 86 bd aa 3b fe bc
       0.02832315 -0.04957566 -0.0656762 -0.03103431
000040 50 6d 82 bd ae d5 a7 3c 5e dd a7 3d 13 a1 a3 bd
       -0.06368506 0.020487633 0.08196519 -0.07989707
000050 1a d8 e6 bc 08 cb 39 3d f9 27 8f bc 38 5c 3c bd
       -0.028179217 0.04535964 -0.017475115 -0.045986384
000060 eb b4 9a 3c c9 a5 39 3d d0 94 46 3b 3f 19 9d bd
       0.018885097 0.04532412 0.0030301102 -0.07670831
000070 cf ec 2a bd 6b 4a 94 bd fc 1b 33 3b af cf f9 bc
       -0.041729745 -0.072407566 0.0027329912 -0.030494539
000080 a5 67 4b bb c7 c5 f1 3d 3b 37 31 3d 6e 1b 07 ba
       -0.0031037119 0.11805301 0.043265563 -0.00051539287
000090 6f cc 69 bb c7 f8 12 bc 5e 24 3d 3b ad 48 8c 3c
       -0.003567483 -0.008970446 0.0028860788 0.017124498
0000a0 a3 cb 9f bd e7 c8 15 bd 2a c7 8b 3d 92 b9 04 3d
       -0.078025125 -0.03656855 0.06825097 0.032403536
0000b0 a8 2e 84 bb 74 96 3e bd ed 54 2c 3b 60 16 6b bd
       -0.004033882 -0.046530202 0.0026295737 -0.057394385
0000c0 ea ee 36 3d 40 f6 e6 3d 35 eb 97 3d 20 e0 c8 3d
       0.04466144 0.11277437 0.07417909 0.098083735
0000d0 92 a6 49 bd 26 82 f4 bc 0f f9 98 3c 7f 66 05 3e
       -0.04923112 -0.029847216 0.018673448 0.1302738
0000e0 5c 89 8d 3d 22 54 e3 bb fe a9 9d 3d 7b ee ce bc
       0.06910965 -0.0069375196 0.07698439 -0.0252602
0000f0 d2 d4 91 bd 54 19 03 3d 67 10 6f bd f3 98 29 bd
       -0.071206704 0.032006577 -0.058365252 -0.04140563
000100 33 95 ae bd b5 de a3 bc dc c1 bb 3d d2 09 dd 3c
       -0.08524551 -0.020003656 0.09167835 0.026982222
000110 81 52 03 bd 74 0c 8b bd 44 ce eb bc af 85 6e 3d
       -0.032061104 -0.067894846 -0.028784879 0.05823296
000120 23 4f b1 bc 45 e0 21 3d 4c 7a 50 3d 51 17 1e 3c
       -0.02164418 0.03952052 0.05089788 0.009649114
000130 85 98 4c 3c 45 a3 ae bc ca 66 95 bd 9f fb a3 bd
       0.012487535 -0.021318087 -0.07294996 -0.08006977
000140 da 72 3d 3d 8b 6d 1d 3c 22 ee 8d bc 49 39 a4 bd
       0.04625211 0.009608637 -0.017325465 -0.08018739
000150 14 b9 8e bc 42 25 e7 bd 47 e4 c4 bd a1 44 1f 3c
       -0.017422237 -0.11286403 -0.09613853 0.009720952
000160 52 a7 07 bc f2 9c 9c 3c 53 e9 87 bd 00 3e c3 bd
       -0.008279638 0.019117806 -0.066363 -0.0953331
000170 3b 54 01 3c 37 10 a6 bd a3 d8 45 bd 3c eb b7 bd
       0.007893617 -0.081085615 -0.048302304 -0.08980414
000180 87 08 ba 3c aa f1 64 bc 7a 1a 83 3d 0f 06 8a 3d
       0.022709144 -0.013973633 0.064015344 0.06739437
000190 c2 e2 9e 3d 50 ea c0 bd d8 ed 9a 3d 42 49 3f bd
       0.07758094 -0.094196916 0.07564896 -0.046700723
0001a0 55 95 8b 3c d4 f9 7a 3d 15 10 cc bc 0a 64 ac bc
       0.01703898 0.06127341 -0.024910012 -0.021043796
0001b0 60 32 3e 3d 34 b4 0f bd 52 6e f2 3c ff 62 48 bd
       0.04643476 -0.035083964 0.02959362 -0.048922535
0001c0 49 9b 24 3d 59 89 26 3c 43 c2 a3 3d aa 1c b4 bd
       0.040187154 0.010164582 0.07996037 -0.0879453
0001d0 55 1e e8 bd 80 1d 53 3c 96 81 a9 3c e1 43 f9 bd
       -0.113339104 0.012885451 0.020691674 -0.1217115
0001e0 0b fc 68 bc 9a 44 6d bd 70 45 15 bc db 8d 38 bd
       -0.014220248 -0.05792675 -0.0091107935 -0.04505716
0001f0 7c ea cb bc ae bf 7a bc 38 1b ff bc 6a 62 88 3d
       -0.024892084 -0.015304489 -0.031140909 0.06659396
000200 f8 38 82 3d 6d 16 fe bc da 6c 72 bd 12 50 88 bd
       0.06358522 -0.031016553 -0.05918584 -0.06655897
000210 08 b3 ae bd 9c fa d6 bd c0 d4 52 3c b1 53 86 bd
       -0.08530241 -0.10497019 0.012868106 -0.065589316
000220 40 26 b8 bd f6 38 2b bd 02 41 04 bd b5 00 01 bd
       -0.089916706 -0.04180237 -0.03228856 -0.031494815
000230 81 e0 30 3c 36 02 b4 bc 60 0f 68 bc 67 0e bf bc
       0.010795713 -0.02197371 -0.014163822 -0.023322297
000240 2f 62 02 be 74 f3 4d 3d 80 4a d1 bc d2 cd 46 bc
       -0.12732767 0.050281003 -0.02554822 -0.012134032
000250 7a aa 46 bd b8 53 dd 3b 42 a8 a7 3d 84 ee 05 3d
       -0.048502423 0.006754365 0.081863895 0.03269817
000260 c0 2c a6 bd 6b 65 92 3c 81 24 9a 3d 49 76 13 3d
       -0.08114004 0.017870625 0.07526494 0.036001477
000270 38 fa 65 3d 5d 4e 93 3d 75 ed 42 bc 00 e6 6c 3c
       0.05614683 0.07192681 -0.0118974345 0.014459133
000280 6d 79 9b bd 82 bd c4 bc c1 23 2e 3d fc a7 7e 3d
       -0.075915195 -0.024016146 0.042514566 0.06217192
000290 8e 4a aa bc 77 c8 a1 bd ef 35 9a bd 4d f1 91 bd
       -0.020787504 -0.07899564 -0.07529818 -0.071261026
0002a0 7f 72 88 bd 80 81 ad ba 69 6c 9e 3d e8 d4 a2 3d
       -0.066624634 -0.0013237447 0.07735521 0.07950765
0002b0 bf 18 f9 bd bd ba cb bd 74 48 a7 3d 37 ae 4c bd
       -0.12162923 -0.09947727 0.08168116 -0.04997083
0002c0 7b 60 29 bd 91 73 1d 3d 2a 0d 31 3b 5b ad 3a bd
       -0.041351777 0.03844029 0.0027015903 -0.04557548
0002d0 2f c1 11 bd b1 f7 0a bd 76 2f 22 bd db 6b b9 bd
       -0.035584625 -0.033927623 -0.039596044 -0.09053775
0002e0 5f 5f b7 bd 70 e7 63 bd 18 f2 99 3d b5 40 70 bd
       -0.089537375 -0.055640638 0.07516879 -0.05865546
0002f0 6d 72 6a bd 92 6d 13 bd 00 24 b8 3c 3e a5 36 3d
       -0.05723803 -0.035993166 0.022478104 0.04459118
000300 5c 84 43 3d b7 54 04 3d ec 44 b2 bd ef 75 93 bc
       0.04773365 0.032307353 -0.08704552 -0.018000571
000310 e7 1a 4a 3d 66 b0 aa bc 30 ca 9f bd 6d 0f 9e 3d
       0.049342062 -0.020836066 -0.07802236 0.07717786
000320 cf e1 e8 bc 92 69 54 bd 24 bc 94 bd 51 94 b0 3a
       -0.028427986 -0.051858492 -0.072624475 0.0013471936
000330 32 a0 03 3c 78 61 a4 3b f3 91 a5 ba b8 5d 58 bd
       0.008033799 0.005016502 -0.0012631997 -0.052823752
000340 10 a6 c8 bd 05 12 52 bc 41 68 e3 3d 71 28 8a 3c
       -0.09797299 -0.012821679 0.11103869 0.016864987
000350 ad d4 c5 bd 77 1d 8a 3c 00 eb 9b bc f4 ac a0 bd
       -0.09659705 0.016859753 -0.019032955 -0.07845488
000360 61 2b 89 3d 8d 6d 2c 3d f2 01 6c 3d 59 6d 61 bd
       0.06697727 0.042096663 0.057619043 -0.055035923
000370 83 27 bd 3c b2 43 e8 bd 32 6a 86 bc c2 c3 4f 3c
       0.02309013 -0.11341037 -0.01640806 0.01268095
000380 a6 9a b0 bc 81 94 00 3d 95 8c 7c bd 46 09 63 3d
       -0.021558117 0.031391624 -0.061657507 0.055428766
000390 85 3a d8 3c c3 82 0b bd 8f 72 69 3c 2f c0 57 bd
       0.026395092 -0.03406025 0.014248504 -0.052673515
0003a0 06 87 1f 3d c7 f9 09 3d bb e1 d6 3c 8c 1d 9d bd
       0.038947128 0.03368547 0.026230684 -0.07671651
0003b0 b3 64 ca bd 5c 54 44 3d 51 ea 53 3d 7d 6e 81 bd
       -0.09882488 0.047932014 0.051737133 -0.06319902
0003c0 84 a8 81 3c c2 61 b7 3d e6 a6 1b bb 47 57 47 bc
       0.015827425 0.08954193 -0.0023750602 -0.012166805
0003d0 7d 23 8a 3c 6a b2 4d bd 7b 6d cd bd 85 57 45 bd
       0.016862625 -0.050218977 -0.10030647 -0.04817917
0003e0 4c 56 a3 bc e0 52 d9 3c ee 1f 53 bb a7 40 8a ba
       -0.01993861 0.026528776 -0.0032215076 -0.0010547832
0003f0 d5 fa 4c 3d d9 ad 54 3d 53 13 c8 3d 63 7b 77 bd
       0.0500439 0.051923607 0.09769311 -0.060420405

block1.3.bias f4 [16]
000000 98 e5 87 bc 4f be ff bd 86 65 e1 3b 04 98 3c bd
       -0.016588971 -0.1248747 0.0068785576 -0.04604341
000010 2b 15 76 3d f2 79 ef bd a2 1f df bc 20 ae 12 be
       0.06007878 -0.11693181 -0.027236763 -0.14324236
000020 5d 97 d2 bd fd c7 d1 3b fb cb b4 bd d0 c9 37 bd
       -0.102827765 0.0064020143 -0.08827969 -0.044870198
000030 8f be 23 3d a3 fe a2 3d 42 f2 e0 3c 56 e7 7a bd
       0.039976653 0.07958724 0.027459268 -0.061255775

block1.4.weight f4 [16]
000000 86 ff 86 3f 68 c3 7d 3f 9f b0 75 3f 6b f2 86 3f
       1.054673 0.9912629 0.9597263 1.054273
000010 d1 3e 82 3f 03 86 80 3f dd 1e 80 3f 74 b3 7a 3f
       1.017542 1.0040897 1.0009419 0.97930074
000020 28 7f 89 3f 85 e6 7f 3f b4 2e 88 3f 8b 9f 75 3f
       1.074193 0.9996112 1.0639253 0.9594657
000030 2e 99 6d 3f 9c c1 82 3f b3 da 89 3f d4 8a 76 3f
       0.9281186 1.0215335 1.0769867 0.96305585

block1.4.bias f4 [16]
000000 f3 39 22 bd a7 66 c8 3b be cf 53 bd 37 7d 85 3c
       -0.039606046 0.0061157527 -0.05171179 0.016295059
000010 40 97 f6 bc e2 ec 8b 3c 68 bb 83 b9 c6 75 01 bd
       -0.030101418 0.017080728 -0.00025125896 -0.031606458
000020 6d 30 26 3d 80 8f 45 bd 93 0c b8 3c 35 f4 29 bd
       0.040573526 -0.048232555 0.022466933 -0.04149266
000030 7a 50 9f bd ad ef 59 3d cf 06 94 bc 33 10 1f bd
       -0.077790216 0.05320709 -0.018069653 -0.03883381

block1.4.running_mean f4 [16]
000000 f2 b2 d7 be c8 24 b6 be 38 80 90 be 52 53 c4 be
       -0.42128712 -0.35574937 -0.28222823 -0.38344818
000010 f8 85 4e 3e bb 5f c5 be 7a af ac be 09 83 59 be
       0.20168293 -0.385496 -0.33727628 -0.21241392
000020 33 7e fb 3d f5 ba f8 bd dd cb f0 3c b3 07 03 be
       0.1227993 -0.12145034 0.029394085 -0.12795906
000030 f6 e4 29 be f4 28 bb 3e 04 15 37 be 64 ac 92 3e
       -0.16591248 0.36554682 -0.1787911 0.2864715

block1.4.running_var f4 [16]
000000 fd 70 7c 3e 01 ba 84 3e ad f3 36 3e 41 49 b6 3e
       0.24652477 0.2592316 0.17866392 0.35602763
000010 3f 2d ba 3e 2f 94 57 3e 32 73 98 3e 98 f5 44 3e
       0.36362645 0.21052621 0.29775387 0.19234312
000020 01 7d ff 3e 44 28 d8 3e cb 80 98 3e b4 64 0e 3f
       0.49900058 0.4221822 0.2978576 0.5562241
000030 f7 9f 85 3e 29 08 dc 3e 57 1a 90 3e 52 13 a7 3e
       0.26098606 0.42974976 0.28145096 0.32631928

block2.0.weight f4 [32, 16, 3, 3]
000000 ac a2 22 bc b5 21 02 bd be b5 5a 3d 4c 3e 2b bb
       -0.009926479 -0.031770427 0.05339598 -0.002612966
000010 65 59 58 bb 79 66 27 bd e8 e8 63 3a 02 18 a3 3d
       -0.0033012268 -0.04086921 0.00086940685 0.079635635
000020 38 66 a4 3d 8b f6 6d 3d e7 33 22 bb 89 8b ca 3d
       0.08027309 0.05809645 -0.0024750174 0.098898955
000030 4e 9a ae 3c 41 e3 ad bc f0 b3 54 bd 71 42 7f bd
       0.021313813 -0.021226527 -0.051929414 -0.062319223
000040 97 5c d0 bc cb d5 81 bb a9 8a 41 3d 00 6c 4e 3c
       -0.025434775 -0.0039622537 0.047251377 0.012598991
000050 fe 35 30 3d 3c 8c 84 bc 7c ef 14 bd 2e 18 4e bd
       0.04302024 -0.01618015 -0.036361203 -0.05031603
000060 27 fa 63 bd 0a da 89 bd 46 1a 9d bd 26 f6 0f bd
       -0.055658486 -0.06731041 -0.07671027 -0.035146855
000070 1a 3b 91 bc f4 ed 67 bd ad 51 bf bd ac 1f 50 3d
       -0.017728377 -0.056623414 -0.0934175 0.050811455
000080 c4 f9 82 bc 3b 7e 1a 3d 2c f6 e0 3d ae ec 88 3c
       -0.015988238 0.03771804 0.109844536 0.01671442
000090 66 e7 18 bd 97 c3 e3 3c f4 f6 08 3d cd 93 81 bc
       -0.037330054 0.027803225 0.033438638 -0.015817547
0000a0 cb e3 16 3c 09 2a 8f bd 16 19 95 bd 93 90 08 3d
       0.0092095835 -0.069904394 -0.072801754 0.033341
0000b0 46 c5 d7 3b 52 6d 0d 3e d4 d4 da 3c ea 35 79 bc
       0.006584796 0.13811234 0.026712812 -0.015210608
0000c0 81 4a 7d 3d 26 fc a0 3d 68 ce 0d bd 55 f1 08 be
       0.06183863 0.078605935 -0.034620672 -0.13373311
0000d0 3b ac 99 bd 48 d3 dc bd b7 f7 c1 3d 80 05 37 bb
       -0.075035535 -0.10782486 0.09471076 -0.0027926862
0000e0 5d f7 95 3c 96 95 52 3d ea bb f4 3c fb 8b 0e bd
       0.018306429 0.051412188 0.02987476 -0.034801465
0000f0 81 08 4a 3d 0b a3 cd 3c 1a ab aa bd d7 23 a9 3d
       0.049324516 0.025102159 -0.08333416 0.08258789
000100 df 46 69 3d 56 49 2d bd 00 7e 15 bd a6 ec 03 bd
       0.056952354 -0.042306267 -0.036497116 -0.032208107
000110 eb ce f8 bd e9 69 88 3c 68 c6 2b b8 5b ef 99 bd
       -0.121488415 0.016652064 -4.0954357e-05 -0.075163566
000120 a4 47 68 3d b3 a5 95 bd 75 d7 e8 bc bb 79 1b bd
       0.056708947 -0.07306995 -0.02842305 -0.037957888
000130 8f d9 11 bd 3e e0 b3 3c e0 53 67 3d 08 62 69 ba
       -0.03560787 0.021957513 0.056476474 -0.00089028524
000140 1d d6 b8 bc 99 f6 df 3d 95 cc 5f 3d 66 6e 6e 3c
       -0.022563035 0.10935707 0.054638464 0.014552688
000150 7d d1 f9 3b c9 eb 19 3d ac e6 1e bb 0d f5 1f 3d
       0.00762385 0.037578378 -0.0024246378 0.039052058
000160 49 e1 79 bc ad 36 2b bd 19 24 b5 3c 5c 8c 3f bc
       -0.015251466 -0.04180019 0.02211194 -0.011691179
000170 fa 64 d8 bc 96 81 3e 3d 58 02 fd bc 35 ef c7 bd
       -0.026415337 0.0465103 -0.030884907 -0.09762422
000180 7d f2 62 bc ee ec 06 be 87 89 e5 bd a5 07 3c 3d
       -0.013851759 -0.13176319 -0.11207872 0.045905728
000190 43 a6 1d 3d 4a dd aa bb a8 73 bf 3d cc 8f fe bc
       0.038488638 -0.005214368 0.093482316 -0.031074427
0001a0 72 a6 59 bd 34 9d 2a bd f5 f8 f2 bc 7e 43 01 bd
       -0.05313725 -0.041653827 -0.029659728 -0.031558506
0001b0 f7 68 9a 3d c3 57 59 bd 90 16 9d 3c cc 26 b1 bc
       0.07539552 -0.05306221 0.019175798 -0.021624945
0001c0 9a d2 84 3d 09 8a 2b 3d 32 48 aa 3b 3e c7 c1 3c
       0.064854816 0.041879687 0.0051965946 0.023654576
0001d0 e6 3a 8b 3d 1d 2e ac 3d 73 aa a4 3d 1a 92 27 bc
       0.06798343 0.08407233 0.08040323 -0.010227704
0001e0 e5 bf 31 bd bd a2 1d bd 9a 49 a1 3c 19 7a 76 3c
       -0.043395896 -0.038485277 0.019688416 0.015043759
0001f0 99 c5 9b bd a1 88 b4 3c 5f d7 2a bc 4b 54 6d bd
       -0.07606048 0.022037806 -0.010427325 -0.057941716
000200 22 b4 87 3c eb a5 87 bd a6 81 8a 3d 1e 39 12 3a
       0.016565386 -0.06623443 0.0676301 0.0005577969
000210 0c 91 e3 bc 05 a4 f4 bd e7 f8 a0 bd 93 8e d8 3c
       -0.027779125 -0.11945347 -0.07859974 0.026435172
000220 e7 cb c4 3d 4f a6 54 3d 6d 86 3e 3d 3f be 76 bd
       0.09609204 0.051916417 0.046514917 -0.060240027
000230 62 5c 15 bc 51 3b 80 bd 63 14 e7 bd 8e 40 34 bd
       -0.009116264 -0.06261314 -0.11283185 -0.044006877
000240 d6 d6 3c bd c9 76 7d 3c 0b 5c cc bd f2 de cb bc
       -0.04610332 0.015470215 -0.09978493 -0.024886582
000250 9f 49 74 bc 1f de 1c be a5 3c 5a bc e4 26 9c bd
       -0.014910131 -0.15319107 -0.013320123 -0.07624605
000260 ca 0c 1a bd bc 3b 08 3d d0 e9 65 bd f1 a1 41 bc
       -0.037609853 0.033260092 -0.056131184 -0.011818395
000270 6e 3b f3 3c 39 fc d7 3c 64 ff 52 bc 9d 5f db 3c
       0.029691424 0.026365386 -0.012878273 0.02677899
000280 c0 39 9b bc 51 62 ab 3c 04 9b 0e 3b 2e 77 06 3d
       -0.018948436 0.020920904 0.0021759877 0.032828502
000290 2d 1b 14 bd c3 08 68 bc 95 5d 39 bd 07 ef 0d bd
       -0.03615873 -0.014162245 -0.045255262 -0.034651782
0002a0 1e 06 30 3d 68 04 81 3c f4 74 cc bc 5d 6a a7 3c
       0.042974584 0.015749171 -0.024958111 0.02043646
0002b0 8b e7 b2 bb 66 ed f8 bd b2 53 36 bd 5a dc d2 bd
       -0.005459731 -0.12154655 -0.04451341 -0.10295935
0002c0 81 10 d2 3b c8 18 f4 bc 2f d1 4d 3d 71 9d 79 3d
       0.006410659 -0.029796973 0.05024832 0.060941163
0002d0 a7 bc 68 bd bc 02 e9 bc ac 7a 39 bd 77 d4 85 bd
       -0.056820538 -0.028443687 -0.045283005 -0.06534665
0002e0 7d ee 9e bb 90 5a 8c bd 5f 53 97 bd 03 22 91 3d
       -0.0048502074 -0.06853211 -0.07388949 0.07086565
0002f0 93 cc 7f bb ce 72 3a bd 50 8b fe bc 43 d3 93 3d
       -0.0039031848 -0.045519643 -0.031072289 0.07218029
000300 0e 4b d1 bd a0 4b a7 bd e8 bf ae bd e3 f8 9a bd
       -0.10219394 -0.08168721 -0.08532697 -0.075670026
000310 15 e1 71 bd b6 f6 66 bd c1 e7 9b 3d 11 2a 24 bd
       -0.059052546 -0.056387626 0.07612563 -0.04007918
000320 08 54 53 3d d4 7b e7 bc ba 94 1d 3b de 5f 93 bc
       0.05159381 -0.028257288 0.0024044947 -0.017990049
000330 3f fa df bc f4 3d 8b 3d 9a f1 98 bd cc bf 8c bc
       -0.027341006 0.06798926 -0.07467957 -0.0171813
000340 bb 6e 13 bd 5a 00 fe 3c b6 73 2b 3d ff 00 c1 3c
       -0.035994273 0.031006027 0.041858397 0.023560045
000350 cf 80 31 bc a8 bf a6 bd 83 a7 f0 3c a8 d8 e8 bc
       -0.010833933 -0.08142024 0.02937675 -0.028423622
000360 3b d9 ba 3d d4 85 0f bc 68 b0 45 bd 72 e7 bf bd
       0.09123465 -0.008759934 -0.048263937 -0.093703166
000370 06 9f 9b 3c 20 5f 9c bb 35 3f b8 bd 21 d4 a0 bd
       0.018996727 -0.004772082 -0.08996431 -0.078529604
000380 c0 e0 0f bd ff 8c 33 3c 69 60 8f 3c 78 f9 23 bd
       -0.035126448 0.010958909 0.017502027 -0.040032834
000390 50 a8 ab 3c a8 3c b2 bd d9 ef ef bc fd af 0a be
       0.020954281 -0.087029755 -0.029289173 -0.13543697
0003a0 d7 78 9a bd d1 f5 58 bc f5 eb d2 3d fd ba 4a 3d
       -0.075425796 -0.013242201 0.102989115 0.049494732
0003b0 a0 a7 4d 3d 19 a2 c0 3d fd 8d eb ba 58 2d 36 3d
       0.050208688 0.09405918 -0.0017971393 0.044476837
0003c0 eb 9a bf 3c 25 e3 9f 3d ce 39 ee 3d 62 51 cc bd
       0.0233893 0.07806996 0.11632119 -0.0997646
0003d0 4b 76 1b bb 0c b0 3c 3b 25 37 0c bc 71 2d 88 bd
       -0.002372163 0.0028791456 -0.008558069 -0.06649292
0003e0 9e c0 28 3d 26 a0 2b bd fb 8d 06 3d e5 b7 18 3d
       0.04119932 -0.041900776 0.032850247 0.03728475
0003f0 75 30 aa bd 7d 54 39 bc 66 7d 11 3d fa dc c1 bd
       -0.08310024 -0.0113116475 0.03551998 -0.09465976

block2.0.bias f4 [32]
000000 48 db f8 3a 14 bf d6 3c 47 9a 00 3d 37 78 04 3d
       0.0018986249 0.02621416 0.03139713 0.03234121
000010 6f 9e 6e bd 6b c6 54 bd f0 f6 88 bd a5 e3 59 bd
       -0.058256563 -0.05194704 -0.066877246 -0.053195614
000020 5b 1d 4c bc b5 74 c2 3d 93 f6 22 bd 25 79 99 bd
       -0.012458171 0.09494916 -0.039785933 -0.074938096
000030 58 ed 0f 3d a1 25 9b 3d 59 ab bf bc 8c 2e 4d bd
       0.035138458 0.075755365 -0.023397135 -0.05009322
000040 67 23 5f 3d ce b0 94 3d 0f ff c7 bc 49 a0 29 3d
       0.05447712 0.07260285 -0.024413614 0.041412625
000050 7a 5a 81 3d a2 a7 4f 3c e7 f4 41 3d 6b 5c a2 3d
       0.06316085 0.012674244 0.047352698 0.079277836
000060 77 cd 61 bd 53 d6 3a 3c 41 1e 8b 3d b8 64 44 bd
       -0.055127587 0.011403638 0.0679288 -0.047947615
000070 2a c2 e0 bd 3d ae 35 bd 70 1a 02 3d 1e 72 b8 3d
       -0.10974534 -0.04435562 0.031763494 0.09006141

block2.1.weight f4 [32]
000000 c1 24 80 3f a2 fb 7c 3f c6 0a 84 3f 59 f4 7d 3f
       1.0011216 0.9882146 1.0315788 0.9920097
000010 30 f7 79 3f 2e 9b 86 3f d0 f5 84 3f af ec 7e 3f
       0.97642803 1.0516107 1.0387516 0.995799
000020 1d 5c 81 3f 50 3e 75 3f 01 17 7c 3f 93 cb 7a 3f
       1.0106236 0.95798206 0.984726 0.9796688
000030 dd 38 7c 3f cb 33 80 3f 09 c4 7f 3f ac 99 74 3f
       0.98524266 1.0015806 0.999085 0.95546985
000040 46 a1 80 3f 75 4b 83 3f 09 b7 83 3f 49 34 79 3f
       1.0049217 1.0257403 1.0290233 0.97345406
000050 7e 91 81 3f ea 32 7b 3f e3 8e 81 3f 44 6c 84 3f
       1.0122526 0.98124564 1.012173 1.034554
000060 21 e2 80 3f 18 dc 7c 3f fe 56 85 3f ad 92 7d 3f
       1.0069009 0.98773336 1.0417173 0.99051934
000070 2b 65 7f 3f 5d 03 7b 3f d1 2e 81 3f 38 76 7d 3f
       0.99763745 0.98052007 1.0092412 0.9900851

block2.1.bias f4 [32]
000000 90 98 fe 3b e3 53 c4 bc 05 11 9d 3c 45 92 6e bb
       0.0077696517 -0.023965782 0.019173155 -0.0036403101
000010 5f 1c d2 bc b6 2c 05 bc 5f e2 0a 3d 5b 04 af bc
       -0.025648294 -0.008128336 0.03390729 -0.021364382
000020 8d 26 cf bd 26 c0 03 bd 52 89 5b bb 39 d5 6e bc
       -0.10114775 -0.03216567 -0.0033498597 -0.014577203
000030 08 5b d8 bd d5 bd e1 bc 07 63 3a 3c 36 7f 0c bd
       -0.10564238 -0.02755634 0.011376149 -0.034301005
000040 6b c5 99 bd 43 70 9d bc a1 87 0b bd fc 40 c5 bb
       -0.075083576 -0.01921857 -0.034064893 -0.0060197096
000050 c9 b1 e6 bc cb 6b 89 bd ae cb 0e bd 8a 19 34 bd
       -0.028160946 -0.06710013 -0.034862213 -0.04396967
000060 3f 70 f8 3c b9 ff 54 bd 95 e1 d5 bc 7a 91 45 bc
       0.03032696 -0.05200169 -0.026108542 -0.01205861
000070 ed 97 a3 bd 51 06 bd bd 08 24 b3 bc 42 33 dc bb
       -0.07987962 -0.092297204 -0.021867767 -0.0067199776

block2.1.running_mean f4 [32]
000000 e5 09 93 be c2 51 21 bf b2 a9 38 bf 4e 85 be bd
       -0.28718486 -0.6301538 -0.72133934 -0.093027696
000010 de 5f 3c bf d2 bd 21 bf 2d 21 8f be 84 2f 83 bf
       -0.7358378 -0.6318027 -0.27955 -1.0248876
000020 95 7d c4 3e fd ce 4a 3d 93 e8 9e 3e 98 94 5e bf
       0.3837706 0.049513806 0.31036815 -0.86945486
000030 a8 c0 2a 3f 4f b5 a3 bf 9c c3 f4 3d ea 77 8b 3e
       0.6670022 -1.2789706 0.11951372 0.27239925
000040 e7 ad 03 bf 73 5c 24 3f 9d ff ca 3e 19 6a 83 be
       -0.5143723 0.64203566 0.39648142 -0.25666884
000050 6f 1b 92 bc e7 4b e3 bd 48 59 3d 3e e3 f5 4e 3e
       -0.017835347 -0.110984616 0.1849109 0.20210986
000060 16 51 94 3d ea da a3 bf 03 23 a4 3e eb 0f 3f 3e
       0.072420284 -1.2801182 0.32057962 0.18658416
000070 28 eb ce 3d 10 68 41 3f d0 90 4b 3e 6b 4c 41 bf
       0.10103446 0.7554941 0.1987946 -0.7550723

block2.1.running_var f4 [32]
000000 23 53 41 3f 9c ab 11 3f 9f e0 4b 3f 06 da 4d 3f
       0.7551748 0.5690248 0.7963962 0.804108
000010 5a ba 6a 3f 88 eb fe 3e 21 0a 0c 3f 15 22 4a 3f
       0.916906 0.4978907 0.54702955 0.78958255
000020 d6 9e 07 3f b4 5a d3 3e 17 54 23 3f 17 98 09 3f
       0.5297674 0.41280138 0.63800186 0.53747696
000030 f7 d9 ac 3e c2 b3 7e 3f 54 99 16 3f f1 21 34 3f
       0.33760044 0.9949304 0.5882771 0.7036429
000040 fa fa 32 3f c6 74 1a 3f a9 5f 0e 3f 8c 24 14 3f
       0.6991421 0.6033443 0.55614716 0.57868266
000050 5e 05 56 3f 45 be 12 3f fc a9 3d 3f 08 1a d1 3e
       0.8360194 0.5732158 0.740875 0.40840173
000060 4f 10 59 3f dd cd c7 3f b7 59 15 3f dd fc d5 3e
       0.8479051 1.56097 0.5834002 0.41794482
000070 6d a5 11 3f 37 d1 1e 3f 21 a3 21 3f ed 80 f2 3e
       0.56893045 0.62037987 0.6313954 0.47363988

block2.3.weight f4 [16, 32, 3, 3]
000000 50 50 d5 3c 11 10 aa 3c a5 58 3e 3d d4 48 13 bd
       0.026039273 0.020759614 0.046471257 -0.035958126
000010 dc 99 2a 3d 7c 4e 31 bd f3 3a 0b bd 34 cc 36 3b
       0.041650638 -0.04328774 -0.033991765 0.002789271
000020 fe 6a c7 bc 52 71 88 3d 53 a8 ae 3c 18 61 20 3d
       -0.02434301 0.06662239 0.021320498 0.039155096
000030 c9 75 67 bd 31 cb 3d bd f0 b1 11 3c c3 d7 4a 3d
       -0.056508813 -0.046336357 0.008892521 0.049522173
000040 2d 94 55 3d 8a 8a c3 bd 1f 48 c4 3c 00 06 57 bd
       0.052143265 -0.095479086 0.023960171 -0.052495956
000050 a3 5f 49 3c 5b 19 68 bd 5f f5 84 bc e2 f2 28 bc
       0.012290868 -0.056664806 -0.016230283 -0.010311814
000060 68 02 0e be b4 e6 d0 bd ac b1 7e 3c c8 0f b1 3c
       -0.13868105 -0.10200253 0.01554529 0.02161397
000070 82 66 6b bb f8 c0 b4 3c dc 6c 73 bd b1 b7 e4 bd
       -0.0035919254 0.02206467 -0.05942999 -0.11167849
000080 d8 ee 71 bc 96 28 2b 3d 4f ed 08 bd 61 b0 a5 bc
       -0.014766417 0.041786753 -0.03342944 -0.020225706
000090 25 4e b8 3c e5 da 0c 3d a4 72 8e bc 98 b8 35 bd
       0.0224982 0.03438844 -0.01738865 -0.044365495
0000a0 48 8f 66 3c 7b 49 36 3d f2 46 71 3c 27 f3 9d bc
       0.014072247 0.04450367 0.014726387 -0.019280983
0000b0 fa 3d c2 3c fd 21 b9 3d 9d 2e ba bd 86 da 67 bc
       0.023711193 0.09039686 -0.09090922 -0.014151221
0000c0 36 9e 66 bc a0 d9 a8 3b 12 a3 fd bc 32 a0 b9 3d
       -0.014075806 0.005152896 -0.030961547 0.09063758
0000d0 f9 13 ea 3c 99 75 3d 3d 18 b5 b0 bc ed 2b 04 3a
       0.028573977 0.046254728 -0.021570727 0.0005041946
0000e0 4d a1 8a bc da 6a 7c bc 56 2e f2 3b 0f ea 69 3d
       -0.016922617 -0.015406335 0.0073907776 0.05710798
0000f0 b6 47 85 bc b5 b7 47 3d a3 62 ce 3d fc 7d d2 bc
       -0.016269546 0.04875918 0.10077407 -0.02569484
000100 ee 15 f8 bc 73 1e 77 bc f8 c1 a5 bd 50 b2 1c bd
       -0.030283894 -0.015082943 -0.08093637 -0.03825599
000110 05 e9 41 bd 19 79 1a bd fb c8 0c be 7f 67 b9 bd
       -0.047341365 -0.037713144 -0.13748543 -0.090529434
000120 d8 ba a8 3d 01 b8 bb 3c 1f 5e 54 3d 5c f4 ed 3c
       0.082387626 0.022914888 0.051847573 0.029047184
000130 88 84 d9 3c bc e6 dd 3d e4 af 3d 3c 8c d2 d2 3c
       0.026552454 0.10835025 0.01157758 0.025735162
000140 51 03 01 bd 07 41 77 3d bf a4 44 bd 41 6f 81 3c
       -0.031497303 0.06036475 -0.048008677 0.01580012
000150 ed 06 92 bc d5 ed 49 bc d6 5e 13 3c 67 da eb b9
       -0.017825568 -0.01232477 0.008994779 -0.00044985415
000160 b0 d0 06 3d 82 85 cb bc c1 2c 12 3d a4 17 25 bd
       0.032913864 -0.024843935 0.035687212 -0.04030575
000170 7d f9 9c bc 75 e2 88 bd 24 2b af bd 03 d5 9a bc
       -0.019161934 -0.06683818 -0.0855315 -0.0189004
000180 15 60 77 bc f1 41 b8 3c 92 07 4d bc b4 32 97 bc
       -0.015098591 0.02249238 -0.012514012 -0.018456794
000190 f2 04 1b bd 61 f1 78 bc 04 f6 96 bc 43 fb 83 bc
       -0.037846513 -0.015194268 -0.018427856 -0.016111022
0001a0 a7 79 94 3d cd a3 7d bc 77 25 5b bd 35 a4 2b bd
       0.07249766 -0.015480948 -0.053502526 -0.041904647
0001b0 1d 8e c8 bb 50 b4 01 bd 61 b4 09 bd d8 3f e3 bc
       -0.006120457 -0.0316661 -0.03361929 -0.027740404
0001c0 40 12 1b bc 30 8b 65 3d 0f e1 8d 3c 94 3c 52 3d
       -0.0094648 0.056040943 0.01731923 0.051327303
0001d0 cd 24 0b 3d 16 c0 1c bc 20 bc 21 bb 3a 2b b0 bd
       0.033970643 -0.009567281 -0.0024678782 -0.08601995
0001e0 ef 4f 14 bd 4d 26 63 bc 28 67 24 bd 6b 5a f7 bc
       -0.036209043 -0.013864112 -0.04013744 -0.030194482
0001f0 6b 56 a4 3b 45 9e 92 bd fa 1c d3 3c 18 c2 87 3d
       0.0050151846 -0.07159094 0.025770653 0.06628817
000200 1a 4b 41 3d f0 ad c9 3c 87 cf 58 bc a1 51 92 bd
       0.047190763 0.024619073 -0.013233072 -0.07144476
000210 17 de ea bc 41 74 b6 bc 20 aa fe 3c 9d a2 24 3d
       -0.028670354 -0.022272231 0.031086981 0.040194143
000220 2c 37 88 3d a6 ec f7 3b a5 ed 2c 3d 18 c9 8d bb
       0.06651148 0.0075660525 0.042218823 -0.0043269508
000230 f9 a1 2e bd 61 21 ea 3c 59 e2 6c 3d 3c cd d3 3d
       -0.042634938 0.02858037 0.05783305 0.1034188
000240 da d0 c3 bc dc 57 07 3d 0c 38 fa 3c d7 5d 3e bd
       -0.0239033 0.033042774 0.030544303 -0.04647621
000250 f8 07 a9 bd 67 fe 37 bd 6c 68 58 3c 6f 35 f6 3c
       -0.08253473 -0.04492035 0.01320849 0.030054776
000260 d3 43 74 3c 5a 8c 56 3d 59 2a 09 bd 35 b7 33 3d
       0.014908749 0.052379943 -0.03348765 0.04387589
000270 df b8 3f 3d 05 eb 8d bc 48 e8 1d bd 1d 9f b7 3d
       0.046807166 -0.01732398 -0.0385516 0.08965895
000280 bd 40 c0 3d 1f 5e b1 bc 0d 66 0b bc a0 d3 1c bd
       0.09387348 -0.021651326 -0.0085082175 -0.03828776
000290 6d e8 5e 3d d8 f8 d7 bc 32 a0 16 bd 9d bb 0e 3d
       0.054420877 -0.026363775 -0.036773868 0.03484689
0002a0 b3 35 92 3c 6d 8b 3a 3d 02 46 00 3d 7a dc 87 3c
       0.017847871 0.045543123 0.031316765 0.016584624
0002b0 e9 ed 42 3d dd 94 d6 bc 97 b7 a6 bd 3e 39 0a bd
       0.04759017 -0.02619403 -0.08140486 -0.033745997
0002c0 ac ee 0d 3d c7 23 88 bd b3 9a 93 3d dc 74 35 3d
       0.034651443 -0.06647449 0.07207241 0.0443009
0002d0 4f 7c 44 3d 8a 69 b8 bb 7e 0b fd 3b 03 f3 30 3c
       0.047970112 -0.0056278156 0.0077223172 0.010800126
0002e0 2a b1 90 3d 9d 6a f4 3c f4 f7 2f 3d 3f 53 04 3d
       0.07065041 0.029835993 0.042961076 0.032305952
0002f0 67 ef 74 3d 72 6a 18 bd b9 81 68 3b de 95 bb 3c
       0.059798624 -0.03721089 0.0035477711 0.02289861
000300 e9 a3 96 bd a1 53 89 bc 24 74 63 3c 2c 39 c9 bd
       -0.07355482 -0.01676351 0.013882671 -0.09825358
000310 48 00 24 bd ed ac d2 bb c6 4f f2 bc 06 f2 31 3d
       -0.04003933 -0.0064293058 -0.029579055 0.043443702
000320 bb 10 62 bd 10 71 21 3d 38 25 45 3c 83 33 34 3c
       -0.055191737 0.039414465 0.012032799 0.0109986095
000330 bb 79 bc 3d 76 2b 35 bc 6a 1c 91 3d 45 c0 39 bc
       0.09202906 -0.011057725 0.07085498 -0.011337345
000340 d9 ed 08 bd 2d 6f 0a bd 19 44 12 bd 43 49 51 3d
       -0.033429954 -0.03379743 -0.035709474 0.05109526
000350 de d6 5b 3c 4a 82 8f bc 9c 50 b0 bb 32 b9 2d 3d
       0.013417928 -0.017518181 -0.005380703 0.042412944
000360 fe c5 e6 bc 97 df 46 3d 97 eb 11 3d 5c 50 8e bd
       -0.028170582 0.048553076 0.035625067 -0.06948921
000370 fc 93 c6 3c df 8a 8e bd 10 bb 45 3d 1f 11 65 bc
       0.024240486 -0.06960081 0.0482741 -0.013981133
000380 87 aa be bc 2d c8 46 3d 61 40 dc bc 87 12 70 bd
       -0.023274673 0.048530746 -0.026886167 -0.05861142
000390 a4 81 e7 3c 94 98 b0 ba cb 4a a6 3d de 1e ca bd
       0.02826006 -0.0013473206 0.081197344 -0.09869169
0003a0 dc f1 01 bd c5 9b 30 bd d2 60 a2 bd 97 63 20 bd
       -0.031724796 -0.043117303 -0.07928623 -0.039157476
0003b0 7c f7 37 bd 66 4d 96 bd 2a 01 37 bd be ae 92 bd
       -0.044913754 -0.07338981 -0.044678845 -0.07162236
0003c0 2c 46 db bc 4c d0 1a bd 5a aa 8b bd fc a1 66 3d
       -0.026766859 -0.037796304 -0.06819601 0.056306824
0003d0 62 1f 60 3d 4b ca 5e 3d 22 da 0c 3c be c7 3d bd
       0.05471743 0.05439214 0.008596929 -0.046333067
0003e0 29 d1 b3 bc d2 4f 9b bc 25 54 5a 3d 94 08 b4 3c
       -0.021950321 -0.01895896 0.053302903 0.021976747
0003f0 ec c4 5f 3c e7 59 10 3c b7 72 8b bd 7a 67 cf bc
       0.01365779 0.008810497 -0.068089895 -0.025317896

block2.3.bias f4 [16]
000000 a9 11 55 3d e2 83 85 3c ab 1a bc bc 13 d5 05 3d
       0.052018795 0.016298238 -0.022961935 0.032673907
000010 71 b7 fc bb 44 45 70 3d 3a 81 a7 3b 56 76 cd bc
       -0.0077122976 0.058659807 0.0051118406 -0.025080841
000020 8f 0c 89 bd 84 b0 cd bd ad 66 33 3c 85 aa 14 3c
       -0.066918485 -0.10043433 0.010949773 0.009073858
000030 57 45 7d 3c 6c 34 aa bd 73 a6 01 3d 97 bf 15 3d
       0.015458426 -0.0831078 0.03165288 0.036559667

block2.4.weight f4 [16]
000000 94 0c 84 3f 8d 59 81 3f aa 07 83 3f 33 12 7a 3f
       1.0316339 1.0105454 1.0236714 0.9768402
000010 68 0e 75 3f 08 ec 85 3f b4 f0 75 3f e0 c3 7f 3f
       0.9572511 1.0462656 0.9607041 0.99908257
000020 50 fb 85 3f 1c af 80 3f cf ff 81 3f ce 52 75 3f
       1.046732 1.0053439 1.0156192 0.95829475
000030 8c f3 78 3f 25 db 7d 3f 7d 12 80 3f 68 08 7a 3f
       0.97246623 0.99162513 1.0005642 0.97669077

block2.4.bias f4 [16]
000000 a0 71 b8 bd 3e 2c 37 bd 81 7a 56 bd b6 0d c0 bc
       -0.09006047 -0.044719927 -0.052362923 -0.023444038
000010 2a 74 d1 bc 88 53 4e bd 8d d5 d2 bd 7f 8e 80 bd
       -0.025568087 -0.05037263 -0.10294638 -0.06277179
000020 4f c5 8a bd fc 4a 2c bd 9c e7 42 3d 06 49 50 bd
       -0.06775915 -0.0420637 0.04758416 -0.05085089
000030 9b 29 26 bd 58 b8 9b bd 63 0c 4c bc 46 9a a6 bd
       -0.04056702 -0.0760352 -0.012454125 -0.08134894

block2.4.running_mean f4 [16]
000000 5b 26 8c be 16 96 9d 3e f8 55 fd be 22 b7 0c 3b
       -0.27373013 0.3077857 -0.4947965 0.002147146
000010 a2 c5 1c be 81 1c 39 3e dd 31 b8 be 8a d2 f0 bc
       -0.15309766 0.1807728 -0.35975543 -0.029397268
000020 ae 32 2e bf 42 a8 27 bf 02 f5 68 bf f3 97 81 bf
       -0.6804608 -0.65491116 -0.9099885 -1.0124496
000030 f0 3c f2 be 4a 72 2f bf ec d7 6d bf 06 62 05 be
       -0.47312117 -0.68533766 -0.92907596 -0.13025674

block2.4.running_var f4 [16]
000000 ba dd de 3e bb 26 19 3f f5 9f 8b 3f a6 bf 5b 3f
       0.4352854 0.59824723 1.090819 0.8583931
000010 c8 39 8c 3f 4c 9e 0a 3f 69 c3 8c 3f 81 04 18 3f
       1.0955133 0.5414779 1.0997134 0.5938187
000020 47 a8 4b 3f 6a 78 32 3f 9c 1f 86 3f 46 8f 70 3f
       0.79553646 0.6971499 1.0478396 0.9396862
000030 38 4b 2b 3f 3b 29 64 3f a4 61 52 3f 83 ff cc 3e
       0.6691165 0.8912541 0.8218024 0.4003869

block3.0.weight f4 [32, 16, 3, 3]
000000 a8 2d 1d 3d ef 8d 79 3d cd 60 a7 3c cd 66 95 bd
       0.03837362 0.060926374 0.0204319 -0.07294998
000010 6e 6d 5e bc c0 be 1d 3b 96 bd d8 bd 8d 6e 91 bd
       -0.013575895 0.0024069995 -0.10583036 -0.07101164
000020 2a cf 66 3d 2d 07 12 bb f9 37 50 bd f7 49 3d 3d
       0.05634991 -0.002228211 -0.05083463 0.046213116
000030 0c eb 0a 3d e8 51 53 3c 8f e7 a3 3d 3b 30 06 3e
       0.033915564 0.012897946 0.08003151 0.13104336
000040 09 d0 32 bd b2 4e 9a bd 1c 60 4b 3a 5e 51 a5 bb
       -0.04365543 -0.07534541 0.0007758157 -0.0050451
000050 55 e6 b3 3d c4 07 c2 3d 1e 49 ac 3d a3 be bd 3d
       0.08784167 0.094741374 0.084123835 0.09264877
000060 f3 1f 9d 3d ff f0 85 bd ac 8d 01 bc 34 46 27 3c
       0.076721095 -0.06540107 -0.007907312 0.010209609
000070 d6 a1 88 3d 80 ea d4 bc ce b0 92 3c 17 4b a3 3c
       0.06671493 -0.025990725 0.017906573 0.019933267
000080 0f dd 1c bd fc 9e 8f 3b 6c 2f 2e 3d 40 b6 ec bc
       -0.038296755 0.004382966 0.042525694 -0.028895497
000090 bd 9a 63 3d 59 5d 9c bd 9d a9 57 bd d3 40 09 bd
       0.05556749 -0.07634992 -0.05265199 -0.033509087
0000a0 ec 2f 24 bd f9 0b fc 3c 4b 3e 2f bd ed 20 e9 3c
       -0.040084764 0.030767428 -0.042784017 0.028458083
0000b0 9b bb ab 3b 28 63 80 3d b7 2a 77 3d d6 5e 8e bd
       0.00524087 0.062689126 0.06034347 -0.06951682
0000c0 b1 8d e7 bd 10 cb 98 39 9e 01 04 3d 43 2c 86 3c
       -0.11306322 0.00029142993 0.032228105 0.016378528
0000d0 c1 fe 65 3d 3e fd 98 3d 1f 88 46 bd 03 f5 52 bd
       0.056151155 0.07470177 -0.04846966 -0.051503193
0000e0 0f 7d 02 3d 16 f1 37 bc 96 1f 04 3e b6 8d 81 bd
       0.031857546 -0.011226913 0.12902674 -0.06325857
0000f0 0f 7d 9e bc 76 46 57 3d 79 44 93 bd ad 13 75 bd
       -0.019346742 0.05255743 -0.071907945 -0.059833217
000100 bc 8e c0 bc 16 7a 77 bd c0 91 1c bd e9 dc 31 bd
       -0.023505561 -0.060419165 -0.038224936 -0.043423567
000110 27 98 57 bc d6 1e 9a 3b cc e6 06 bc b3 8c 8f 3d
       -0.013158835 0.004703383 -0.008233737 0.07009258
000120 94 e2 93 bd 4f 8b 58 bd 28 70 04 bd e3 cd 86 ba
       -0.07220951 -0.05286723 -0.032333523 -0.0010284748
000130 4e 84 03 be 96 3e c2 bd 5e 4e 7f bd 30 4e 52 3d
       -0.12843439 -0.094845936 -0.062330596 0.051344097
000140 c8 37 91 3c ee 73 10 3d 65 b1 77 bd 70 89 25 bd
       0.017726794 0.03526681 -0.06047191 -0.040414274
000150 0a b5 45 bc 63 e4 11 3c 78 aa d9 3b 13 28 ac bd
       -0.012067089 0.008904549 0.006642636 -0.08406081
000160 b7 cb d1 bd 1e 8a 07 3e ca 27 b8 3c a1 fb 89 3d
       -0.10243934 0.13236281 0.02247991 0.067374475
000170 47 4c a8 bc 64 14 21 bc 6e bf a7 3d 56 bd 2f bd
       -0.020544184 -0.009831522 0.08190809 -0.042905174
000180 fc 23 68 bd 68 77 43 bc cd ce 47 3d 8a 88 55 bc
       -0.056674942 -0.011930324 0.048781205 -0.013033042
000190 aa 97 0a 3d 28 11 86 bc dd 26 ba 3d 41 d3 a0 3d
       0.033836044 -0.016365603 0.09089444 0.078527935
0001a0 45 00 9f 3d 83 4a 71 bd 7c c9 14 3b 7a 0c 02 3c
       0.07763723 -0.05890895 0.0022703102 0.007937545
0001b0 05 f9 10 3d 71 ac 8d bc a1 cb 84 3d 61 59 83 bd
       0.035393734 -0.01729414 0.06484152 -0.06413532
0001c0 81 1f 4e bc f1 a1 32 3d 9b 02 ee 3c 97 b8 4d bd
       -0.012580753 0.04361147 0.029053977 -0.050224867
0001d0 61 c2 04 be 95 78 b3 3c 38 83 03 3e fd fc 91 3c
       -0.12964775 0.021908084 0.12843025 0.01782083
0001e0 eb 91 12 bd d7 06 39 bd 90 0e 99 3d 05 35 24 bd
       -0.03578369 -0.04517254 0.07473481 -0.040089626
0001f0 1b 58 c9 3c a0 f8 05 3d 5f 9f 3d 3d b1 38 09 3e
       0.024578145 0.03270781 0.046294566 0.13400532
000200 84 34 1d 3c da f1 64 3d 12 38 72 bc a1 a4 a8 bc
       0.00959504 0.05589471 -0.014783876 -0.020586314
000210 7c 87 cf bd 57 a5 35 bc df a5 43 bd 04 d1 d8 bc
       -0.101332635 -0.011086783 -0.04776561 -0.026466854
000220 e4 41 a5 bb 32 f7 93 3d ff 9a d9 3d fc fa a1 3d
       -0.005043255 0.07224883 0.10625266 0.079091996
000230 19 72 aa bd 5c 5d 16 bd 46 3f a4 bd ff 4f 88 3b
       -0.08322544 -0.03671013 -0.08019881 0.004159927
000240 23 33 3c bc ba 7b 08 3e 1c db 48 3d 11 47 44 3c
       -0.011486801 0.13328448 0.049037084 0.011979834
000250 91 a4 82 bc 08 b2 98 3d 90 69 04 3d 66 60 05 bd
       -0.015947612 0.07455832 0.032327235 -0.032562636
000260 85 db e0 bc 92 d9 4f 3d 2a b4 20 bd 99 aa 5e bd
       -0.027448425 0.0507446 -0.039234318 -0.054361913
000270 e7 e1 42 bc 6e 6f 16 3d fd 74 02 3c 56 a3 c8 3c
       -0.01189468 0.03672736 0.0079624625 0.024491947
000280 54 ea 96 bc 3e 72 21 3d 40 66 a1 3d eb a8 d5 3c
       -0.018422283 0.03941559 0.07880831 0.026081523
000290 7d cb 39 bc 6c 7e af bd f5 d4 84 bd 11 ff 7d bd
       -0.011340019 -0.08569035 -0.06485931 -0.06201083
0002a0 1f 7f 94 bd 0d 74 8e bd 06 8b 70 bc 84 6b 91 3c
       -0.07250809 -0.06955729 -0.014681583 0.017751463
0002b0 87 e6 8e bd 30 8b 59 bd f1 b8 5e 3d 51 3e 80 3d
       -0.06977563 -0.053111255 0.054375593 0.06261886
0002c0 5d a8 3f 3c 94 34 b2 bc c9 29 b0 ba 4b f1 14 3d
       0.011697856 -0.021753587 -0.0013440187 0.036362927
0002d0 2a f8 a2 bd 2c fe 56 bd d0 9a 9e 3d 59 36 02 bc
       -0.0795749 -0.05248849 0.07744372 -0.007947528
0002e0 b6 c6 d2 bb 82 d5 58 3d 2a e9 4d 3b 88 5c 96 bd
       -0.0064323796 0.052937992 0.0031419494 -0.07341868
0002f0 8a 0d 24 3d 66 86 f4 bc 6f 19 8e bc 74 14 01 b9
       0.040051974 -0.029849242 -0.017346112 -0.00012310018
000300 f0 05 27 3d 19 a2 80 bd e5 43 6a bd 49 35 8f 3b
       0.040777147 -0.06280918 -0.057193656 0.0043703658
000310 05 37 f1 3c f4 2a 31 3c 45 86 0b bc 55 d0 4d 3c
       0.02944518 0.0108134635 -0.008515899 0.012561877
000320 51 8f 70 bd 46 8d 7a 3d 26 12 2d 3d 58 d0 9f 3d
       -0.058730427 0.061169885 0.042253636 0.0780341
000330 e4 ee a6 bd ca 32 82 3d de 97 ca 3c 78 92 b9 3d
       -0.081510335 0.063573435 0.024730619 0.0906114
000340 df ff 16 3e 4d 25 59 3c 89 d6 1d 3c d1 1c 82 bd
       0.14746045 0.013253522 0.009633669 -0.063531525
000350 00 34 08 bb 0a a8 46 bd 42 22 6d bb 0e 40 4b bd
       -0.0020782948 -0.0485001 -0.003618375 -0.049621634
000360 69 0a 95 bc 1c 05 1f 3d 70 8c 6b 3d a9 d6 b4 3d
       -0.01819344 0.038823232 0.05750698 0.08830006
000370 fc 5b 1b 3d 60 4f 81 bd 6e f2 98 bb 3f 9a bf 3d
       0.03792952 -0.06313968 -0.0046675717 0.09355592
000380 2c 77 ae 3c 98 7d 3c 3e ee 8b 38 3e 75 29 a2 3d
       0.02129706 0.18407285 0.18022129 0.079180636
000390 c6 fe 1b bd e5 82 13 bb 88 a0 39 bc 5d 42 95 3d
       -0.038084768 -0.002250844 -0.011329778 0.072880484
0003a0 21 14 eb bc 57 cc 37 3c 5a 76 f3 3c 06 d1 2b bd
       -0.028696122 0.011218152 0.02971952 -0.041947387
0003b0 2e 30 91 bd da 54 6c bd ea a4 9b 3d a0 b4 8e bc
       -0.07089268 -0.05769811 0.07599814 -0.017420113
0003c0 20 7f 4c bb c7 5e 3d 3c c5 b9 89 3d 52 97 f6 bb
       -0.0031203702 0.011558241 0.06724886 -0.007525363
0003d0 5d 3f bd bc 56 cf 7b 3d b0 e4 fe 3c 96 71 50 bc
       -0.023101503 0.061477028 0.031114906 -0.0127223935
0003e0 2b fd b9 3d 7a 24 ea 3d 54 a3 bd 3d e7 0a 36 3d
       0.09081491 0.114327386 0.09259668 0.04444399
0003f0 e0 23 38 bd a0 21 c3 3c 95 a2 10 bc 55 c3 15 3d
       -0.044956088 0.023819745 -0.008827825 0.036563236

block3.0.bias f4 [32]
000000 19 14 d3 bc 05 95 89 3c 8d 90 91 bd 8a c7 f0 bc
       -0.02576642 0.01679469 -0.07107649 -0.029392023
000010 9f 13 24 bd 51 37 06 bd 33 c6 51 bd a9 dc 66 bd
       -0.040057775 -0.032767598 -0.051214408 -0.05636278
000020 cd ee 33 3d 76 4a 9c bc 37 1f 3d bd ee 28 8d bc
       0.04392891 -0.019078474 -0.046172347 -0.01723143
000030 95 a0 b1 3c bf 0f fa bc 1d cd 96 3d 90 90 9c bd
       0.021683017 -0.030525086 0.07363341 -0.076447606
000040 cc 9c 8a 3d 56 d9 39 3d 60 87 64 bd 32 1a 8e bd
       0.06768188 0.045373283 -0.055793166 -0.0693859
000050 9b 50 4c 3c 1e 9d 93 bc cc c9 ac 3c 35 b4 06 3d
       0.01247039 -0.018019255 0.021092318 0.032886703
000060 f4 65 72 bd 3d b1 89 3c 16 27 aa bc fd 2c a4 bd
       -0.05917926 0.016808147 -0.02077059 -0.08016393
000070 e4 5d ab 3c f1 d2 67 3b 28 7e 7f bd 18 2a a4 3d
       0.020918794 0.0035373534 -0.06237617 0.08015841

block3.1.weight f4 [32]
000000 07 6d 99 3f 86 5c 99 3f e6 5f 9a 3f 4d c3 94 3f
       1.1986398 1.1981361 1.2060516 1.1622101
000010 b5 0f 9b 3f e7 5c 98 3f 69 bb 9a 3f 0f 41 9a 3f
       1.2114168 1.1903352 1.2088443 1.2051104
000020 ad f9 94 3f 41 70 94 3f a7 3a 97 3f 4f ff 99 3f
       1.1638695 1.1596757 1.1814774 1.2031039
000030 ff a6 92 3f b8 96 97 3f 45 c2 9b 3f 07 61 95 3f
       1.1457213 1.1842871 1.2168661 1.1670235
000040 b3 e4 96 3f dc fc 9a 3f 7d 56 99 3f 57 56 97 3f
       1.1788543 1.2108417 1.1979519 1.1823224
000050 51 9b 99 3f cb 40 9a 3f 57 e0 9a 3f 1c 4d 95 3f
       1.2000524 1.2051023 1.2099713 1.1664157
000060 7b 38 99 3f b7 5b 9a 3f 67 7d 9b 3f eb a6 98 3f
       1.1970361 1.2059239 1.2147645 1.1925939
000070 14 b4 95 3f 7d 0b 9a 3f 24 d0 9a 3f 43 19 98 3f
       1.169558 1.2034756 1.209477 1.1882709

block3.1.bias f4 [32]
000000 9e 9b 2e bd b3 ed a2 bc 31 70 5e 3d 7b 1a 91 3b
       -0.042628877 -0.019888734 0.054306213 0.0044282055
000010 f9 c7 e6 3c 18 fe 52 3d 57 70 14 3d 44 57 5b 3c
       0.028171526 0.051511854 0.036239948 0.013387505
000020 9e 0a 1f 3b 87 ec a1 3c 9d f9 88 bc 37 66 3b bc
       0.0024267803 0.019766105 -0.016720587 -0.011437944
000030 a8 64 2c bd 4b 48 cd 3b b2 88 7a 3c a9 13 82 bc
       -0.04208818 0.0062647215 0.01529138 -0.015878515
000040 cf 04 3b 3d 73 df 5f 3d b8 74 eb 3b 43 d9 40 3d
       0.045658883 0.054656457 0.007185545 0.047082197
000050 bc 53 fa 3c 67 7c 29 3d 5e 2c 5c 3c da ca ed ba
       0.030557506 0.041378405 0.013438312 -0.001814212
000060 ca dc 75 3d bc 12 71 3b 22 8d 3c 3d 0c 58 f6 3b
       0.060025014 0.0036784848 0.046033032 0.00751782
000070 74 b3 7b 3d 4a 89 a7 3a c9 6e 2a 3d 8c 66 8c 3c
       0.061450437 0.0012782004 0.04160956 0.017138742

block3.1.running_mean f4 [32]
000000 ff 23 27 3e d1 87 0d 3f 71 42 4c be a5 fa a4 3e
       0.16322325 0.55285364 -0.1994722 0.32222477
000010 b7 01 6b 3f bc 64 4b be ef 0b 49 3e 74 5c e6 3d
       0.9179949 -0.19862646 0.19633459 0.11248103
000020 f3 e2 01 3f ad 4d 1d bc 00 be ca b8 79 7b 24 3d
       0.5073692 -0.009601039 -9.667501e-05 0.040156815
000030 b8 77 29 3e 60 fb 00 3f c0 e0 eb bd 96 c0 18 3e
       0.16549575 0.5038357 -0.11517477 0.14917216
000040 08 a2 68 3e 88 ac 5b 3f e2 a8 84 3a b2 92 1b 3e
       0.2271806 0.85810137 0.0010121132 0.15192679
000050 75 f1 9c 3e 1e bd 8e 3e d4 18 5c 3f 3d d0 a4 3d
       0.30652967 0.2787866 0.85975385 0.08047531
000060 a3 59 a1 3e 69 00 bb bc aa 4c f4 3e b7 7d cc 3b
       0.315137 -0.022827344 0.4771474 0.0062405723
000070 79 28 03 3f 1c 43 42 3f 7f 96 65 be 39 c3 f4 3e
       0.5123363 0.7588365 -0.22420691 0.47805193

block3.1.running_var f4 [32]
000000 d0 07 a7 3e 6c 4f bb 3e b1 8d 79 3e 67 6c c1 3e
       0.32623148 0.36584032 0.24370457 0.37778017
000010 b8 ef d9 3e ac ea b4 3e 8d b2 0c 3f f7 d0 ac 3e
       0.42565703 0.3533529 0.54959947 0.33753178
000020 09 ae 0e 3f f3 5c a7 3e 2d f4 a6 3e e2 d1 f7 3e
       0.55734307 0.32688102 0.32608166 0.48402315
000030 65 db ad 3e b0 d2 06 3f 9e 47 b0 3e 86 e1 d1 3e
       0.33956447 0.52665234 0.3442964 0.40992373
000040 e2 94 19 3f 4a b9 f0 3e 50 a9 c0 3e 02 21 df 3e
       0.599928 0.47016364 0.37629175 0.4357987
000050 ff 7c f4 3e c4 85 ba 3e 30 d6 f3 3e 09 8b cb 3e
       0.47751614 0.3643018 0.4762435 0.39754513
000060 28 c7 11 3f 27 cb d4 3e 97 43 b1 3e 78 2a b1 3e
       0.56944513 0.41561243 0.3462188 0.34602714
000070 05 49 06 3f 9d cd e0 3e 9e c0 08 3f a3 a0 94 3e
       0.5245517 0.4390687 0.5341891 0.29028806
