src/models/mnist_model_20241222_185602.pth (torch, 109309 bytes, 34 tensors)

block1.0.weight f4 [16, 1, 3, 3]
00000000: 4fe8 8b3e 2a24 903e 9e07 11be 6451 843e
00000010: ea78 c8bd 1a41 523d 1cca 3dbe 28ef 3e3e
00000020: aec6 953e 0691 8ebe 2d12 7e3e 4271 a33c
00000030: b292 873e 7327 ac3d 8ff1 273e c69a 20bd
00000040: 1f32 863e bd42 1d3d a0cb 15be be49 523d
00000050: 82ae 33be f305 95bd 4337 18be 7a1e 6f3e
00000060: 8be3 83be f833 24be 8180 62bd 3c79 69be
00000070: ad2e bcbb 0d11 c2be 965e a43e 91bc 81be
00000080: 25c8 563e 7253 cb3d 10e3 94bd 27e6 513e
00000090: 2253 893c e3ec 7c3e 70a1 133d c5bc 19be
000000a0: 507f 4a3d 2c00 c0bd 3990 ba3d edf2 9c3e
000000b0: 1d32 7f3e 5fe6 a8bd 278f 533e 305a 363c
000000c0: e499 4c3e 1dfb 43be 23bb b8be 5c26 0bbe
000000d0: 9932 89be 35dc 8b3e 90e5 863d 39af 2b3e
000000e0: decc 203e 081b 28bd b60a 693e b295 5abe
000000f0: 93e2 22bd 2b34 8fbe 4b81 6f3d 1803 d4bd
00000100: 8e64 a93d 4014 c0bd 63b0 863e 38e2 51be
00000110: 21af 65be 0d49 32be 4977 a63e fe6d 0d3e
00000120: 711d 8c3e d0bd a2be 0bd6 c0be 2dac 8dbe
00000130: 342c 81be 929b 813d 1e40 e23d bfef 6f3e
00000140: c907 80be 524f 6ebe 6bc1 293e 5b82 0cbe
00000150: 5aeb 4b3e 8124 62bd dd9c 5d3e cd06 7cbe
00000160: db09 31be 47e0 043e 81eb 943d 7644 cebd
00000170: 14e9 163e ed45 8c3e 11cd 75be cd63 38be
00000180: 44d5 a23e 9f17 06be 678a d0bd 69e4 80be
00000190: 6443 4ebd e667 443e 2286 9cbc d91e 29be
000001a0: eeca 063d 5f7c 0abe befe 79be 2880 7cbe
000001b0: a54f 8cbe 6d7e 0ebe f9ad c13e 8dbc b03c
000001c0: f173 f13d 26a0 9cbe d650 22be e5f3 92bd
000001d0: 134f e53c 7797 b1be e55b 21be 8c0e 2dbe
000001e0: 882b 2c3d 1b42 9cbd ba84 0c3d 9825 52be
000001f0: d685 45be 3b59 5dbe 3dff d0bd ea77 81be
00000200: af2c 9d3e d315 a0bd e3ef 933e 02a0 193e
00000210: 8c9a 91be c830 633e 3272 52bd cd42 0fbe
00000220: 396d 72be f6f6 78be 0de4 2e3d 43a9 87bd
00000230: 5e5b 263e 7664 8fbe 8995 893e 2098 82be
0.27325675 0.2815259 -0.14163062 0.25843346 -0.097886875 0.051331617 -0.1853413 0.18645918
0.29253143 -0.2784502 0.24811621 0.019951466 0.26479107 0.08405962 0.16400741 -0.039210103
0.26210114 0.038393725 -0.14628458 0.051339857 -0.17547038 -0.07276525 -0.1486483 0.2335147
-0.2575954 -0.1603545 -0.055298332 -0.22800153 -0.005742869 -0.37903634 0.32103413 -0.25339177
0.20974787 0.09928025 -0.07269871 0.20497952 0.016763274 0.2469974 0.03604263 -0.15013416
0.04943782 -0.09375033 0.091095395 0.30654088 0.2492146 -0.08247065 0.20660077 0.011129901
0.1998058 -0.19138761 -0.36080274 -0.13588852 -0.26796415 0.27316442 0.06586754 0.16766061
0.1570315 -0.041041404 0.22757992 -0.21346167 -0.03976686 -0.27969489 0.058472913 -0.103521526
0.082711324 -0.093788624 0.26306447 -0.20496452 -0.22430088 -0.17410679 0.32512882 0.1381149
0.27366212 -0.3178544 -0.37663302 -0.27670422 -0.25229037 0.06328501 0.11047386 0.234313
-0.2500594 -0.23272446 0.1657769 -0.13721602 0.19913998 -0.055210594 0.2164187 -0.2461197
-0.17288916 0.1297618 0.07271481 -0.10071652 0.1473735 0.273971 -0.24004008 -0.18006821
0.31803334 -0.13094948 -0.10182648 -0.25174263 -0.050357237 0.19180259 -0.019106928 -0.16515674
0.032908373 -0.13524006 -0.24413583 -0.24658263 -0.27404514 -0.13915415 0.37828043 0.021574283
0.11789692 -0.30590934 -0.15851149 -0.071754254 0.027991807 -0.3468587 -0.15757711 -0.1690008
0.042033702 -0.07629796 0.034306265 -0.20522153 -0.19289336 -0.2161607 -0.10204933 -0.252868
0.30698153 -0.07816663 0.28893957 0.15002444 -0.28438222 0.22186577 -0.051378436 -0.13990326
-0.23674478 -0.24312958 0.042697955 -0.06624081 0.16245791 -0.28006333 0.268719 -0.25506687

block1.0.bias f4 [16]
00000000: 534a 9dbd 022a 903d cc72 f83d 8b57 823e
00000010: b207 ab3e 4a6e 75be 0095 eb3d 6496 18be
00000020: dfaa b6bd 3a6d 9ebe f82b 8f3e df21 6dbe
00000030: 9daf b73d 2697 d93d 76d7 213e 6b59 63be
-0.07680192 0.07039262 0.12131271 0.25457415 0.3340431 -0.23967853 0.11503029 -0.1490112
-0.0891931 -0.30942708 0.27963233 -0.23157452 0.089690425 0.106245324 0.15804848 -0.22202079

block1.1.weight f4 [16]
00000000: 3786 743f c546 733f 0cf8 793f b3ee 843f
00000010: 0db2 753f 29fc 8a3f 3f07 893f ece8 7f3f
00000020: 6bbe 633f c204 823f 9c7b 833f 2ff9 773f
00000030: 7b99 7c3f ffba 7b3f 4952 783f ea62 793f
0.95517296 0.9502986 0.97644114 1.0385345 0.9597481 1.0858203 1.0705336 0.99964786
0.8896243 1.0157702 1.0272098 0.968646 0.9867169 0.9833221 0.9700056 0.97416556

block1.1.bias f4 [16]
00000000: 051b 1ebc ab28 99bc 275a eebc edea 823d
00000010: 7976 dcba 3f1e 853d 3092 253d ee33 c2bd
00000020: a9f4 afbd 6c72 063d ecdc debc 66d1 54bd
00000030: 2c58 d1bb 8104 04bd 0241 3c3c 2bbe 1fbd
-0.009649997 -0.01869615 -0.029095722 0.06392465 -0.0016819976 0.064999096 0.04042262 -0.09482561
-0.08591587 0.032823965 -0.027204953 -0.05195751 -0.0063886847 -0.032230858 0.011490108 -0.038999718

block1.1.running_mean f4 [16]
00000000: 251a 1d3d 91c8 2a3e 91f7 f03c 3417 7a3e
00000010: 67cb da3e 5652 8ebe 2d2c 013e b64d 15be
00000020: 099e 3fbe e3a3 a8be adbe 923e 2db3 afbe
00000030: 82e6 1b3d a6b5 6ebd 96b2 3a3e ab7a a2be
0.03835501 0.16678073 0.029414924 0.24422914 0.4273331 -0.27797192 0.12614508 -0.14580426
-0.1871263 -0.32937536 0.286611 -0.34316388 0.038061626 -0.058278702 0.18232188 -0.31734213

block1.1.running_var f4 [16]
00000000: cb53 5e3d 9849 443d 124f 163d 714c 613c
00000010: 3600 223d c85c 833c 56f0 183c b856 ac3b
00000020: 4aad 653d cd44 cd3b 8e7c 733c 59e6 543d
00000030: abf8 7a3c cf5a c63d 0afc a53c 4937 123d
0.05427913 0.047921747 0.0366965 0.013751135 0.039550982 0.016035452 0.009334644 0.005259361
0.056073464 0.006264305 0.014861239 0.05197749 0.015318076 0.09685289 0.020261783 0.035697255

block1.3.weight f4 [16, 16, 3, 3]
00000000: d913 8c3d 1fb3 0d3d 9198 973c fa7a c2bd
00000010: 5f9e a73c 51c0 a1bc a59c 6ebd 2245 873d
00000020: 8825 993c b3f3 4bbd 0a19 21bd 2329 8fbc
00000030: fb30 f93c 8b1e 28bd 1ce3 95bd 4a61 f5bc
00000040: 9e50 70bd 9e5d e43c 7990 463d 9a4c c9bd
00000050: d062 debc e82f ee3c c2ba 0dba 06fa 14bd
00000060: 501c e13c 7791 463d 6e0c 643c 5d40 02bd
00000070: 6a20 dcbc 6c4b 01bd 6ce7 0c3b 5ed9 32bc
00000080: 7966 223d 5797 f33d 4b63 603d f675 bd3c
00000090: 5ac5 d3bb 4d53 fbbb 7c48 d03a dce4 8a3c
000000a0: 555b a3bd 460f 1ebd 6864 a03d c412 243d
000000b0: 431a 3d3c 4d52 49bd 3e5e 6ebc bb52 20bd
000000c0: c5ec 873c c946 d53d 02a6 ab3d 5bb2 d43d
000000d0: 3ffb 5bbd 579a ce3b fd77 173d 1cf0 0c3e
000000e0: 7d2a 8a3d 58d5 e5b9 a434 893d 4885 91bc
000000f0: 3090 84bd 24a4 1e3d b7e8 5fbd 5b67 c0bc
00000100: 56a9 78bd ad32 bd3b 61cc a43d 97ac bb3c
00000110: 11ca 21bd 49ca 7bbd 34b5 a3bc a4e4 aa3d
00000120: c5ed 023c dc06 7e3d 61b3 993d 9816 b73c
00000130: f555 4b3c 1555 ecbc c9a4 0dbd 02c4 42bd
00000140: 319f 543d e9f7 12bb f215 5ebc bd05 bfbd
00000150: 46f4 1bbd 02c3 cabd 4171 97bd ef11 38bc
00000160: f94f 1bbc 6098 2f3d 7991 6abd 26dd b9bd
00000170: 3217 57bc 5dcc a9bd c594 85bd ccf4 c9bd
00000180: 6797 693c eb16 66bd 0e77 6d3d 4542 2c3d
00000190: 5bbc 703d abc8 b7bd feb0 a33d cb20 58bd
000001a0: 3234 3c3c 4108 923d 6436 e2bc a585 f5bc
000001b0: 02c9 af3c e35e a2bd a798 b03c d875 e2bc
000001c0: dc44 ec3c c593 0e3d 1b63 af3d ae16 6ebd
000001d0: b650 e9bd f333 adbb 0a86 be3c c7ab e8bd
000001e0: a27f 98bc 3d95 6cbd 5ef9 0abc c9f3 18bd
000001f0: 5b75 fcbc 4725 dfbc 41e7 21bd cc5c 8e3d
00000200: e5fa 783d 6f85 bfbc e80c 82bd af22 99bd
00000210: 4895 bfbd 23ac cfbd ec15 483c 4008 a6bd
00000220: 4688 a1bd b66a 10bd 1539 febc da8a 0abd
00000230: a13e 793c d3c5 98bc 1ab1 b2bc f58b 2fbd
00000240: 600c 02be e6ee c63c ba72 4dbd a4d5 59bb
00000250: aa0e 4ebd a3b6 72bc 1a19 d93d 92f9 1c3d
00000260: 2b72 a6bd b832 db3a d7c2 703d 3a78 9c3c
00000270: bc41 7e3d 0fac 9e3d 6016 a4bc c29f dc3c
00000280: a4d7 67bd 4511 e3bc 8e44 943d 9a0e 713d
00000290: 1fb5 30bd 5aa4 8fbd cdd7 80bd 3cd5 a6bd
000002a0: e152 8dbd 8bbe c8bc 8a82 953d 0905 353d
000002b0: 4027 5dbd 5011 bfbd e706 cd3d 4b74 efbc
000002c0: f327 d7bc ef6f 663d 1554 c7bc b5d4 22bd
000002d0: e10b 0fbd f7b9 33bd 3116 5ebd 3ba8 acbd
000002e0: 28a0 b7bd 2d61 84bd 7e4d a13d 9196 4cbd
000002f0: fc4c 88bd 5348 01bc 6979 2a3d f017 4e3d
00000300: 58f7 9c3c 7a94 853c 86cf b7bd 21fc 27bd
00000310: 414e fe3b 7e00 77bd c851 cfbd 6c1a 873d
00000320: 568e eebc 4a2f 90bd 29cf babd 7b6a 0bbc
00000330: 65c0 963c d1be d6bb 6326 17bc c1c1 6dbc
00000340: dd12 c0bd 9255 71bc 84e9 e53d 94ef 263d
00000350: 0195 e9bd 0a89 283d 4e8d b7bb a5d8 56bd
00000360: 5ea9 8e3d 1b74 513d b3e3 323d 93cb a9bd
00000370: c216 823d 7dd6 83bd 11dd 4cbd 1597 673d
00000380: eaca f33c 7579 503d 189f 21bd 04f1 b6bc
00000390: fcdb 2dba db9b 3bbd 4dd9 4cbd c319 f23a
000003a0: c65a 28bc 4af5 403b 0ee0 053c d284 60bd
000003b0: f6ad a5bd e435 123d 882d 833d cd0e d9bc
000003c0: 6964 ee3b 6fe5 b63d ac8d 0a3d 9c5d cb3c
000003d0: 3f3e 2dbb b7ef 3fbd 32b7 9fbd 2375 2bbd
000003e0: 4a19 c4bc 8f47 c33c 7be8 babc a536 1dbc
000003f0: 5dde b73d 1e3c 2f3d b835 ca3d 7799 21bd
0.06839723 0.03459465 0.018505367 -0.09496112 0.02046126 -0.019745024 -0.058254857 0.06604983
0.018694654 -0.049792957 -0.03933052 -0.01747567 0.030418864 -0.041044753 -0.07318708 -0.029953618
-0.058670633 0.027876671 0.048477624 -0.09829064 -0.027146727 0.029075578 -0.0005406552 -0.036371253
0.02747932 0.04847857 0.013918979 -0.031799663 -0.026870925 -0.03156607 0.0021500243 -0.010916082
0.039648507 0.118941 0.054782193 0.023127537 -0.006462735 -0.0076698423 0.0015890743 0.016954832
-0.079764046 -0.038588785 0.07831651 0.04005696 0.011541906 -0.049150754 -0.014548836 -0.039141398
0.016592393 0.10413892 0.08381273 0.10385581 -0.053706404 0.00630502 0.036979664 0.1376347
0.06746385 -0.00043837237 0.066994935 -0.017763749 -0.06472814 0.038730755 -0.054665294 -0.023486784
-0.060708366 0.0057738633 0.08046795 0.022909446 -0.039499346 -0.06147221 -0.019983865 0.08344391
0.007991259 0.06201826 0.07504917 0.02234964 0.0124106305 -0.028849164 -0.03458098 -0.04755021
0.05190963 -0.0022425598 -0.013555037 -0.09327266 -0.038074754 -0.09900476 -0.07394648 -0.011234744
-0.009479516 0.042869925 -0.05726764 -0.09075384 -0.013128089 -0.08290932 -0.06522516 -0.098611444
0.014257289 -0.0561742 0.057974868 0.042055387 0.05877338 -0.08973821 0.07992743 -0.05276565
0.011487054 0.071304806 -0.027613826 -0.029970953 0.021458153 -0.079282545 0.021557165 -0.027644083
0.028841428 0.034808893 0.08563825 -0.058127098 -0.113923475 -0.005285734 0.023257274 -0.11360889
-0.018615548 -0.057759512 -0.008482305 -0.037341867 -0.030817678 -0.027239455 -0.03952718 0.06951293
0.060786147 -0.023379056 -0.06350118 -0.074773185 -0.09354645 -0.10140254 0.012212258 -0.08107042
-0.0788732 -0.035258017 -0.031033078 -0.033823825 0.015212686 -0.018649017 -0.021812964 -0.042858083
-0.12700033 0.024283838 -0.05015824 -0.0033238912 -0.050306953 -0.014814052 0.10600491 0.038323946
-0.081272446 0.0016723489 0.058779564 0.019100297 0.062074408 0.07747661 -0.0200302 0.026931647
-0.056602135 -0.027718196 0.07239638 0.058851816 -0.04314148 -0.070137694 -0.06291161 -0.0814614
-0.069005735 -0.02450492 0.07300289 0.044194255 -0.05399251 -0.09329474 0.10011082 -0.029230257
-0.026264166 0.056259092 -0.024332086 -0.039753634 -0.034923438 -0.04387852 -0.054220382 -0.08430525
-0.08966094 -0.06463847 0.078761086 -0.04994828 -0.066553086 -0.007890779 0.041619692 0.050315797
0.019160911 0.01630615 -0.08975129 -0.041011933 0.0077607934 -0.060303204 -0.101230204 0.065968364
-0.029120605 -0.0704027 -0.09121544 -0.008509274 0.018402288 -0.006553509 -0.009225461 -0.014511527
-0.09378598 -0.014729874 0.1122618 0.040755823 -0.11405373 0.041146316 -0.0056015616 -0.052452702
0.06965898 0.051136117 0.043674182 -0.08290782 0.06351997 -0.06437395 -0.050015513 0.056540567
0.029759843 0.05089708 -0.039458364 -0.022331722 -0.00066322065 -0.045802932 -0.05001192 0.0018470812
-0.010275548 0.0029443079 0.008171095 -0.054814167 -0.08089821 0.035695925 0.06405169 -0.026496315
0.0072751534 0.0893048 0.033826515 0.02482491 -0.0026434807 -0.04685947 -0.077986136 -0.041859757
-0.02393784 0.023837833 -0.022815933 -0.009595548 0.08977959 0.04278194 0.09873527 -0.039452996

block1.3.bias f4 [16]
00000000: b147 613c 3ca9 75bd 97e4 933d 111e acbc
00000010: 3f0b 6a3d 7fe0 33bd 31f1 64bd 2ea7 4cbd
00000020: e294 9fbd 0747 1d3d a631 7dbd 1c97 bebd
00000030: 1918 d03d 7a09 5b3d a5a2 6bbd b703 98bd
0.013750003 -0.059975848 0.072213344 -0.02101043 0.05713963 -0.043915268 -0.05589408 -0.049964122
-0.07792069 0.038397815 -0.061814927 -0.093061656 0.10160846 0.053475834 -0.057528157 -0.074225836

block1.4.weight f4 [16]
00000000: 2d12 873f 6371 823f 7916 793f 90ef 823f
00000010: 80f0 753f d9be 843f f818 783f 4a29 7b3f
00000020: 632d 803f 6898 7a3f 7aac 883f b35c 7a3f
00000030: d061 7a3f 0a8e 843f 65c3 873f 8bae 753f
1.0552422 1.0190853 0.97299916 1.0229359 0.960701 1.0370742 0.969131 0.9810988
1.0013851 0.97888803 1.0677636 0.977977 0.978055 1.0355847 1.0606505 0.95969456

block1.4.bias f4 [16]
00000000: b5a3 92bd d97d 4f3c 41cd 70bd 8428 f5bb
00000010: 508f c2bb ff0b 963d b2fa ddbc 9946 6abd
00000020: 5294 bc3b 9bb4 22bd 5429 643d dbb9 2dbd
00000030: 1018 53bd 61e2 003d 62ae 943c 2ab2 02bd
-0.07160131 0.012664282 -0.058789495 -0.0074816365 -0.0059374943 0.07326507 -0.02709708 -0.057196233
0.005754986 -0.03972302 0.055703476 -0.042413574 -0.05153662 0.03146589 0.018149558 -0.03190819

block1.4.running_mean f4 [16]
00000000: daf0 9fbe c6db b7be d1f5 0b3e 4a07 fbbe
00000010: e5c9 1fbd 1125 47be bdd8 7fbe 195f d2bd
00000020: ae70 b0be 345f 36be df90 b43d 024f 67be
00000030: 8994 28be 862e 2f3e 3ab7 c8be 5728 48bd
-0.31238443 -0.3590986 0.1366799 -0.49029 -0.0390109 -0.19447733 -0.24985023 -0.10272045
-0.34460968 -0.17809755 0.088166945 -0.22588733 -0.16462912 0.17107591 -0.3920229 -0.048866596

block1.4.running_var f4 [16]
00000000: 4571 513e ba37 d63e cbe4 7a3e cb35 a73e
00000010: 6a03 7b3e b83a e23e 4436 a33e e427 3f3e
00000020: cb20 803f e342 193f d4ce b03e fdc0 2e3f
00000030: 007a a43e 57ef e43e 21f8 ec3e 30ac 0a3f
0.20453365 0.4183939 0.2450134 0.32658228 0.24513021 0.44185424 0.3187734 0.18667561
1.0010008 0.59867686 0.34532797 0.68263227 0.3212433 0.44713852 0.46283057 0.5416899

block2.0.weight f4 [32, 16, 3, 3]
00000000: 2ec0 ab3b b50a 3cbd 9599 953d c09f ddbd
00000010: be39 edbc cd90 bb3c 0fcc b5bd 8ae9 363d
00000020: 15ea c43d f2e1 623d 0ec8 05bc 6e8a 313d
00000030: 861c 213d 253e e9bb 8b3d 5abc a9b8 35bd
00000040: 369e 1b3b 119b 7abc cc34 aa3d 742a 643c
00000050: 2a45 ac3d 8cab 46bd 4025 923a db63 973d
00000060: 534f 06bd c5c4 fbbb 8fe2 56bd 8397 3b3d
00000070: c4e7 bebc 0145 19bd 0118 acbc 9f32 3f3d
00000080: ea76 4fbd 089d 873d 497f 5f3c d3cd 32bd
00000090: edbf a23b 905b a1bb 95a7 133d 113d 3f3d
000000a0: af85 283d df2e f7bc 9dca 1dbd c738 363d
000000b0: a7fe c53b 522b f43d 4004 ec3b abd2 89bd
000000c0: 4c57 783d 600f 2f3d cbf5 a2ba 0dd6 21be
000000d0: cab6 dabc aa38 43bd 1cf1 ec3d 3742 fd3c
000000e0: 94e4 afba 0283 0f3d d6e7 bf3a 4bf4 e3bd
000000f0: 2e4e f8bb ec39 30bd 890a c8bd ac41 7f3d
00000100: 1efd afbb d1e6 44bd 0946 f1bc be50 743b
00000110: 8a43 bbbd 3865 153d 0c7b 1b3d 0fb1 85bd
00000120: e736 8c3d 49c2 36bd 04ca aa3c 4657 89bd
00000130: 45f1 b2bc 1d6b 803d 1f14 b33d 0b1a 0e3d
00000140: 0b39 61bc 4d41 8f3d d4cb 5d3d db58 d23c
00000150: b6d1 44bd 4b39 313c d886 86ba dc99 f83c
00000160: 20f8 e2bb 7508 71ba 1aa1 c43c 8c3d 0e3d
00000170: f4c5 e0b9 0a4e cc3d 3643 313c 140b aebd
00000180: 3ac8 323d edc7 53bd b465 0abe 5121 433d
00000190: 6c0e c23c 6fef debb d709 f23d f3eb 01bd
000001a0: 485d 27bd 5f79 30bc 2249 30bd f122 afbd
000001b0: b04c 923d 367e 91bc 0b5d 17bc 136b 4fbc
000001c0: 3e65 b73d 02f2 883d d217 413d b426 193c
000001d0: b00d 533d 54fe 633d 4c32 783d 3764 87bd
000001e0: 9d19 99bd a060 1bbd 550e 713b e519 bbbc
000001f0: 68e1 a4bd 598e 253d a661 913c 3924 ffbb
00000200: 59cc 0f3c aa8e 27bd 47b0 c43d d42e 9c3b
00000210: a044 8ebb 2715 ccbd 3fcf 8ebd 42fa 323d
00000220: 38f1 b23d e2bf 7e3d 4582 873d f9c4 bdbd
00000230: de93 33bd a471 92bd 490a e6bd 71e3 1cbd
00000240: 2fa4 a8bc 515f 3b3d 0aa5 acbd 1230 703c
00000250: 636e 05bd c78b 0fbe cb48 6dbb 0e25 c4bd
00000260: c91b b8bc f096 e03c cb7b 90bd 536e 88bd
00000270: b31b 493c 8bcc 84bc b49b a03c 7072 7c3c
00000280: 3f03 b3bc d327 0f3d 3bc1 9a3d 48a3 713c
00000290: d105 a8bd 8b3b 063d 5361 b6bd bebf bdbc
000002a0: 8e01 933d 3972 beba 185f 42bc ce5e be3b
000002b0: 3869 113c 52b0 dfbd cd65 bcbd 8e85 a3bd
000002c0: 11d1 03bb 6d45 a0bd 8f4d 443d 884d 543d
000002d0: 2a82 84bd 8d01 343c 5f41 aebc f7e0 b5bd
000002e0: 91f0 333c ecfc e63c 1fec 10be aff6 853d
000002f0: 8553 3b3d 12ea 00bd 5550 eebc 056f 713d
00000300: 0511 c0bd c218 8cbd f5b6 5dbd 7f3d 55bd
00000310: a32f 88bd 02f3 a0bd 4578 763d 4760 1ebc
00000320: 2dd5 693d f2f0 2fbd 9e7a 9b3c 79f6 57bc
00000330: 1e9d b9bb 4e48 973d aa79 92bd 20e6 32bd
00000340: 7133 89bd 1e23 323d f4ee 013d b761 613d
00000350: b3aa 0e3d 0dda c5bd fcb7 ef3c 44ce 26bd
00000360: 6bb4 853d 18e3 05bd 115c f0bd aa37 77bd
00000370: bfe4 673d 47e8 c4bc d2e4 b2bd f110 f6bc
00000380: 76e3 94bc cbfa 0e3c 9a89 5f3d 0ee0 a2bb
00000390: 30c9 b03c 74d3 20bd 74c1 883c 3e8a c9bd
000003a0: d0bf 1ebd 4e13 233d 7c32 4d3d 7f23 7a3d
000003b0: 7213 9d3d ea22 af3c 9883 183d 7fc4 823d
000003c0: d753 ccbc 135f af3d 7a5f 0a3e 5a73 babd
000003d0: dec4 bfbc c802 f23c 8621 54bc 4b1c 93bd
000003e0: 2537 d53d a3ae 5ebd fc13 393d 37c3 4c3d
000003f0: 50ff cabc 867c d73c 22af 943c 8d6c 88bd
0.0052414155 -0.04590865 0.07304684 -0.108214855 -0.028958198 0.022896195 -0.08876812 0.044656314
0.0961496 0.05539126 -0.008165373 0.043344907 0.039333843 -0.007118004 -0.013320337 -0.04436556
0.0023745424 -0.01529576 0.083108515 0.013926137 0.084116295 -0.048503444 0.0011150017 0.07392093
-0.032790493 -0.007683369 -0.052462157 0.04579879 -0.023303874 -0.037419323 -0.02100754 0.046679135
-0.050650515 0.06621748 0.013641187 -0.04365332 0.004966727 -0.004924245 0.03604849 0.046689097
0.041143116 -0.030173717 -0.038523305 0.04448774 0.00604232 0.11922325 0.007202655 -0.06729635
0.060630128 0.042739272 -0.0012432871 -0.1580431 -0.026698489 -0.04766146 0.115694255 0.030915363
-0.0013419562 0.03503705 0.0014641236 -0.111305796 -0.007577679 -0.04302399 -0.097676344 0.06231849
-0.00537075 -0.048071686 -0.02945234 0.0037279571 -0.091437414 0.036473483 0.037959144 -0.06527912
0.06846409 -0.04461888 0.020848282 -0.06706099 -0.021843562 0.0627043 0.08744072 0.034692805
-0.01374651 0.06994877 0.054149464 0.025677135 -0.04805156 0.010816882 -0.0010263575 0.030346803
-0.0069265515 -0.00091946806 0.0240026 0.034726664 -0.00042872096 0.09975822 0.010819247 -0.08498207
0.043647982 -0.051704336 -0.13515359 0.047639195 0.023688518 -0.006803445 0.11818283 -0.03171916
-0.040860444 -0.010771125 -0.043038495 -0.085515864 0.07143533 -0.017760377 -0.009238492 -0.012659806
0.08954857 0.06686784 0.047141857 0.009347606 0.051526725 0.055662468 0.06059484 -0.06610911
-0.074755885 -0.037933946 0.0036782224 -0.022839496 -0.08050805 0.040418956 0.017746758 -0.0077863005
0.008776748 -0.04090754 0.09603935 0.0047663245 -0.004341677 -0.09964972 -0.06973123 0.043695696
0.08737415 0.062194712 0.06616644 -0.09266085 -0.04384219 -0.071505815 -0.112324305 -0.038302843
-0.020586101 0.045745198 -0.08429916 0.014659898 -0.032575976 -0.14018165 -0.0036206718 -0.0957738
-0.022474186 0.027415723 -0.07054862 -0.06661668 0.01227467 -0.016210815 0.019605495 0.015408143
-0.021852134 0.03495009 0.07556387 0.014748402 -0.082042344 0.03277163 -0.08905282 -0.023162719
0.07178031 -0.0014529891 -0.011863492 0.0058096414 0.008875184 -0.10922302 -0.091991045 -0.07984458
-0.0020113627 -0.07825742 0.04792553 0.051831752 -0.06470139 0.010986698 -0.021271406 -0.08880799
0.0109826485 0.028196774 -0.14152573 0.06541192 0.045733947 -0.031473227 -0.02909104 0.058943767
-0.09378246 -0.0684066 -0.05412956 -0.0520606 -0.06649711 -0.0785885 0.06017329 -0.009666509
0.057088066 -0.042954393 0.018979367 -0.013181322 -0.005664482 0.07386838 -0.07152112 -0.043676496
-0.06699265 0.04349052 0.031722024 0.05502483 0.03483076 -0.096607305 0.029262535 -0.040724054
0.065285526 -0.032687277 -0.1173631 -0.06035582 0.056614634 -0.02403654 -0.0873505 -0.030037375
-0.018174868 0.008726786 0.054574586 -0.004970557 0.021580309 -0.039264157 0.016693808 -0.09840821
-0.038757145 0.039813332 0.050096974 0.061069008 0.076697245 0.021378953 0.037234873 0.06385135
-0.024942322 0.08563056 0.13512984 -0.09104033 -0.023409303 0.029542342 -0.012947446 -0.07183131
0.104109086 -0.054365765 0.045185074 0.04999086 -0.024779946 0.026304495 0.018149916 -0.066613294

block2.0.bias f4 [32]
00000000: df4b 03bd c713 af3c 63b5 ed3c 02e6 35bd
00000010: 9e4a 49bd 4454 70bd 2c0a acbd 9bdf 22bd
00000020: 5fc1 5cbd a990 cb3c 5488 3dbd 8bdb c3bd
00000030: f3d9 873d ac30 933d a9af a9bd 1459 e43c
00000040: dc59 053d f7db 693d 14ce 67bd a58d 523d
00000050: 6dbc 903d 47eb 423d 0425 a73d 6d54 9b3d
00000060: 478d 89bd 6521 813c 4281 443d 00c2 afbd
00000070: d81e 8ebd a7bb 6bbd f646 1e3d 5c3c af3d
-0.03205478 0.021371735 0.029017156 -0.044408806 -0.049143426 -0.058674112 -0.08400378 -0.039764028
-0.05389535 0.024849253 -0.04627259 -0.09563359 0.066333674 0.07187018 -0.08285458 0.027874507
0.0325564 0.05709454 -0.056593016 0.051404614 0.07067189 0.04758766 0.08161357 0.07584462
-0.067164 0.015762994 0.047974832 -0.085819244 -0.06939477 -0.057552006 0.038641892 0.085564345

block2.1.weight f4 [32]
00000000: e4a0 7f3f 439c 803f 6e77 823f d377 803f
00000010: 0479 763f f0e1 823f 56cc 823f bf68 793f
00000020: 8eb5 813f d3f4 7a3f 149a 703f 2e7e 7c3f
00000030: ba64 833f 53bb 813f 523c 843f bb5c 773f
00000040: 6b0e 803f 72e2 733f a91a 883f 15d0 7b3f
00000050: 57b1 843f b6ec 823f 029c 833f 5f5a 843f
00000060: 2158 833f 632b 7b3f 929d 803f 8361 753f
00000070: 7b82 6c3f ca13 823f 4bc2 793f d89c 763f
0.99854875 1.0047687 1.0192697 1.0036567 0.96278405 1.0225201 1.0218608 0.97425455
1.0133531 0.9802982 0.93985105 0.98630035 1.0265114 1.0135292 1.0330908 0.9662587
1.00044 0.95267403 1.0633136 0.98364383 1.036662 1.0228488 1.0281985 1.0340079
1.026127 0.9811308 1.0048087 0.95851916 0.923866 1.0162289 0.9756209 0.96333075

block2.1.bias f4 [32]
00000000: 5ff4 8e3c 3d16 81bd 229f db3c 9c98 ba3b
00000010: 4e24 c2bc 9304 cdbd ac37 b03b 0490 8ebd
00000020: 0d07 f1bd 4dbf c7bd eb21 8fbd 5ab9 cabc
00000030: a6a7 cbbd 31bc d3bc 501b febc aec1 72bd
00000040: 4938 2cbd 87be 10bd 9a3f 65bd 33a7 a1bc
00000050: 8c26 863c f1f6 74bd d5d0 e23c 7139 59bd
00000060: 5fee 93bc 1fad 7dbc de05 a2bc 6eb1 023c
00000070: a367 49bd 84be 9abd 2448 f2bc 17cc 8dbd
0.01745051 -0.0630307 0.026809279 0.005694462 -0.023698952 -0.10010638 0.0053777304 -0.069610626
-0.11768923 -0.097532846 -0.06988891 -0.024746586 -0.09944086 -0.025846573 -0.031018883 -0.05926674
-0.042045865 -0.03533795 -0.05596886 -0.019733047 0.016375802 -0.059805814 0.02768747 -0.053033296
-0.018058 -0.01548317 -0.019778188 0.007976873 -0.0491711 -0.07555869 -0.029575415 -0.06923693

block2.1.running_mean f4 [32]
00000000: 5408 773c 4caf b1be a9a0 46bf d61e 3e3d
00000010: 2a34 83bf fcf3 ebbe beab e0be 6061 80bf
00000020: 0796 80bc 8771 793e 929e f33e f55c 33bf
00000030: 56c8 d43c 135d e6bf 320a 53bd 95bf 4e3f
00000040: 679c 60bd b710 da3e 5500 873e 0dda 46bf
00000050: 11d9 f53e 0815 4bbd a029 38be 4b7b 513e
00000060: 8e72 ccbc 8803 85bf 6e7e f43e c430 8c3e
00000070: 8c06 fdbd 0f9b 603f 9be1 633e d74d 043e
0.015077669 -0.34704053 -0.775889 0.046416126 -1.0250294 -0.46084583 -0.4388103 -1.0029716
-0.015696539 0.24359713 0.47581917 -0.70063716 0.025974434 -1.7997154 -0.051523395 0.8076108
-0.054836657 0.42590877 0.2636744 -0.7767647 0.4801717 -0.049580604 -0.17984629 0.20457189
-0.024956968 -1.0391703 0.47752708 0.27380955 -0.12354764 0.877366 0.2225403 0.12920319

block2.1.running_var f4 [32]
00000000: 5eda 503f 8b21 843f 38ef 643f 442d 3b3f
00000010: a70f 653f 810c f83e a501 6c3f abb6 763f
00000020: 6ac5 0b3f 3751 033f 20a2 133f 93a3 5a3f
00000030: 4749 0b3f 8f97 a93f 8a30 493f d037 183f
00000040: 0b7e 523f 4642 033f 2194 163f 0c3c 403f
00000050: 89c4 713f f059 4e3f e440 d13e 327f 1c3f
00000060: 738a 5b3f e80e c03f 41f2 f63e ebc1 cf3e
00000070: 633d 083f 8d64 433f b1ba 303f d61b 103f
0.815832 1.0322737 0.8942752 0.73115945 0.8947701 0.4844704 0.9219001 0.9637248
0.54598105 0.512958 0.5766926 0.85405844 0.5440869 1.3249377 0.7858969 0.59460163
0.82223576 0.51273 0.58819777 0.75091624 0.94440514 0.80605984 0.4086982 0.61131585
0.8575813 1.5004549 0.482317 0.40577635 0.5321867 0.76325303 0.6903487 0.56292474

block2.3.weight f4 [16, 32, 3, 3]
00000000: 2037 9fbb 13b2 fb3b 2911 fe3c a365 87bd
00000010: 9b47 373d 27cb 8dbd c4a5 45bd 952c 5cbd
00000020: a820 a9bd 78dd 053d 7b47 3fb9 2292 083d
00000030: 262d 7ebd e6fd b0bd 7cf9 55bc 6095 d73b
00000040: 1f6c 823c 4880 bcbd a767 223c 4b03 2fbd
00000050: 8a0f ad3c d7ba c0bc 7dcf cbbc 542a 97bc
00000060: deef 12be 70bc 17be 064d a1bd 08a3 d93c
00000070: cc55 513c eb81 b73b 1c92 e4bc 6138 b2bd
00000080: 3019 38bb ec2c 823d 61ed 60bc 1222 aa3b
00000090: 656a 843c 8e5b 213c 21ac 26bd a3af aabd
000000a0: b380 d2bc 4a94 bc3c a610 c3bc d660 41bd
000000b0: 1b4b 0bbd b85c 0d3d 91d9 75bd d072 4dbb
000000c0: ad2b fd3c da05 a13d bd6e ac3c e780 b13d
000000d0: 00cc 003d cbfe a73d ace8 13bc 4a0c 8bbc
000000e0: 4064 3cbd 724b 8dbc 3d02 0ebd c5fb 823d
000000f0: b026 f63a 43fa 36bd 9f35 863d 8a52 ee3c
00000100: f506 0ebd c8d8 2b3c 30ab ec3a f65b 82bb
00000110: 3e67 10bc a4a0 69bd c21d 30bd f347 baba
00000120: 871c 503d dc74 923c c2e5 343d e59b e93c
00000130: e805 4d3b f04a c23d 3548 573c 1a00 8e3d
00000140: 67c4 76bc c3e6 ef3c 2f7e 62bd f49e af3c
00000150: 57d3 0abd 5aee 30bd c4cc b6bc dacc d23b
00000160: c972 803d b6a6 03bc b46d 193d a760 0dbd
00000170: b2bc 443c 7670 6ebd 07d6 9fbd d2e4 a13a
00000180: 92c6 283b f0b9 683c 163c 23bd d9ab babc
00000190: 2cd9 863a 0e13 0fbd 632b c3bc d038 5abd
000001a0: 549e 653d ddb3 6cbc d037 96bd cd3f 63bd
000001b0: 9ade abbd 586e bbbc dbfe c7bd 3a21 41bd
000001c0: d891 08bd 6a8e 8e3d 81a6 e13b 2a41 ac3d
000001d0: 8cae c63d b189 24bd d588 e3bc 1a99 98bd
000001e0: 395c 21bd c0e4 6bbc 2ba1 0abd 29ef 1cbd
000001f0: 1da4 87bc 72f4 a0bd 62e0 653d 2250 bd3d
00000200: 670f b23d 9870 f23c 9170 b8bb 5356 0fbd
00000210: 8feb 79bd b14b 11bd 8840 8cbc 0dd4 d13c
00000220: 88df 833d 9ab9 773d c326 4e3d 7678 113d
00000230: bba6 bdbc 5f98 d83c 7cec 8f3d ec1b b13d
00000240: bfb5 33bc 2121 4a3d c0bf 6a3b a361 49bd
00000250: 7ed9 c8bd 0a97 95bd 4adf 143d 6c8c 553d
00000260: fa16 ba3c 464a 143d 5a2c 3cbc 50e0 2d3d
00000270: e92c bd3b caa4 a2bc b61b 9fbd 1878 413d
00000280: b288 dc3c 4a9b f1bc c5b2 f3bc 45ef 44bd
00000290: 2354 733d 5bd8 a9bc eced eabc 96be 1e3d
000002a0: f4fc d73c 7e4a 313d 6b78 f63c 8b31 393c
000002b0: 7a9f 733c 1452 243b ff95 a4bd 9c3a a7bd
000002c0: 2855 ebbb a800 b0bd b131 2a3c 5d57 153a
000002d0: 979f 6c3d e3f0 93bc 8423 c53b 1c61 1d3c
000002e0: 26df a53d acb9 e83c ee7c 413d 4c46 453d
000002f0: 854c 923d 39ba ddbc e5ef 2fbd 3245 c63b
00000300: 4e38 94bd 2d22 0abd 168a 7c3b 746e b8bd
00000310: 2ce8 02bd db8a bb3a 3cf1 2cbd 3df3 833d
00000320: d98e 5cbd 6809 9c3c 1717 a73c d484 363d
00000330: f99f 4d3d 89db 48bc 362f 9a3d 0226 0cbd
00000340: f7b2 6fbd e3f8 97bd 4f75 0ebc f072 713c
00000350: 9525 25bd 56e1 dcbc e685 16bd d48d 2d3d
00000360: b701 cfbc 15c5 4b3d e13c 623d 60c2 89bd
00000370: 7a8b 733d 05ac 9dbb 5a9e a33d ce23 693c
00000380: 39fe a03c 5fe2 713d cb0b c0bc 5b54 61bd
00000390: a558 643d 3040 65bc b156 923d 42e4 7fbd
000003a0: 8e9b d1bc 5a5b 06bc ec96 1abd c773 03bd
000003b0: 16d5 19bd abc2 c3bd 9142 83bd 7208 62bd
000003c0: 13e0 81bd c9a9 8fbd 9684 c6bd c7c4 f93b
000003d0: b6e0 4d3d 07dc 803d eaac 0bbd 9a4c 63bd
000003e0: cac2 0ebd bed9 66bd 8db3 153d e8d4 033c
000003f0: cd93 903c 4149 883c b8b3 6ebd 400d 4fbd
-0.0048588663 0.00768114 0.031014042 -0.066111825 0.044746023 -0.06923514 -0.04825379 -0.053753454
-0.08258182 0.032681912 -0.00018241808 0.033342488 -0.062054776 -0.08642177 -0.01305997 0.006579086
0.015920697 -0.09204155 0.009912408 -0.04272775 0.021125574 -0.023526592 -0.024879212 -0.0184528
-0.14349315 -0.14817977 -0.07876019 0.026566997 0.012776803 0.005600204 -0.027901702 -0.0870216
-0.0028091185 0.063562244 -0.013728471 0.00519205 0.016164014 0.0098484885 -0.0406915 -0.08334281
-0.025696134 0.023019928 -0.02381165 -0.04721149 -0.034007173 0.03451225 -0.06002194 -0.003134895
0.030904615 0.07862444 0.021048898 0.08667164 0.03144455 0.08202895 -0.009027641 -0.016973633
-0.045994043 -0.01724789 -0.034670103 0.063956775 0.001877984 -0.044672262 0.06553196 0.029092092
-0.034674603 0.010488696 0.0018056389 -0.0039782478 -0.008813677 -0.057037964 -0.04299713 -0.0014212116
0.050808456 0.017877989 0.044164427 0.02851672 0.0031284038 0.094869494 0.013139774 0.06933613
-0.015061474 0.02928484 -0.05529612 0.0214381 -0.033892956 -0.04319606 -0.022314437 0.0064331116
0.062718935 -0.008035352 0.037458137 -0.034516003 0.012007879 -0.05821272 -0.07804494 0.0012351519
0.0025753123 0.014204487 -0.039852224 -0.022787021 0.0010288111 -0.03493028 -0.0238244 -0.053276837
0.056059197 -0.01444718 -0.07334864 -0.055480767 -0.08392067 -0.022879764 -0.09765407 -0.047150828
-0.033342212 0.06960757 0.006886304 0.084108666 0.09701261 -0.040170375 -0.027775208 -0.07451077
-0.03939459 -0.0143978 -0.033845108 -0.03831402 -0.016557747 -0.07859124 0.05612219 0.092438
0.08694344 0.029594705 -0.0056286533 -0.034994435 -0.06101566 -0.035472576 -0.017120615 0.025613809
0.064391196 0.060479738 0.050329935 0.03551527 -0.023150792 0.026439844 0.07027528 0.08647904
-0.010968625 0.049348 0.0035819858 -0.04916538 -0.09807108 -0.07304199 0.036345758 0.05213587
0.022716034 0.036203645 -0.011485184 0.04245025 0.005773176 -0.019853968 -0.07768957 0.04723367
0.02692065 -0.029492993 -0.02974833 -0.048079748 0.05940641 -0.02073305 -0.028677903 0.038755976
0.026365735 0.043283932 0.030086717 0.011303316 0.014869565 0.0025073336 -0.08036422 -0.08165476
-0.0071817823 -0.08593875 0.010387824 0.0005696917 0.057769384 -0.0180592 0.0060161967 0.009605672
0.08099203 0.028408848 0.047238283 0.048162743 0.07143501 -0.027066337 -0.04295339 0.006050729
-0.07237302 -0.033724 0.0038534454 -0.09005442 -0.031959698 0.001430835 -0.042222247 0.064428784
-0.053847168 0.019047454 0.020396752 0.04456027 0.05020139 -0.0122593725 0.07528536 -0.034215935
-0.058520284 -0.07420518 -0.008694961 0.014736876 -0.040319044 -0.026962917 -0.03674879 0.042371586
-0.025269372 0.0497485 0.05523384 -0.06726527 0.059459187 -0.004811766 0.079891875 0.014229728
0.019652473 0.059053775 -0.023443123 -0.05501209 0.0557486 -0.013992354 0.07145441 -0.062473543
-0.02558687 -0.008200491 -0.037741587 -0.032092836 -0.03755673 -0.09558614 -0.06409181 -0.055183835
-0.06341567 -0.07014806 -0.096932575 0.0076223346 0.05026313 0.06291967 -0.03410045 -0.055492975
-0.034853734 -0.05636 0.036548186 0.008046366 0.017648602 0.016636493 -0.058276862 -0.050549746

block2.3.bias f4 [16]
00000000: 6c1a ce3d 4a8a 95ba 98b9 b53c 112f ed3c
00000010: 539b c5bb 2f46 293d 88ac b73c 658e b03c
00000020: c94a 3abd 93ea 5fbd 8b87 33bb e219 cf3a
00000030: 2a8e 4c3d dc6a f7bc 0302 9c3c 6719 843d
0.10063633 -0.0011409011 0.022183225 0.028953107 -0.006030479 0.041326698 0.022421136 0.021552274
-0.045481477 -0.054667067 -0.0027394022 0.001580056 0.049940266 -0.030202322 0.019043928 0.064501576

block2.4.weight f4 [16]
00000000: 0b6d 883f 8b49 713f 8cb8 843f 39ff 783f
00000010: 2e9e 7a3f 856b 823f 27fd 693f b2ca 853f
00000020: 4194 823f e1dd 843f 2106 843f 2554 6d3f
00000030: a471 813f 8ff2 7f3f 5c59 823f 992e 763f
1.0658277 0.9425284 1.0368819 0.9726444 0.97897613 1.0189062 0.91401905 1.0452483
1.0201494 1.0380212 1.031437 0.9270652 1.0112805 0.9997949 1.018352 0.9616485

block2.4.bias f4 [16]
00000000: d36f 71bd 2683 89bd 7392 16bd 7581 5ebd
00000010: 1fe2 013d 0e90 cbbc 3840 a0bd 3b12 9abc
00000020: f906 40bd 3103 53bd 6f20 273d 83a1 ecbc
00000030: 7e4e 48bd 3975 73bd e0f2 22bd 1cef fabc
-0.058944535 -0.06714468 -0.03676076 -0.05432268 0.031709787 -0.024848964 -0.07824749 -0.018807521
-0.04688165 -0.051516715 0.040802415 -0.028885609 -0.04890298 -0.059437964 -0.039782405 -0.030631594

block2.4.running_mean f4 [16]
00000000: 43bc 07bf 6dc7 a43e f104 ccbe 01ac ed3e
00000010: 17a7 22be bd0d 5e3e bc7e 31bf 279b 493e
00000020: 8ee8 eebe 4153 03bf ca2a 6ebf 2321 08bf
00000030: 43d8 46bf bee8 443b f9f5 9dbf 45d5 493e
-0.5302164 0.321834 -0.3984752 0.4642029 -0.15884052 0.21684928 -0.69334006 0.19688092
-0.466618 -0.5129891 -0.9303404 -0.5317556 -0.7767374 0.0030045952 -1.234069 0.19710262

block2.4.running_var f4 [16]
00000000: b24b 283f c60f 473f 92e4 8f3f b423 663f
00000010: c9bd 913f 297b 333f 55c9 c83f ae90 493f
00000020: a174 593f 4f0a 303f 2480 c43f 803c 843f
00000030: b269 a23f 06cf 593f 7385 863f 426e 1d3f
0.657405 0.77758443 1.1241629 0.8989823 1.1386043 0.701098 1.5686442 0.7873639
0.84943587 0.6876573 1.5351605 1.0330963 1.2688506 0.8508152 1.0509475 0.61496365

block3.0.weight f4 [32, 16, 3, 3]
00000000: dea7 4f3d ec14 953d cc8b 24bd 1002 30bd
00000010: dff2 72bd fa8e 1cba e2f4 29be 83ec b7bd
00000020: a754 863d 03cd 1cbd b645 94bd 10f5 003d
00000030: 8479 393d b0ad 1a3d 96ac 0f3e 1403 cb3d
00000040: 4aca 703d 5a03 e7bc ce74 2ebd 9248 fd3a
00000050: 5c93 b83d 50a6 a93c 213d 433d 0b72 3c3d
00000060: f96c fc3d 66b9 65bd 7440 663d bd8c db3b
00000070: 2d08 3c3d f7fa adbd 162d 2b3d 471e 5c3d
00000080: b82a 98bd e63c fc3b db23 2b3d 4be0 28bd
00000090: b391 893d ba82 1abc f10d fcba 3844 dabd
000000a0: eb14 b7bd 80ab bebc 91fd c4bd 9d55 323d
000000b0: bc33 693b e01e 833d b81d ab3d 1c87 85bd
000000c0: 4fb4 21bd d136 363d c3a5 b83d fa02 0b3d
000000d0: 28eb b73d fae2 143d d736 0dbc 933b b1bc
000000e0: 48cc baba d366 03bd 93fc ce3d 9aa4 52bd
000000f0: 1c90 c2bc 415e 1f3d 5845 06bd fd25 36bc
00000100: a76b 35bc 4192 f8bd 55ea 1ebb 1690 4abd
00000110: f9a4 b3bd 35e6 77bd e1f6 b9ba 5003 1d3d
00000120: 4c97 e9bb 62e6 ffbc b2bc 203b 6088 83bc
00000130: 887c 93bd e4fd 87bb 6cc3 d0bd 3b22 44bd
00000140: f321 843d 6464 6dbd 0ef7 88bd 3a83 03bd
00000150: 1849 473c 29d6 213d 8da2 923d a138 0fbd
00000160: 7bff 62bd d98a ee3d fb96 70bb 3087 e43d
00000170: 244c 4bbd 39e2 6abb 8902 c53d 93ba f5bc
00000180: 1a4b bdbd 9dbd d4bc 852d 4dbd 9a51 7abd
00000190: 11de a83d 6d91 913b 0a54 8f3d da13 d33d
000001a0: c239 003d 142d 16bd 1ef3 083d 1963 d5bc
000001b0: c2c7 bc3d 1134 de3c b33d bfbc 09f7 04bd
000001c0: 8d16 0dbd cf05 93bb ad2f 8abd 3ed5 c7ba
000001d0: 3dda 8ebd 2f5b 5a3d 4805 8a3d 3cfe 0f3c
000001e0: 627c 5ebc 768c bfbb dda5 0f3e 82b1 f43c
000001f0: 23dd 0a3e 07f3 9d3c 0cf3 5b3d 446b 253d
00000200: e313 b8bd e9e1 023d c03b 3bbd 4f9f 913b
00000210: 7d81 c4bc 51fc 533d 413c 29bd e08c 2c3c
00000220: 5340 55bd 7418 e03d dc06 593d 533c 043d
00000230: 177a 27bd 7445 6a3d d858 dabb 918f fb3c
00000240: bc31 9a3d f6e2 4f3e c787 803c e3e6 bd3c
00000250: 768a 1b3d 7ee4 8d3d 274a f43c ad9e 48bd
00000260: faba c4bc fff8 8a3b b1c6 54bd 9f03 29bd
00000270: 000f f5ba 8260 7f3d 33f7 023d 25e8 cbbc
00000280: 7d6f 843b bc57 633d bbb2 633d 59ac 393d
00000290: d8f1 87bd a27a 39bd 9fc7 a0bd d3eb cebd
000002a0: a2ff 0ebd f431 edbc 247a 28bc b823 683d
000002b0: 6ba1 b3bd 20e4 0fbd 2828 903a 59c8 a13c
000002c0: 7532 cd3c 80e5 59bd d23f f9ba 907e 5b3d
000002d0: ad30 c23b 7987 40bd fae5 ae3d 7fff 083d
000002e0: 688f c33c e112 693d 77d6 443c db06 8abd
000002f0: de18 88bb a722 8a3c 3ff2 cb3c acd1 543c
00000300: 46a5 823d a394 56bc e71d f9bc dab1 47bd
00000310: ab11 043c c603 853a f284 9e3a efa1 763c
00000320: eaff 94bc 8734 bd3d 290d 7b3d 69cd bc3d
00000330: 03f7 cc3c 5132 cc3d 677e 533d 38e3 293e
00000340: 621d 1c3e cb7e dcbd d6d0 a03c c5eb a5bd
00000350: 7808 3dbd d554 14bd a985 35bc a438 d4b8
00000360: d4d9 443b ecd6 a83d a765 af3c 4770 a13d
00000370: 8866 473d 0c2d eebc 2efa d43c 90e3 dd3d
00000380: e728 a83d 81c2 a53d 62fc e73d c2cb 093e
00000390: 1bc6 a73c 4762 f53c 8b7d e6bc cfd1 883d
000003a0: 7756 a33c 33b1 cb3c c8d0 013d 1c2c 6bbd
000003b0: 4fd4 9dbd 6db4 e8bc e1de 663d 1c78 02bd
000003c0: 468c 233d 8f62 d83a 6a4d b63d d99d d7bc
000003d0: b3b7 59bc 56f0 da3c d5d8 5fbd 4d89 acbd
000003e0: b314 873d 8f47 6a3d 3765 d63d cbb6 103d
000003f0: cfd4 3cbd 32ba 6a3c 340b dfbc 7250 1c3d
0.0506972 0.07279381 -0.040172383 -0.042970717 -0.05931365 -0.0005972233 -0.16597322 -0.08980658
0.06559115 -0.038281452 -0.07239859 0.03148371 0.045281902 0.037763298 0.1403068 0.099126965
0.058786668 -0.02819984 -0.042591862 0.0019323996 0.090124816 0.020709187 0.04766572 0.046007197
0.123254724 -0.056085013 0.05621381 0.006700127 0.045906235 -0.08495133 0.041791044 0.053739812
-0.07430023 0.0076976893 0.04178224 -0.041229527 0.06717243 -0.009430582 -0.0019230229 -0.10657543
-0.08939537 -0.023275137 -0.096186765 0.04353868 0.0035583815 0.06402373 0.08355278 -0.06519911
-0.039478596 0.04448587 0.090159915 0.033938386 0.08980399 0.036349274 -0.008619032 -0.021634853
-0.0014251554 -0.032080483 0.101067685 -0.051426508 -0.023750357 0.038908247 -0.032780975 -0.011117456
-0.01107303 -0.12137271 -0.002424856 -0.049453817 -0.087717004 -0.060522277 -0.0014187956 0.038333237
-0.0071286317 -0.031237785 0.0024526534 -0.01605624 -0.07201487 -0.004150139 -0.10193524 -0.047884207
0.06451788 -0.057957068 -0.06687747 -0.03210757 0.012163423 0.03951088 0.0715991 -0.034966115
-0.055419426 0.11647577 -0.0036711085 0.111585975 -0.04963316 -0.0035840406 0.09619624 -0.029996192
-0.0924284 -0.02596932 -0.05009224 -0.061112978 0.08245481 0.004442385 0.06998451 0.10306521
0.031305082 -0.036664084 0.03343498 -0.02604823 0.09217788 0.027124437 -0.02334485 -0.032462154
-0.034445334 -0.0044867764 -0.06747375 -0.0015246046 -0.069752194 0.053309616 0.067392886 0.008788642
-0.01357946 -0.0058456017 0.14028116 0.029869799 0.1356092 0.019280924 0.053698584 0.0403855
-0.08988168 0.031953726 -0.04571128 0.00444404 -0.023987526 0.0517543 -0.04131723 0.010531634
-0.052063297 0.10942164 0.052985057 0.032284092 -0.04088792 0.057195142 -0.006663423 0.030708106
0.07529017 0.20301422 0.015689744 0.023181384 0.037973844 0.06928347 0.029820515 -0.04897945
-0.024014939 0.0042411084 -0.0519473 -0.04126322 -0.0018696487 0.062347896 0.03197403 -0.024890969
0.0040416108 0.055503592 0.055590373 0.04533038 -0.06637925 -0.045282967 -0.07850575 -0.10103574
-0.03491176 -0.028954484 -0.010283027 0.05667469 -0.087710224 -0.035129666 0.0010998296 0.019748854
0.025048474 -0.053197384 -0.0019016212 0.053587496 0.0059262128 -0.047004197 0.08539958 0.033446785
0.023872092 0.05690277 0.012014023 -0.06739589 -0.004153355 0.016862227 0.024895785 0.012989443
0.0637918 -0.013096961 -0.030409766 -0.048753597 0.008060853 0.0010148219 0.0012094064 0.015053256
-0.018188436 0.092385344 0.061291847 0.092188664 0.025020128 0.099705346 0.05163422 0.16590583
0.15245584 -0.10766371 0.01963083 -0.0810161 -0.046150655 -0.036213715 -0.01107923 -0.00010119498
0.0030037062 0.08244118 0.021410776 0.07882743 0.048681766 -0.029074214 0.025998201 0.1083442
0.082109265 0.08093739 0.11327435 0.13456634 0.020480206 0.029954089 -0.028136035 0.06680643
0.01993869 0.024864769 0.03169325 -0.057415113 -0.0770651 -0.028406346 0.056364898 -0.031852826
0.039928697 0.0016508865 0.08901484 -0.026320385 -0.013288426 0.02672593 -0.054650147 -0.084246255
0.06595745 0.05719715 0.10468524 0.035330575 -0.046101388 0.014326619 -0.027227022 0.038162656

block3.0.bias f4 [32]
00000000: 30b7 f6bb 1358 593d 2641 a7bd ac0a 27bc
00000010: 7c39 45bd fc16 a1ba 6bee 60bd 0957 2abd
00000020: ad68 9e3c 3b08 9ebc 45ec 82bd c7bb d9ba
00000030: 099b 973c 1b7c c6bc 23ae a93d 7561 8bbd
00000040: dec8 633d 9a43 123d 5634 efbc e52d bcbd
00000050: cde0 153d c94e 43bc 41f1 443c d6f4 f53c
00000060: 220e 87bd 0802 bb3c 1d61 0abd 5ea3 bcbd
00000070: 7d8a f53b a5df de3c e303 8bbd d86a 8d3d
-0.007529162 0.05306251 -0.08166723 -0.0101954155 -0.048150524 -0.0012290175 -0.054914873 -0.04158691
0.019337023 -0.019291034 -0.06392721 -0.0016611748 0.018506544 -0.0242291 0.08285167 -0.06805698
0.055611484 0.035709 -0.02919976 -0.09188441 0.03659134 -0.011920639 0.01202041 0.030023973
-0.065944925 0.022828117 -0.03378402 -0.09210847 0.0074933157 0.027206251 -0.06787851 0.069051445

block3.1.weight f4 [32]
00000000: de3a 963f e299 9c3f f8f0 943f 3f2f 993f
00000010: 1432 9f3f f959 933f 01a8 9a3f 5edf 983f
00000020: 6e7c 953f 379b 9a3f b805 9c3f 9454 9b3f
00000030: 673c 983f a5cf 953f 019e a03f 14b0 983f
00000040: 8ce1 943f dfa9 9e3f f8ef 983f 672d 993f
00000050: f304 9a3f 63d2 9a3f a629 973f 362c a03f
00000060: e56a 983f 70bf 9b3f 7b84 9e3f dd70 953f
00000070: 29e1 933f 8118 9a3f 0233 9c3f 2b0e 9e3f
1.1736715 1.2234461 1.1636038 1.1967543 1.2437158 1.1511832 1.2082521 1.1943166
1.1678598 1.2078618 1.2189245 1.2135186 1.1893433 1.1703993 1.2548219 1.1928735
1.1631331 1.239559 1.1948233 1.1966981 1.203276 1.2095455 1.1809585 1.2513492
1.1907622 1.2167797 1.238418 1.1675068 1.1553088 1.2038728 1.2203066 1.2348074

block3.1.bias f4 [32]
00000000: a072 35bc 2416 93bc bd4f 623d 545b e7bc
00000010: b4ac 8c3d 9d08 093d 79f9 be3c 998f 873c
00000020: 01ef 05bc 5438 573c c3fa e7bc 4a59 293c
00000030: 8518 fa3c dc74 963b 4762 933c b971 28bd
00000040: 003d 783d 44e4 5f3d 67e6 3abd 16bd 503d
00000050: 974d 963d ba77 273d fa17 aebc fa77 ae3c
00000060: 4945 173d f9a8 01bd 2ba4 c23c f95f c23b
00000070: 4269 5d3d 758c 243d ed15 133d 540a 0f3d
-0.011074692 -0.017954893 0.055251826 -0.02824179 0.06868878 0.03345548 0.023312317 0.016547965
-0.008174659 0.013135988 -0.028317815 0.01033623 0.03052927 0.0045915674 0.017991198 -0.04112408
0.06060505 0.05466105 -0.045629885 0.050961576 0.07339018 0.040885665 -0.021251667 0.021297444
0.03693131 -0.031655286 0.023759922 0.005931851 0.05405546 0.040173013 0.035909582 0.03492196

block3.1.running_mean f4 [32]
00000000: 0830 de3e ad08 473f 4bd5 07bf dadc f6bd
00000010: 67a3 5e3e efd0 873d 04a9 fc3d ca61 bcbe
00000020: 0ae6 d03e 682e 8ebe 43c7 30be adfd bbbd
00000030: b31f d43e 0178 a93e 485b ee3e 0a46 f13c
00000040: e54b 0b3f 872b 2a3f 7578 0f3e cc16 433e
00000050: 332b 233f 4453 4a3f 74f9 ef3e c9b0 913e
00000060: 6e08 443e 14a8 07bd 16ce 873c 15ab 1abc
00000070: 687b d23e 9cdc bc3e 566c dd3d 2587 3a3f
0.4339602 0.77747613 -0.53059834 -0.12053843 0.2174202 0.06631648 0.12336925 -0.36793357
0.40800506 -0.2776978 -0.17263512 -0.09179244 0.41430435 0.33099368 0.46554017 0.029452343
0.5441268 0.6647267 0.14010794 0.19051665 0.6373779 0.79033303 0.46870005 0.2845519
0.1914384 -0.033119276 0.016577762 -0.009440203 0.41109776 0.36887062 0.10811679 0.72862464

block3.1.running_var f4 [32]
00000000: d227 f13e f317 c83e 5225 d83e 4d81 e23e
00000010: 0131 093f dfea 0a3f 6531 f63e 464a f93e
00000020: 7b60 1e3f 29e3 093f b911 ee3e 2da3 e23e
00000030: d1be 163f e4e4 1a3f 51eb c83e 2d0c 143f
00000040: 6c65 1f3f 4a03 ee3e 491e b33e f826 f23e
00000050: 62bb 3c3f 2609 0f3f 2757 eb3e 1067 e33e
00000060: 2259 1a3f e7f6 a53e 4b8d a83e b6b8 c23e
00000070: c402 063f 6925 b13e 2403 143f 014d cb3e
0.47100693 0.39080772 0.42215973 0.44239274 0.535904 0.54264635 0.4808456 0.4868948
0.6186597 0.53862244 0.46497896 0.44265118 0.5888491 0.6050551 0.39242032 0.5783108
0.6226413 0.46486884 0.34984043 0.47295356 0.73723423 0.55873334 0.4596493 0.44414568
0.60292256 0.32414934 0.32920298 0.38031548 0.5234797 0.34598854 0.5781729 0.39707187

classifier.1.weight f4 [24, 288]
00000000: 162b 8abc 9dce 2a3c ceaf e1bd 7f9c b4bd
00000010: 5463 59bc dc58 723d 924d 9fbd 0922 d53d
00000020: 2151 0e3d 29ee 1fbd d2f7 a9bc ee67 25bd
00000030: 4018 dc3d dddf 56bc 27b1 563e 24ae 993a
00000040: b902 973d 71e1 b1bc 63c4 0ebd f39a 1abd
00000050: a5e5 043d 1693 a1bc 2a5d 103d 485f 143d
00000060: 26f3 18be f48b 99bd 3eb5 26bd 427a 673c
00000070: 5383 1c3b 26ed 4fbc 94c0 ee3d 18b0 0c3e
00000080: 6acb 8d3d 7b0d e33d ec5b 813c 34ee e53d
00000090: 986f 883d d35a d5bd 933d 8e3d 26eb b0bc
000000a0: 1949 a0bd 35ab 803d 8876 74bd fe59 c3bb
000000b0: 9501 0ebd 5d82 b13d 47c3 f43c a11b 903d
000000c0: 06f0 fbbc 6230 f9bc c510 46bd b990 353c
000000d0: d2cc d7bc 4bc3 73bd 19e0 0d3d 63fa 943d
000000e0: 8158 54ba 08c4 16bc 8bab 0cbd c816 bd3d
000000f0: e98f 243e 3406 ce3d 97a8 1b3d 6015 84bd
00000100: e114 473d 5227 353d 1548 94bd 33f9 8e3d
00000110: 589a 6b3c fc03 b53d da57 263b e71c 093e
00000120: 74df 893c 8a0f 4ebc 6041 06bd e886 90bd
00000130: 4fc8 3d3d 2192 08be dd64 813d 5b6c 583d
00000140: 015f ae3b 6fdf ca3c 0995 0c3d a9d1 04bb
00000150: 68e8 e23a 899b 43bb cdfb 83bb 40dd 993d
00000160: 3ca3 ff3d ceee d53c 4505 853d 8044 48bd
00000170: 2ac0 a03d f492 ccbc 317b a4bd d337 cfbc
00000180: 491d 533d 9fb1 0e3e 90a2 d83b e139 adbd
00000190: f438 c33c 734c c33d e20a 2a3c 0361 f5ba
000001a0: d004 773d dbdb 243d eade 3e3b 3d90 1cbd
000001b0: 80d1 793c 333a cb3d 5879 383d 0ed1 1a3d
000001c0: 4db6 d13d 8151 473d ed7e 1d3d fede c03d
000001d0: 8522 d03d dccc 943d 0d14 9e3d 3f84 e53d
000001e0: 016a 893c a913 cd3a 6b4c e23c 65ef 303d
000001f0: 412e 7e3d afda ca3d a934 3fbd dfbb 223b
00000200: 5080 113d 542f cbbc 19e3 9ebd 3f4c cbbc
00000210: 1150 cebd 8638 a73d f59d 423d b409 013d
00000220: 2c79 bc3d fe74 ae3d 0bb7 d33c 323a 803c
00000230: 8539 a2bd fb78 b13d da85 413d b6f4 5e3d
00000240: 810e d3bc 8897 623d dc96 39bd 76d9 12bc
00000250: 3c71 d33c f288 d93b 3a07 cdbb d520 ecbc
00000260: a785 703d 002a cc3d 80ad 7ebd ff3c 42bd
00000270: ce66 313d 1ed7 1b3e 205d d83d 4821 813b
00000280: 678f fe3b a4a3 a6bd c5c8 46bb 6374 963d
00000290: 406f 36bc 0c74 3cbd 93b1 933a 5b73 0c3d
000002a0: c996 a0bc 7a0c c23d 870e 22bd 704b ecbc
000002b0: 0b89 ea3d a1dc 0b3e c79c e13d ac11 9c3d
000002c0: b84d 013e 196a a73d 22ab 063e c2ef 6c3d
000002d0: d510 0ebd 8d3b 60bd 19d1 d6bd ec14 4bbc
000002e0: 5049 4dbd ed83 88bb 3e09 91bc 7637 b23c
000002f0: af37 f83d d21c 73bd 7261 be3c b44e d5bd
00000300: 12a9 bcbd 07ad 373d b264 2bbd 52b1 51bc
00000310: 96b8 00be cf9b babc d9f6 efbc 11c1 8c3d
00000320: 931c 0ebd b2cd ba3d f0df 533d 6a34 ca3d
00000330: dd15 453d 13f8 8b3d df13 563c a283 a53c
00000340: 282c 6aba 8b98 903d e170 553d 84ab 673d
00000350: b7f2 e03d 9dde 903d aceb 45bd 35e9 eabd
00000360: 3cde c43b 3f19 4d3d 9bd9 073d d316 f2bc
00000370: 4eb1 6cbc 5240 6abd 2bb4 1abb 884e 613d
00000380: 372e 8e3d 2c95 573c 7794 9e3c 75c3 bd3d
00000390: 253e e6bb 7add 8a3b ee4a 17bd 1234 20bd
000003a0: 9642 9abc abf5 b6bc 1699 93bc abfb 2d3d
000003b0: 8017 89bd 60aa 133d 4bce c43d 53ce 0a3e
000003c0: 5225 3e3d 4359 0ebd 2048 0abc 86cd b9bd
000003d0: 045a 34bd e9ef c4bd 1795 403d 997f 51bc
000003e0: 902f f23d f719 26bd 6673 afbd 6e7d bb3d
000003f0: fef4 a1bb 1cee d4bc 7f01 19bc fa7b 013d
-0.016866248 0.010425237 -0.1101986 -0.08818912 -0.013268311 0.059166774 -0.07778467 0.10406882
0.03474534 -0.039045487 -0.020748053 -0.04038232 0.10746813 -0.013114897 0.20966016 0.0011724872
0.07373566 -0.021713944 -0.034855258 -0.037745427 0.03244557 -0.019723456 0.0352451 0.03622368
-0.14936504 -0.07497397 -0.04070019 0.01412827 0.0023881986 -0.012690818 0.11657825 0.1373905
0.06923564 0.110865556 0.015790902 0.11227074 0.0666191 -0.10417714 0.06945338 -0.021596503
-0.07826442 0.06282655 -0.059683353 -0.0059616556 -0.034669477 0.08667443 0.029878272 0.0703652
-0.0307541 -0.030418579 -0.048355836 0.011081868 -0.026342783 -0.059512418 0.034637544 0.0727432
-0.00081003463 -0.009202011 -0.034343284 0.09232861 0.16070522 0.10059777 0.038002577 -0.064493895
0.048603896 0.044226952 -0.07240311 0.06981125 0.01438006 0.088386506 0.0025381953 0.13389932
0.016830184 -0.012576947 -0.03277719 -0.07056981 0.046333607 -0.13336994 0.06318066 0.05283771
0.005321384 0.024764745 0.03432182 -0.0020266569 0.0017311694 -0.0029847345 -0.0040278197 0.07512903
0.12482306 0.026114848 0.06495146 -0.04889345 0.078491524 -0.024972416 -0.080313094 -0.025295174
0.0515416 0.13934945 0.006611176 -0.08458305 0.023830868 0.09536066 0.010378571 -0.0018720928
0.060307324 0.040248733 0.0029124566 -0.038223494 0.015247703 0.0992321 0.045037597 0.037797026
0.10239849 0.048661713 0.038451124 0.094175324 0.10162834 0.07265636 0.07718668 0.112068646
0.01677418 0.0015646118 0.02762433 0.043197054 0.06205583 0.09904992 -0.04668108 0.0024831218
0.03552276 -0.024802841 -0.07758159 -0.02481663 -0.10073865 0.08165078 0.04751392 0.031503394
0.09202799 0.08518408 0.025844118 0.01565275 -0.07921127 0.08665653 0.04724679 0.054432593
-0.025763752 0.055320293 -0.045309886 -0.00896298 0.02581083 0.0066386396 -0.006256965 -0.02882425
0.05872121 0.09968948 -0.06217718 -0.04742145 0.043310933 0.1521878 0.10564637 0.003940735
0.0077685597 -0.08136681 -0.003033207 0.07346418 -0.0111349225 -0.04600911 0.0011268131 0.0342897
-0.01960315 0.09475036 -0.039564636 -0.028844565 0.1145192 0.13658382 0.11016231 0.07620558
0.12627304 0.081745334 0.1315122 0.05784584 -0.03468402 -0.054744292 -0.10489101 -0.012395125
-0.050118744 -0.0041661174 -0.017704602 0.021754961 0.12119996 -0.059353657 0.023239825 -0.10415402
-0.09211935 0.044842746 -0.041844077 -0.012798624 -0.12570414 -0.022779373 -0.02929251 0.06872762
-0.03469522 0.091212645 0.051727235 0.098732784 0.048116554 0.06834426 0.013066261 0.020204369
-0.00089329714 0.07060345 0.052109603 0.056560054 0.10983794 0.0707371 -0.048320457 -0.11470262
0.0060079377 0.050072905 0.03316651 -0.029551899 -0.01444657 -0.057190247 -0.0023605924 0.055006534
0.069424085 0.013158124 0.019357903 0.09265796 -0.007026451 0.004237828 -0.036936693 -0.039112158
-0.018830579 -0.02233394 -0.018017333 0.042476337 -0.066939354 0.036051154 0.0960966 0.13555269
0.04642231 -0.034753095 -0.0084400475 -0.090724036 -0.044031158 -0.09616072 0.047017183 -0.012786769
0.11825478 -0.040552106 -0.085669324 0.09154783 -0.0049425354 -0.025992446 -0.009338736 0.031612374

classifier.1.bias f4 [24]
00000000: 1fc2 a6bb 7730 a0bc 2c96 0e3d 6782 dc3c
00000010: 580a 9f3d 9314 263d 6654 803d 1e5d dbbc
00000020: 26a7 173d d771 343d 423b a93d 91ff 6cbd
00000030: fef6 593d 5185 553d 7331 cf3d d0f4 993d
00000040: b124 0fbd ae3a 31bd 8fd2 643d ebe1 473d
00000050: 749f 3dbd e0b8 be3c e200 78ba f2c9 b0bc
-0.005089059 -0.01955436 0.034811184 0.02691765 0.07765645 0.040546965 0.06266098 -0.0267778
0.03702464 0.04405388 0.08263256 -0.057860915 0.053214066 0.052129094 0.101168536 0.075173974
-0.0349471 -0.043268852 0.055864867 0.048799437 -0.046294644 0.023281515 -0.0009460581 -0.02158067
