src/models/mnist_model_20241222_184831.pth (torch, 116285 bytes, 34 tensors)

block1.0.weight f4 [16, 1, 3, 3]
0	0x3e78466d	0.24245615
1	0x3e8c6e2d	0.27427807
2	0xbd8266b2	-0.06367244
3	0x3e8d4ae4	0.275962
4	0xbda9ef28	-0.082975686
5	0x3da80169	0.08203394
6	0xbe44c5f7	-0.19216143
7	0x3e330c75	0.1748522
8	0x3ea71d17	0.3263938
9	0xbe7e832d	-0.24854727
10	0x3e8e8dc1	0.27842525
11	0x3d9a387a	0.07530303
12	0x3e78d798	0.24300992
13	0x3d170607	0.036870982
14	0x3e497443	0.19673257
15	0x3bce6653	0.006298819
16	0x3e847cdb	0.25876507
17	0x3d469bdf	0.048488494
18	0xbe04d821	-0.12973072
19	0x3e19ffe6	0.15039024
20	0xbdd703e7	-0.10498791
21	0xbc0d2fcf	-0.0086173555
22	0xbda7dd9d	-0.08196566
23	0x3e73d1ea	0.23810545
24	0xbe767926	-0.24069652
25	0xbe29d82a	-0.16586366
26	0xbe06e5d7	-0.13173614
27	0xbe45596f	-0.19272397
28	0x3cfccbe3	0.03085894
29	0xbebdb742	-0.37053877
30	0x3e9fac4b	0.31186137
31	0xbe83aa1b	-0.25715718
32	0x3e737e3f	0.23778628
33	0x3db4dc28	0.08831054
34	0xbd8f0c1c	-0.069847316
35	0x3e561c2c	0.20909184
36	0x3b312833	0.0027032017
37	0x3e8efd7a	0.27927762
38	0x3d24f2b7	0.040270533
39	0xbe0caa0b	-0.13736741
40	0x3db53fe2	0.08850075
41	0xbd8a85e9	-0.067638226
42	0x3da09822	0.07841517
43	0x3e95abf7	0.2923276
44	0x3e5a4309	0.21314634
45	0xbdf595fa	-0.119914964
46	0x3e43fe53	0.19139986
47	0x3c7c0103	0.015381101
48	0x3e375c59	0.17906322
49	0xbe4dd77b	-0.2010173
50	0xbeb475f7	-0.3524625
51	0xbe11d0dc	-0.1423983
52	0xbe63a0f1	-0.22229363
53	0x3e95779f	0.29192826
54	0x3da7cc2b	0.08193239
55	0x3e3484a6	0.17628726
56	0x3e0bca9e	0.13651511
57	0xbc05af49	-0.008159467
58	0x3e66c5fa	0.2253646
59	0xbe73fd6d	-0.23827143
60	0xbc816d13	-0.015799081
61	0xbe812dbf	-0.25230214
62	0x3d99c8f5	0.07509033
63	0xbdf2e576	-0.118601725
64	0x3da6ddac	0.08147749
65	0xbd9f7b41	-0.07787181
66	0x3e87b1e3	0.26502904
67	0xbe44a85a	-0.19204846
68	0xbe61ce02	-0.22051242
69	0xbe332671	-0.17495133
70	0x3ea5d8e6	0.32392043
71	0x3df7bf0a	0.12096985
72	0x3ea0db07	0.31417105
73	0xbe8cfedf	-0.275382
74	0xbebd4ce8	-0.36972737
75	0xbe7f6c70	-0.2494371
76	0xbe61db06	-0.22056207
77	0x3db2f14d	0.08737431
78	0x3e1b8cf0	0.15190482
79	0x3e854447	0.26028654
80	0xbe51a05d	-0.2047133
81	0xbe81afd2	-0.25329453
82	0x3e187b7d	0.14890857
83	0xbe151678	-0.14559352
84	0x3e3f0a92	0.18656376
85	0xbdb53893	-0.08848681
86	0x3e436887	0.19082843
87	0xbe7a2aa8	-0.24430335
88	0xbe2af2ab	-0.16694133
89	0x3e005ae6	0.12534675
90	0x3da8ef5b	0.082487784
91	0xbdb7e8e7	-0.089799695
92	0x3e1eedc8	0.15520394
93	0x3e845eec	0.2585367
94	0xbe6a7400	-0.22895813
95	0xbe43b7af	-0.19113038
96	0x3ea2430a	0.31691772
97	0xbe00bc1d	-0.1257176
98	0xbdf473fa	-0.11936183
99	0xbe934e1d	-0.28770533
100	0xbe248db5	-0.16069682
101	0x3dc474a4	0.0959256
102	0xbce09b55	-0.027417818
103	0xbe6c921b	-0.2310261
104	0xbcb47869	-0.022030072
105	0xbe63b932	-0.22238615
106	0xbe8516f2	-0.25994068
107	0xbe6872a2	-0.22699979
108	0xbeb0963a	-0.34489614
109	0xbe757fa4	-0.23974472
110	0x3eb07ed1	0.34471753
111	0x3c9effbd	0.019409055
112	0x3df23953	0.1182734
113	0xbe90eaf3	-0.28304252
114	0xbe50b106	-0.20380029
115	0xbdd86085	-0.10565285
116	0x3d6f02f5	0.05835243
117	0xbe9d2930	-0.30695486
118	0xbe0a76d4	-0.13521892
119	0xbe346592	-0.17616871
120	0xbc12bf16	-0.008956691
121	0xbdbfe542	-0.09369899
122	0x3c7b3c42	0.015334191
123	0xbe5bf382	-0.2147961
124	0xbe52ed35	-0.205983
125	0xbe6bf6c5	-0.23043354
126	0xbe09eb41	-0.13468648
127	0xbe905dae	-0.28196472
128	0x3e8d0283	0.2754098
129	0xbdd63743	-0.10459759
130	0x3e86b65f	0.26311013
131	0x3e04f015	0.12982209
132	0xbe8bdaab	-0.27315268
133	0x3e6c22b3	0.23060112
134	0xbda49914	-0.0803701
135	0xbe043552	-0.12910965
136	0xbe8fe1ab	-0.28101858
137	0xbeb17faf	-0.34667727
138	0x3d86b7b7	0.065780096
139	0xbdd0c084	-0.101929694
140	0x3df7933d	0.1208863
141	0xbe968f10	-0.29406023
142	0x3e73f3bc	0.23823446
143	0xbe79fcea	-0.24412885

block1.0.bias f4 [16]
0	0xbd9ffabf	-0.07811498
1	0x3d967f57	0.07348507
2	0x3e38c64e	0.18044397
3	0x3e857003	0.2606202
4	0x3ea57cc4	0.3232175
5	0xbea911f6	-0.33021516
6	0x3db250a6	0.08706789
7	0xbe4ae3eb	-0.19813506
8	0xbd5d4661	-0.054022197
9	0xbe6bcf59	-0.23028316
10	0x3e73677f	0.2376995
11	0xbe92ec2e	-0.28695816
12	0x3e3227f7	0.17398058
13	0x3e0058ea	0.12533918
14	0x3e04f39c	0.12983555
15	0xbe3b89a7	-0.18314229

block1.1.weight f4 [16]
0	0x3f744660	0.95419884
1	0x3f776730	0.96641827
2	0x3f80c866	1.0061157
3	0x3f832917	1.0246915
4	0x3f7bd0a6	0.9836525
5	0x3f87abd0	1.0599308
6	0x3f8555fa	1.0416863
7	0x3f7ea76a	0.99474204
8	0x3f783712	0.9695903
9	0x3f81a047	1.0127038
10	0x3f7db65a	0.9910637
11	0x3f7fd148	0.9992871
12	0x3f7d8e83	0.9904558
13	0x3f802f3e	1.0014417
14	0x3f8081e6	1.0039642
15	0x3f812a66	1.0091064

block1.1.bias f4 [16]
0	0xbc0073b9	-0.00784009
1	0x3b826f25	0.0039805346
2	0xbb55b56b	-0.0032609354
3	0x3d08280d	0.03324132
4	0xbac0a473	-0.0014697447
5	0x3cf28690	0.02960518
6	0x3d576754	0.052588776
7	0xbd16c5de	-0.036809795
8	0xbc012cad	-0.007884187
9	0x3b3174d2	0.0027077687
10	0xbd06b03a	-0.032882906
11	0xbc51224e	-0.0127645265
12	0x3c318698	0.010835312
13	0xbac8ebe6	-0.0015329092
14	0xbc81b245	-0.015832076
15	0x3c2ffa42	0.010740818

block1.1.running_mean f4 [16]
0	0x3d6a0902	0.057137497
1	0x3e3ff5d8	0.18746126
2	0x3df5164a	0.11967142
3	0x3e820864	0.25397027
4	0x3edad7e6	0.42742842
5	0xbebfa6c8	-0.37431931
6	0x3ddb3265	0.10702971
7	0xbe431c7d	-0.19053836
8	0xbdf9c8ed	-0.12196527
9	0xbe870f82	-0.2637902
10	0x3e7be8c0	0.24600506
11	0xbeebca1c	-0.46052635
12	0x3dba4b04	0.09096339
13	0xbd5546dc	-0.05206953
14	0x3e07573c	0.13216871
15	0xbe9d6a84	-0.30745327

block1.1.running_var f4 [16]
0	0x3d8ba394	0.068183094
1	0x3d7d588f	0.061852034
2	0x3c8e5292	0.017373357
3	0x3c35054b	0.011048625
4	0x3d374a1e	0.044748418
5	0x3c7ad21b	0.015308882
6	0x3c24af8e	0.010051621
7	0x3b9a2220	0.004703775
8	0x3d09dab8	0.033655852
9	0x3c0f2f05	0.008739238
10	0x3c7ee8d3	0.015558439
11	0x3df102f9	0.11768145
12	0x3d068adf	0.03284728
13	0x3de54bc4	0.11196092
14	0x3c8a59e2	0.016888563
15	0x3d7c5a46	0.06160953

block1.3.weight f4 [16, 16, 3, 3]
0	0x3d71cd7b	0.059033852
1	0x3d12a013	0.03579719
2	0x3cbb2674	0.022845484
3	0xbdbb20a5	-0.09137086
4	0x3cbb1257	0.022835894
5	0xbc96e587	-0.018419994
6	0xbd4eac1a	-0.050457098
7	0x3d8dda98	0.06926459
8	0x3babc0f7	0.005241509
9	0xbd43fa98	-0.047846407
10	0xbd0a234b	-0.033725064
11	0xbc219e18	-0.009864353
12	0x3d3a0b2f	0.04542082
13	0xbd22bab7	-0.039728846
14	0xbd84dd61	-0.06487537
15	0xbce8dbf6	-0.028425198
16	0xbd72e757	-0.059302654
17	0x3c83c872	0.01608679
18	0x3db43374	0.087988764
19	0xbd78c4cc	-0.060734555
20	0x3cbbb826	0.022914957
21	0x3d09e160	0.0336622
22	0x3b1ede66	0.0024241447
23	0xbcea5269	-0.02860375
24	0x3c3a7997	0.011381528
25	0x3d170a30	0.03687495
26	0x3cd306a6	0.025760006
27	0xbd73c16f	-0.059510645
28	0xbd1732c7	-0.03691366
29	0xbd2f0a41	-0.04273439
30	0x3bb133de	0.0054077944
31	0xbc991bd2	-0.018690024
32	0x3c3ddc33	0.011588144
33	0x3dd47624	0.10374096
34	0x3d05128b	0.032488387
35	0xbd172b9f	-0.036906835
36	0xbb381f69	-0.0028094894
37	0xb98b60ba	-0.00026584213
38	0x3c4f0486	0.012635356
39	0x3cddefb0	0.027091831
40	0xbd943d29	-0.07238228
41	0xbd08333b	-0.033251982
42	0x3d7eebd7	0.062236633
43	0x3cba642c	0.022752844
44	0xbc1e684f	-0.009668424
45	0xbd16fd70	-0.03686279
46	0xbd28f7e3	-0.04125203
47	0xbd5e0855	-0.054207165
48	0xbcb40ca1	-0.021978678
49	0x3da2374c	0.07920703
50	0x3d46cde1	0.048536185
51	0x3d83579f	0.06413197
52	0xbd67a16d	-0.056550432
53	0xbcd4f8c5	-0.025997529
54	0x3c164fbc	0.009174284
55	0x3dec0682	0.11524679
56	0x3d5d7faa	0.054076828
57	0xbd16b10e	-0.036789946
58	0x3d30262a	0.043005146
59	0xbccc9bcf	-0.02497664
60	0xbda46d35	-0.08028642
61	0x3ce28228	0.027649954
62	0xbd57d2d4	-0.052691296
63	0xbd1c1d2e	-0.038113765
64	0xbdb3daa0	-0.08781934
65	0x3ccb9652	0.024851952
66	0x3da878a8	0.08226138
67	0x3ce0e599	0.02745323
68	0xbd3940cf	-0.045227822
69	0xbd9b75de	-0.07590841
70	0xbd320f54	-0.04347165
71	0x3d920144	0.07129148
72	0x3c7b154c	0.015324902
73	0x3d93e809	0.072219916
74	0x3da3fdf1	0.0800742
75	0x3d263eef	0.040587362
76	0xbbfe0abf	-0.007752746
77	0xbcde9533	-0.027170753
78	0xbd2ac20e	-0.04168897
79	0xbd9ab00b	-0.07553109
80	0x3cac836d	0.021058762
81	0xbd010541	-0.03149915
82	0xbc3378fb	-0.010954137
83	0xbd8f8cf3	-0.07009306
84	0xbd4ed07a	-0.050491787
85	0xbd8e2162	-0.06939961
86	0xbda2de64	-0.07952574
87	0x3d0a166d	0.033712793
88	0x3cb03d15	0.021513501
89	0x3d12e863	0.035866152
90	0xbd33aa6a	-0.04386369
91	0xbd864f1c	-0.06558058
92	0xbbeaa566	-0.0071608303
93	0xbd9ba9bb	-0.07600733
94	0xbce48732	-0.027896497
95	0xbd9ccaa4	-0.07655838
96	0x3c9c78d9	0.019100593
97	0xbd44140d	-0.047870684
98	0x3d788cbb	0.060681086
99	0x3d4f1e36	0.05056592
100	0x3d8d28d0	0.0689255
101	0xbd81503c	-0.063141316
102	0x3d7ab7c0	0.061210394
103	0xbd113d9d	-0.03545915
104	0x3d44501d	0.047927964
105	0x3d9fbc14	0.07799545
106	0xbc5a7126	-0.013332641
107	0x3c7c21ee	0.015388949
108	0x3c9f496f	0.019444196
109	0xbd843592	-0.0645553
110	0x3d21ab2c	0.039469883
111	0xbd9baee7	-0.07601719
112	0x3d6e60ec	0.0581979
113	0x3d8ea6de	0.06965421
114	0x3db7e15a	0.08978529
115	0xbd2a3298	-0.041552156
116	0xbd8951fc	-0.067050904
117	0x3c5e02db	0.0135504855
118	0x3d14c00f	0.036315974
119	0xbdc42f63	-0.09579351
120	0xbcac698d	-0.021046424
121	0xbd5d9b94	-0.05410345
122	0x3bf67b4c	0.0075220224
123	0xbd2dab38	-0.042399615
124	0xbcead43a	-0.02866565
125	0x3a96b9a0	0.0011499412
126	0xbd02b778	-0.03191325
127	0x3d868208	0.0656777
128	0x3d92d414	0.07169357
129	0xbd153e25	-0.03643622
130	0xbd2c5fb9	-0.042083476
131	0xbd72693e	-0.059182398
132	0xbdad54d5	-0.08463446
133	0xbddbc1bc	-0.10730311
134	0x3c56b667	0.013105012
135	0xbd7ddb59	-0.061976764
136	0xbd8d3c59	-0.06896276
137	0xbca9366c	-0.020655833
138	0xbcf6e8ff	-0.030140398
139	0xbcfa5498	-0.030557916
140	0x3d06fdf1	0.03295702
141	0xbcc1d578	-0.02366136
142	0xbc9753e2	-0.018472616
143	0xbbd7792e	-0.006575725
144	0xbd9e99a8	-0.07744151
145	0x3d82f466	0.063942716
146	0xbd11b76d	-0.03557532
147	0x3c4be3b7	0.012444428
148	0xbd0b255c	-0.033971176
149	0x3c54bac4	0.0129839815
150	0x3d80db7b	0.062918626
151	0x3d0fbc30	0.03509158
152	0xbd9ab55c	-0.07554123
153	0x3d134350	0.035952866
154	0x3dabed06	0.08394818
155	0x3cd682cd	0.026185418
156	0x3d4bf03a	0.049789645
157	0x3d9f8a3e	0.077900395
158	0xbca257fe	-0.019817349
159	0x3bb0c755	0.005394856
160	0xbd960bab	-0.07326444
161	0xbcf5db67	-0.030011846
162	0x3d6f669a	0.058447458
163	0x3d27c2e1	0.040957335
164	0xbd3bf0b2	-0.04588384
165	0xbdb19da0	-0.08672643
166	0xbd84f0f1	-0.064912684
167	0xbd9cebfd	-0.07662199
168	0xbdc1a207	-0.094547324
169	0xbd0fa9ba	-0.035073973
170	0x3d8ff836	0.07029764
171	0x3cefcf5c	0.029273681
172	0xbda4c0bd	-0.080445744
173	0xbd963db6	-0.07335989
174	0x3d539193	0.051652502
175	0xbdb333b4	-0.08750096
176	0xbcf195e6	-0.029490422
177	0x3cfa1bf5	0.03053091
178	0xbd5ac1e7	-0.053407576
179	0xbd4f891f	-0.05066788
180	0xbc595d40	-0.013266861
181	0xbcad7610	-0.02117446
182	0xbd32ab31	-0.043620292
183	0xbdb0b573	-0.08628359
184	0xbd9d9690	-0.07694733
185	0xbd5f66ed	-0.054541517
186	0x3d8ef77c	0.06980798
187	0xbd4aadfa	-0.049482323
188	0xbd81d595	-0.06339566
189	0xbc3cdb1b	-0.011526848
190	0xbc210255	-0.009827216
191	0x3ccf78e5	0.025326202
192	0x3d9119bb	0.07084986
193	0x3d304ba3	0.043040883
194	0xbdb4755e	-0.088114485
195	0x3c015bdd	0.007895437
196	0x3d03b6c8	0.032156736
197	0xbd0d092f	-0.034432586
198	0xbd5688c4	-0.052376524
199	0x3d9a34b5	0.07529584
200	0xbccaa463	-0.024736589
201	0xbcec8815	-0.028873483
202	0xbd6ce6c4	-0.057837263
203	0x3c0a12bc	0.008427318
204	0x3d322cdf	0.043499824
205	0x3c9aa547	0.018877639
206	0x3b114871	0.0022168423
207	0xbd538241	-0.05163789
208	0xbd88b79a	-0.06675644
209	0xbc77bf4e	-0.015121294
210	0x3d770c08	0.06031421
211	0x3d105274	0.035234883
212	0xbd859738	-0.06522983
213	0xbca15578	-0.019694075
214	0xbd8420a1	-0.06451536
215	0xbd79689a	-0.06089077
216	0x3d11e151	0.03561527
217	0x3d761130	0.060074985
218	0x3d807ff6	0.062744066
219	0xbd61754c	-0.055043504
220	0x3d3e9fa8	0.04653898
221	0xbd8872be	-0.0666251
222	0x3d87243c	0.06598708
223	0x3d80d409	0.062904425
224	0x3cc631d0	0.024193674
225	0x3d733b08	0.05938247
226	0xbdba30e4	-0.090913564
227	0xbd36a452	-0.0445903
228	0x3c880792	0.016605172
229	0xbd147fd8	-0.036254734
230	0xbc538a04	-0.012911323
231	0xbd8a257e	-0.06745432
232	0x3c60e2e1	0.013725967
233	0x3cc7d2d5	0.024392525
234	0x3d2f668f	0.042822417
235	0xbd67db1a	-0.056605436
236	0xbd849565	-0.06473807
237	0x3d01eede	0.031721942
238	0x3cbbddb5	0.022932867
239	0xbd1d6e53	-0.03843529
240	0x3cb08d11	0.02155164
241	0x3d5c35e4	0.05376233
242	0xbbfd8b25	-0.0077375346
243	0xbbc07c48	-0.0058741905
244	0xbca53350	-0.02016607
245	0xbd8aa4b1	-0.06769694
246	0xbdbdc665	-0.092663564
247	0xbd54b7aa	-0.05193297
248	0xbd2fcbd2	-0.042918988
249	0x3a875e73	0.0010327831
250	0xbd0622d5	-0.032748062
251	0xbca7882c	-0.020450674
252	0x3d691345	0.056903142
253	0x3c60e44c	0.013726305
254	0x3d69f341	0.05711675
255	0xbd5d666f	-0.054052766

block1.3.bias f4 [16]
0	0xbd0eb688	-0.034842044
1	0xbd19f717	-0.03758916
2	0x3d3229e8	0.043496996
3	0xbcdd0fa2	-0.026984993
4	0x3d4d2598	0.05008468
5	0xbdc3d452	-0.09561981
6	0xbc0a618e	-0.00844611
7	0xbd7401ab	-0.059571903
8	0xbce4e1d3	-0.027939713
9	0x3d95154e	0.07279454
10	0xbd2dc123	-0.042420518
11	0xbd29ae8d	-0.04142623
12	0x3d2de66e	0.042456083
13	0x3d13959c	0.03603135
14	0x3cc9490c	0.024570964
15	0xbcf16117	-0.029465241

block1.4.weight f4 [16]
0	0x3f8a3662	1.0797846
1	0x3f79f5d9	0.9764076
2	0x3f71bbe7	0.9442734
3	0x3f84c0c7	1.0371331
4	0x3f82fd08	1.0233469
5	0x3f72c587	0.9483265
6	0x3f783512	0.9695598
7	0x3f7697f4	0.9632561
8	0x3f7f33a3	0.99688166
9	0x3f85db8b	1.0457624
10	0x3f8084e6	1.0040557
11	0x3f831f92	1.024401
12	0x3f7dbb99	0.99114376
13	0x3f83c49d	1.0294377
14	0x3f868db9	1.0512
15	0x3f83d751	1.0300084

block1.4.bias f4 [16]
0	0xbc9e082d	-0.019291008
1	0xbc3fe5ab	-0.011712472
2	0xbd19edf8	-0.03758046
3	0x3bbc7621	0.0057513868
4	0x3d15f34e	0.036608987
5	0xbd26050e	-0.040532164
6	0xbd57fef5	-0.05273338
7	0xbcad9549	-0.021189349
8	0x3c823011	0.01589206
9	0x3d1153d5	0.03548034
10	0x3c675f7e	0.014121888
11	0xbac77e6c	-0.0015220172
12	0x3bab7a48	0.005233083
13	0xbb60e33f	-0.0034315137
14	0x3a965004	0.0011467938
15	0xbc082de9	-0.008311727

block1.4.running_mean f4 [16]
0	0xbe981431	-0.29702905
1	0xbed53bb3	-0.4164711
2	0x3e630e28	0.22173369
3	0xbeba2440	-0.36355782
4	0x3e6263e2	0.22108415
5	0xbec5c75e	-0.38628668
6	0xbdbc0998	-0.09181517
7	0x3e285f78	0.16442668
8	0xbe60139c	-0.2188248
9	0xbcb0f675	-0.021601895
10	0x3de89a21	0.11357523
11	0x3e540ac8	0.20707238
12	0xbe4b967c	-0.19881624
13	0x3e96bae1	0.29439452
14	0xbefcdad3	-0.493857
15	0xbe1a5ea1	-0.1507516

block1.4.running_var f4 [16]
0	0x3e1c3533	0.15254669
1	0x3e6512f6	0.22370514
2	0x3e7bea8a	0.24601188
3	0x3e80b9fe	0.251419
4	0x3ed44718	0.4146049
5	0x3df186f0	0.117933154
6	0x3e55d646	0.2088252
7	0x3dbf3fb3	0.093383215
8	0x3e03ad7d	0.1285915
9	0x3e9930c5	0.2992002
10	0x3ebede41	0.3727894
11	0x3e41d8d4	0.1893037
12	0x3e3a9b87	0.18223391
13	0x3e7daada	0.24772206
14	0x3e7137a6	0.23556384
15	0x3e9900ef	0.29883525

block2.0.weight f4 [32, 16, 3, 3]
0	0x3ca177e1	0.019710483
1	0xbc8dd1ee	-0.017312016
2	0xbc35b02e	-0.011089368
3	0x3b49c99e	0.003079034
4	0xbca4b9a0	-0.020108044
5	0xbd02a3e8	-0.031894594
6	0xbd6099a5	-0.054834027
7	0x3d826c34	0.06368294
8	0x3db79e2d	0.089657165
9	0xbd1d02dd	-0.03833281
10	0xbd9618a7	-0.07328921
11	0x3da89de0	0.08233237
12	0x3c16e2e0	0.009209365
13	0xbc64871d	-0.013948229
14	0xbc4578e9	-0.012052753
15	0x3c7eee2e	0.015559716
16	0x3da3b776	0.07993977
17	0x3d75f50c	0.060048148
18	0x3d7ae9ac	0.061258003
19	0x3d02682d	0.03183763
20	0x3de2bd47	0.11071258
21	0xbd33eb11	-0.04392535
22	0xbce163dd	-0.027513439
23	0xbc832204	-0.01600743
24	0xbd688ba2	-0.05677379
25	0xbd6deb89	-0.058085952
26	0xbdefbf48	-0.11706406
27	0xbb18f9cc	-0.002334225
28	0x3b36f81f	0.0027918888
29	0x3d6a4dbf	0.05720305
30	0xbd75f713	-0.06005008
31	0x3d91b662	0.07114865
32	0xbaeb28c0	-0.0017941222
33	0x3ccb9e16	0.024855655
34	0x3d089a5e	0.03335034
35	0xbc9ae379	-0.018907296
36	0xbd076b93	-0.033061575
37	0xbc5ec282	-0.013596179
38	0x3cbc2b66	0.022969913
39	0x3b8fadd2	0.0043847347
40	0x3d1e9ea7	0.03872552
41	0xbd3a08c1	-0.045418505
42	0xbd5c4988	-0.053781062
43	0x3d8306e0	0.06397796
44	0x3c756855	0.014978488
45	0x3d90c6d9	0.07069177
46	0x3cbe886e	0.023258414
47	0xbd1bdf50	-0.038054764
48	0x3d7ec9c2	0.06220413
49	0x3d123e0d	0.035703707
50	0xbd07a6c5	-0.03311803
51	0xbd1f73d8	-0.038928837
52	0xbc935d60	-0.01798886
53	0xbd7443ff	-0.05963516
54	0x3d3a8eed	0.04554646
55	0x3d6ccf52	0.057814904
56	0x3d1cd5e7	0.03828993
57	0x3d7043ff	0.058658596
58	0x3d2010ad	0.039078403
59	0xbdaac971	-0.08339203
60	0x3cf44a0d	0.029820466
61	0x39d5f7d7	0.0004081118
62	0xbdf2fdab	-0.118647896
63	0x3cffee5b	0.031241586
64	0x3c2289b9	0.009920531
65	0xbd97cd30	-0.07412183
66	0xbda26f23	-0.07931354
67	0xbbb44d71	-0.005502396
68	0xbd97f2e9	-0.07419378
69	0x3d10b564	0.035329238
70	0x3d650d67	0.055920985
71	0xbd98178e	-0.07426368
72	0x3de8d600	0.11368942
73	0xbc667964	-0.014067028
74	0x3c14ca07	0.00908137
75	0xbdac50c1	-0.0841384
76	0xbbcd33d0	-0.00626228
77	0x3d901621	0.07035471
78	0x3cbb570b	0.022868654
79	0xbd133ea6	-0.035948418
80	0xbd77a2fe	-0.060458176
81	0x3d86b3e4	0.0657728
82	0x3da7942f	0.08182561
83	0x3bac5446	0.0052590696
84	0xbc0d1c97	-0.008612773
85	0x3c42e476	0.01189529
86	0xbd74979f	-0.05971491
87	0x3db72693	0.08942904
88	0x3b9ab319	0.004721057
89	0xbd303ce3	-0.043026816
90	0xbc9a12d8	-0.018807814
91	0x3d74a56f	0.059728082
92	0x3c43f252	0.011959629
93	0x3c810987	0.015751613
94	0x3d491ff9	0.049102757
95	0xbdb5db66	-0.088797376
96	0xbcaa3581	-0.020777466
97	0xbdbeb962	-0.09312703
98	0xbde5d4b9	-0.11222214
99	0x3d245098	0.040115923
100	0xbc22d9cc	-0.009939622
101	0xbab908f6	-0.001411705
102	0x3d9abfc8	0.075561106
103	0xbd0da6e8	-0.034583002
104	0xbc4eb573	-0.012616503
105	0x3c6350c5	0.013874237
106	0x3d226f7f	0.039657112
107	0x3c1f6d68	0.009730674
108	0x3daa0c5e	0.0830314
109	0xbc17e119	-0.009269976
110	0x3cc140be	0.023590442
111	0x3cadba14	0.021206893
112	0x3d5e13b7	0.05421802
113	0x3d48c9ed	0.049020696
114	0x3d8f2583	0.06989577
115	0xbcd2cc41	-0.025732161
116	0x3cb6afc2	0.022300605
117	0x3cea2254	0.028580822
118	0x3b3611d1	0.0027781615
119	0xbd34fd1f	-0.044186708
120	0xbdbd9c2a	-0.092583016
121	0xbdab505f	-0.08364939
122	0xbccfc28a	-0.025361318
123	0x3d62f507	0.055409458
124	0xbbc8a5d4	-0.006123284
125	0x3da8481a	0.08216877
126	0x3c4eba8e	0.01261772
127	0x3c2ef848	0.010679312
128	0x3d1e6b70	0.03867668
129	0xbd01dbb4	-0.031703666
130	0x3d7e9174	0.062150434
131	0x3afb0b76	0.0019153196
132	0x3b22b79e	0.0024828683
133	0xbd87a2ee	-0.06622873
134	0xbbb2b89e	-0.005454137
135	0x3be409cf	0.006959177
136	0x3d436827	0.04770675
137	0x3d362074	0.044464543
138	0x3d7fc6cf	0.062445458
139	0xbdd20ce9	-0.10256369
140	0xbca76c9c	-0.020437531
141	0xbccb066d	-0.024783337
142	0xbde13e6d	-0.10998235
143	0xbd2f1be9	-0.042751227
144	0xbd1c9ce2	-0.038235553
145	0x3d755d9e	0.059903733
146	0xbdd51477	-0.10404294
147	0x3d29f771	0.041495744
148	0xbc538773	-0.012910712
149	0xbe119a94	-0.14219123
150	0xbcf6d6e8	-0.030131772
151	0xbd9cec71	-0.07662285
152	0xbb0d5182	-0.0021563475
153	0x3dda495d	0.10658524
154	0xbd32a609	-0.043615375
155	0xbd18f48b	-0.03734259
156	0x3d58c518	0.05292234
157	0xbb81681c	-0.0039491784
158	0xbcd02bf3	-0.025411582
159	0x3d81dcfa	0.06340976
160	0xbd808ed1	-0.0627724
161	0xbca6d594	-0.020365514
162	0x3d1df917	0.03856763
163	0x3cf405c0	0.029787898
164	0xbd193e6c	-0.037413046
165	0x3c999f5f	0.018752752
166	0xbd84917b	-0.06473061
167	0xbc609dd3	-0.013709503
168	0x3d97d9f1	0.07414616
169	0x3c7d8a08	0.015474804
170	0xbc86afa8	-0.016441181
171	0x3d363ac2	0.04448963
172	0x3cedca58	0.02902715
173	0xbceb2924	-0.02870614
174	0xbcdddec4	-0.027083762
175	0xbd0227bd	-0.03177618
176	0x3d78313b	0.060593825
177	0xbd585631	-0.052816574
178	0x3ca25917	0.019817872
179	0xbd0ab6c4	-0.033865705
180	0xbd83f934	-0.06444016
181	0xbd37e8ef	-0.044899877
182	0xbd83a483	-0.064278625
183	0xbd4ba334	-0.04971619
184	0xbd06b4a9	-0.032887135
185	0xbda13510	-0.07871449
186	0xbdcf20f2	-0.10113706
187	0x3cd917fb	0.026500693
188	0xbca9b669	-0.020716863
189	0xbc03d47e	-0.008046268
190	0x3c555842	0.013021531
191	0x3d95eff2	0.073211566
192	0xbd58de84	-0.052946582
193	0xbd63f774	-0.05565591
194	0xbd1c25d6	-0.03812202
195	0x3c4ba09c	0.012428429
196	0x3aaab588	0.0013024071
197	0xbcd2eb9d	-0.025747115
198	0x3d2efc24	0.04272093
199	0xbd1d3c70	-0.038387716
200	0x3dbd7a23	0.09251811
201	0xbd77d362	-0.060504325
202	0x3c2bcd9f	0.010486036
203	0x3d029530	0.031880558
204	0xbcbef58d	-0.023310447
205	0x3d698a18	0.057016462
206	0xbd1a3d26	-0.037655972
207	0xbcae3a6a	-0.021268088
208	0xbd78e4b5	-0.060764987
209	0x3d008337	0.031375136
210	0x3d2e0e00	0.04249382
211	0x3d6d341c	0.057911023
212	0x3d323cbd	0.043514956
213	0xbcfec189	-0.031098144
214	0x3d9a675c	0.075392455
215	0x3cdc2e7c	0.026877634
216	0x3d12d424	0.035846844
217	0xbd8804fe	-0.06641577
218	0xbdceaf9c	-0.100920886
219	0xbda332a5	-0.07968644
220	0x3d09a53f	0.033604857
221	0xbd4fcaf8	-0.050730675
222	0xbde360c9	-0.11102445
223	0xbda51508	-0.08060652
224	0xbdb1d5c3	-0.0868335
225	0xbbc4c616	-0.006005059
226	0x3ca57885	0.02019907
227	0xbd5067bc	-0.05088018
228	0x3cc732ef	0.02431628
229	0xbd80de34	-0.06292382
230	0x3c049308	0.008091696
231	0xbd847603	-0.064678214
232	0x3b62f9e2	0.0034633805
233	0x3da650aa	0.08120854
234	0x3d8e90a5	0.069611825
235	0x3d45b519	0.04826841
236	0x3d820d0f	0.06350147
237	0x3d7f74aa	0.06236712
238	0x3d225e84	0.03964092
239	0x3d4b7681	0.04967356
240	0x3c35b1a3	0.011089715
241	0x3daec57d	0.08533762
242	0x3dbbe725	0.09174947
243	0xbcd5783c	-0.026058309
244	0xbd0042eb	-0.031313818
245	0xbd721ab3	-0.059107494
246	0x3bc5316d	0.006017855
247	0xbdd170e0	-0.10226607
248	0x3d282ebb	0.04106019
249	0x3ad5208e	0.0016260312
250	0x3d95bdb1	0.073115714
251	0x3db21cef	0.08696925
252	0xbce98803	-0.028507238
253	0x3cf3c9bb	0.029759279
254	0x3d127c35	0.035762984
255	0xbd8eb8bc	-0.06968829

block2.0.bias f4 [32]
0	0xbd3432a7	-0.04399362
1	0x3bd58ca0	0.006517008
2	0x3d5fe816	0.054664694
3	0x3d27ad23	0.0409366
4	0xbdc48547	-0.09595733
5	0xbd28b816	-0.041191183
6	0xbd398caf	-0.045300182
7	0xbd42b038	-0.047531337
8	0x39d98be2	0.00041493686
9	0x3de08122	0.1096213
10	0xbb3c9158	-0.0028773155
11	0xbda06691	-0.07832063
12	0x3d52e9f5	0.05149265
13	0x3d84f079	0.06491179
14	0xbd5a3397	-0.053271856
15	0x3b45ef62	0.0030202498
16	0x3c19e279	0.009392374
17	0x3d18d52e	0.03731268
18	0x3b17a0ae	0.0023136544
19	0x3d1fe06e	0.039032392
20	0x3d787441	0.060657743
21	0x3d758258	0.05993876
22	0x3d53a766	0.051673315
23	0x3d5f7ebd	0.054564226
24	0xbd783da0	-0.060605645
25	0x3c2273ad	0.009915275
26	0x3d5d25ed	0.053991247
27	0xbdad43e2	-0.08460213
28	0xbdb9931d	-0.09061263
29	0xbd17cde0	-0.037061572
30	0xbc0892ce	-0.008335782
31	0x3dabfacc	0.08397445

block2.1.weight f4 [32]
0	0x3f8245cd	1.0177552
1	0x3f81616e	1.0107858
2	0x3f7ffd2c	0.99995685
3	0x3f84b654	1.0368142
4	0x3f7c934b	0.9866225
5	0x3f7ad978	0.9798808
6	0x3f7c093d	0.98451596
7	0x3f7d1a38	0.9886813
8	0x3f812712	1.0090048
9	0x3f7d86f7	0.99034065
10	0x3f81265f	1.0089835
11	0x3f7f9cb3	0.9984848
12	0x3f84d3eb	1.0377172
13	0x3f81c1d9	1.0137283
14	0x3f7880d3	0.9707157
15	0x3f7bad98	0.9831176
16	0x3f7c5a2e	0.98575103
17	0x3f818c03	1.0120853
18	0x3f7cbf92	0.98729813
19	0x3f7b727f	0.9822158
20	0x3f7aeb82	0.98015606
21	0x3f77f5b9	0.9685932
22	0x3f74aae9	0.9557329
23	0x3f83409a	1.025409
24	0x3f841a27	1.0320481
25	0x3f800fc3	1.000481
26	0x3f8300aa	1.0234578
27	0x3f7990ef	0.97486776
28	0x3f821b12	1.0164511
29	0x3f84a012	1.036135
30	0x3f80e377	1.0069417
31	0x3f7e7179	0.99391896

block2.1.bias f4 [32]
0	0x3b3c52dc	0.0028735911
1	0x3c6d8201	0.014496327
2	0xbbd13942	-0.0063849995
3	0x3c0c807f	0.008575558
4	0x3a3495be	0.00068887684
5	0x3cb1406b	0.021637162
6	0xbc70d2e7	-0.014698721
7	0xbc3ec3cb	-0.01164336
8	0x3d2190e8	0.039444834
9	0x3bfc1e58	0.007694047
10	0x3b8b67c6	0.004254314
11	0xba9a9ae2	-0.0011795426
12	0xbb8cf342	-0.0043014595
13	0x3ac4635f	0.0014983228
14	0xbc3e1a66	-0.011602974
15	0xbcbeca77	-0.023289902
16	0x3d06e89e	0.032936685
17	0x3bbcccf4	0.005761737
18	0x3b910abc	0.0044263285
19	0xbd0e39f8	-0.034723252
20	0xbcbc1854	-0.02296082
21	0xbd6107ff	-0.054939266
22	0xbd63b7f9	-0.055595372
23	0x3cf570d4	0.029961027
24	0x3d07799b	0.033074956
25	0xbd2d8739	-0.042365286
26	0x3b8d92c1	0.004320473
27	0xbcfc6422	-0.030809466
28	0xbd77df3c	-0.060515627
29	0x3cc12a16	0.023579638
30	0xbd674dea	-0.05647079
31	0x39093f1a	0.00013088845

block2.1.running_mean f4 [32]
0	0x3db7caec	0.08974251
1	0x3e18cb39	0.14921273
2	0xbf36079a	-0.7110535
3	0x3f260813	0.6485607
4	0xbf229f1c	-0.6352403
5	0x3f1e3d08	0.61811876
6	0xbf011ffd	-0.50439435
7	0xbf28d280	-0.659462
8	0xbeb7d9b4	-0.35908282
9	0x3e9e2c33	0.30893096
10	0x3e8705f5	0.26371732
11	0xbf419939	-0.75624424
12	0x3f173f3d	0.5908087
13	0xbf6d0b8a	-0.9259573
14	0xbeeeefb9	-0.4666727
15	0xbe178f1e	-0.14800689
16	0x3e86af26	0.26305503
17	0x3ebff44a	0.37491065
18	0x3f93ebcf	1.1556338
19	0x3ded72e8	0.11594182
20	0x3f01c048	0.5068402
21	0x3f6c8448	0.92389345
22	0x3d67335c	0.056445464
23	0x3efd9162	0.4952498
24	0xbea15420	-0.31509495
25	0xbf3a783f	-0.7283973
26	0x3e1cb866	0.15304717
27	0x3ea9d200	0.3316803
28	0xbe6392a6	-0.2222391
29	0x3ee3e749	0.44512394
30	0x3f0f7e65	0.5605224
31	0xbe547f35	-0.2075165

block2.1.running_var f4 [32]
0	0x3f2bc195	0.6709226
1	0x3e9ecd29	0.310159
2	0x3f005f3a	0.50145304
3	0x3ec98f2e	0.3936705
4	0x3ed94de4	0.42442238
5	0x3e9f8894	0.31158888
6	0x3ecd7d6b	0.4013475
7	0x3ef9d9d4	0.48799002
8	0x3e993b23	0.2992793
9	0x3f4f1456	0.80890405
10	0x3e776f83	0.24163632
11	0x3f112c50	0.5670824
12	0x3e9d2936	0.30695504
13	0x3f1acd85	0.6046985
14	0x3f10aae0	0.56510735
15	0x3ec225dc	0.3791951
16	0x3ef6b12a	0.4818204
17	0x3f322fd6	0.6960424
18	0x3eb42efd	0.351921
19	0x3ebd04ad	0.3691763
20	0x3e8bb2c2	0.2728482
21	0x3ed0c528	0.40775418
22	0x3e83e7b4	0.25762713
23	0x3f2dd557	0.67903656
24	0x3ede2ded	0.43394414
25	0x3f0312af	0.51200384
26	0x3f012bd0	0.5045748
27	0x3ed0212c	0.40650308
28	0x3ef025c5	0.46903816
29	0x3ea8658e	0.3288998
30	0x3ed8f2b3	0.42372665
31	0x3e989824	0.29803574

block2.3.weight f4 [16, 32, 1, 1]
0	0xbd6bb380	-0.05754423
1	0xbceb4e7e	-0.028723951
2	0xbc219476	-0.009862056
3	0xbe3caefe	-0.18426129
4	0x3bf3b670	0.0074375197
5	0xbd92af3e	-0.07162331
6	0xbdff3dd6	-0.12462966
7	0xbd95f427	-0.07321959
8	0xbd8deb78	-0.06929678
9	0x3df5db68	0.12004739
10	0xbce75ed7	-0.028243465
11	0x3e3808d0	0.17972112
12	0xbe151654	-0.14559299
13	0xbd63f06c	-0.055649206
14	0x3dd76082	0.10516454
15	0x3e329a22	0.1744161
16	0x3df9b33e	0.12192391
17	0xbe51ce41	-0.20488836
18	0x3da8e2bf	0.082463734
19	0xbe2bcc3c	-0.16777128
20	0xbd72c364	-0.05926837
21	0x3cb02eee	0.021506753
22	0x3d95ba07	0.073108725
23	0xbd1b5744	-0.03792502
24	0xbde30cd5	-0.11086432
25	0xbe0d09ea	-0.13773313
26	0xbcf39bf5	-0.029737452
27	0x3de47841	0.11155749
28	0x3dfda09e	0.12384151
29	0x3de9d8a2	0.114182726
30	0xbe1f3836	-0.15548787
31	0xbe0692f4	-0.13141996
32	0x3e4cba01	0.1999283
33	0x3e07f0ac	0.13275403
34	0xbda833bd	-0.08212993
35	0xbb83b89f	-0.0040198113
36	0x3dedf234	0.11618462
37	0x3e1862f9	0.14881505
38	0xbdf014e1	-0.11722732
39	0xbdaa3a5e	-0.08311914
40	0x3d3e571d	0.046469796
41	0x3e10f495	0.141558
42	0x3d60d435	0.054889876
43	0x3ba1c4ad	0.0049367757
44	0xbd0acc86	-0.033886455
45	0x3e1576fa	0.14596167
46	0xbe167c31	-0.14695813
47	0x3db40590	0.087901235
48	0xbdd1d9e0	-0.102466345
49	0x3c6a522f	0.014301821
50	0xbe22b9d8	-0.15891206
51	0x3dc77e15	0.09740845
52	0xbdb3674c	-0.08759937
53	0x3cb1fda1	0.021727385
54	0xbdacdb63	-0.08440282
55	0x3d61eca0	0.055157304
56	0xbdbf7b3e	-0.093496785
57	0xbdf9b23d	-0.121921994
58	0xbc96608c	-0.018356584
59	0x3e15654f	0.14589427
60	0x3d07ad08	0.033124
61	0xbceb51f4	-0.028725602
62	0x3e2d201a	0.16906777
63	0x3d837304	0.06418422
64	0xbd98f25f	-0.074681036
65	0x3c961e17	0.018324895
66	0xbd8198e3	-0.06327989
67	0xbdbba4a2	-0.091622606
68	0xbd279be1	-0.040920142
69	0x3d06758d	0.03282695
70	0xbe2b9c03	-0.16758732
71	0xbe151508	-0.14558804
72	0x3da263ac	0.07929167
73	0xbd0039e9	-0.031305227
74	0x3c71d5c0	0.014760435
75	0x3d6a46d5	0.057196457
76	0xbd87f0b4	-0.06637707
77	0x3e0a2854	0.13491946
78	0xbd757a5c	-0.059931144
79	0xbc20dceb	-0.009818296
80	0xbdae5063	-0.08511426
81	0x3d9001ab	0.07031568
82	0xbe29af21	-0.16570713
83	0x3de9b68c	0.11411771
84	0xbcec03a8	-0.028810337
85	0xbd31229b	-0.043245893
86	0xbcee7be8	-0.029111817
87	0x3dc10c41	0.09426165
88	0x3e49c4e0	0.19704008
89	0x3d1809e4	0.037118807
90	0x3e10c134	0.14136201
91	0xbdea1de7	-0.11431485
92	0xbd0f778f	-0.03502613
93	0xbddbbafd	-0.107290246
94	0xbe0d89ab	-0.13822047
95	0x3d5ebab1	0.05437726
96	0xbd68145e	-0.05666005
97	0x3d4b2665	0.049597163
98	0xbd5953c1	-0.05305839
99	0xbe3ba525	-0.18324716
100	0xbdc90be6	-0.098167226
101	0xbe0c8c6c	-0.13725442
102	0x3c90ea6d	0.017689908
103	0xbe0f914c	-0.1402027
104	0x3e0f755f	0.14009617
105	0x3db4b7a2	0.08824088
106	0xbde4d983	-0.111742996
107	0xbc7bef2a	-0.015376845
108	0xbe220c78	-0.15825069
109	0x3e106f46	0.14104947
110	0xbd838d1f	-0.06423401
111	0xbd30a554	-0.04312642
112	0x3cb2ccaf	0.021826116
113	0x3db25e1b	0.087093554
114	0xbd86d055	-0.06582705
115	0x3dad50a8	0.084626496
116	0x3d6bb626	0.057546757
117	0xbb972b32	-0.0046133036
118	0x3dbfc920	0.093645334
119	0xbe30cce0	-0.17265654
120	0xbdc5260f	-0.096264
121	0xbc4aca8d	-0.012377393
122	0xbcce2ac2	-0.025166873
123	0x3d8643a6	0.06555872
124	0x3e13d985	0.14438446
125	0xbe0d0fea	-0.13775602
126	0x3daabd20	0.08336854
127	0x3d918a10	0.071064115
128	0x3def1da0	0.116755724
129	0x3e10b41f	0.1413121
130	0xbb8db387	-0.00432438
131	0xbd3a687b	-0.045509797
132	0xbd38923c	-0.045061335
133	0x3c9be085	0.019027958
134	0x3dd92eaf	0.10604607
135	0x3d984882	0.07435705
136	0x3e32d9d2	0.17465904
137	0x3d877b2b	0.06615289
138	0x3da70f05	0.081571616
139	0xbc1f7251	-0.009731845
140	0xbe0e1e12	-0.13878658
141	0xbb925012	-0.0044651115
142	0x3e3935df	0.18086956
143	0x3e28794d	0.16452523
144	0xbdde42e0	-0.10852599
145	0x3e005e3e	0.1253595
146	0x3e041b5e	0.12901065
147	0xbe1a086c	-0.15042275
148	0xbe31c301	-0.17359544
149	0xbd81c71b	-0.063368045
150	0xbd37abba	-0.044841506
151	0x3d297f39	0.041381095
152	0x3d85a167	0.06524926
153	0x3dc0587a	0.093918756
154	0xbdd5e3d8	-0.10443848
155	0x3e11fa91	0.1425574
156	0x3d1cf0b3	0.038315486
157	0xbe2ef001	-0.17083742
158	0xbdf464a1	-0.11933256
159	0x3d9ee92f	0.0775932
160	0x3e1fd0f3	0.15607052
161	0xbddcf4e2	-0.10788895
162	0x3ba9f4e9	0.0051866663
163	0xbe4bfd5c	-0.19920868
164	0x3dcc0923	0.0996268
165	0x3d680167	0.056641962
166	0xbd55ecf5	-0.052227933
167	0x3db625f8	0.08893961
168	0x3da1a9bc	0.078937024
169	0x3e083de4	0.1330486
170	0xbc93fef4	-0.018065907
171	0x3bde5783	0.0067853346
172	0x3dcda80e	0.100418195
173	0x3daad0e2	0.083406225
174	0xbe210211	-0.15723445
175	0xbd41909f	-0.047257062
176	0x3d9dbda2	0.07702185
177	0xbdbb17e8	-0.09135419
178	0x3e21779d	0.15768285
179	0xbc8c6561	-0.017138185
180	0x3e2cf928	0.1689192
181	0xbdb09ddc	-0.08623859
182	0x3def10c2	0.11673118
183	0xbdb67839	-0.089096494
184	0x3e332b15	0.17496903
185	0x3da44999	0.0802185
186	0x3d2ae8db	0.041725975
187	0x3cddb361	0.027063074
188	0x3dba5649	0.09098489
189	0xbdb35f69	-0.087584324
190	0xbd74eff9	-0.05979917
191	0x3c38208f	0.011238231
192	0xbe1c8c09	-0.15287794
193	0x3d9ce362	0.07660557
194	0x3d8e1515	0.06937615
195	0xbe4d59ae	-0.20053741
196	0xbd81ba10	-0.06334317
197	0xbcbf2f53	-0.023337996
198	0xbe3545a4	-0.17702347
199	0x3e10e2ee	0.14149067
200	0x3caed6d4	0.021342672
201	0xbdf423f2	-0.119209185
202	0xbc583e18	-0.013198398
203	0x3d57957a	0.052632786
204	0x3e14eebc	0.14544195
205	0xbdc58172	-0.0964383
206	0x3e0d1964	0.13779217
207	0xbd238202	-0.039918907
208	0xbde5a5b0	-0.11213243
209	0xbd39544d	-0.04524641
210	0xbd93c7dd	-0.07215855
211	0x3d6b7680	0.057486057
212	0x3dce5519	0.10074825
213	0xbe111508	-0.14168179
214	0xbd94a4aa	-0.0725797
215	0x3e0a03a2	0.13477948
216	0xbd5069b3	-0.050882053
217	0x3e041219	0.12897529
218	0x3e512e99	0.20427932
219	0xbd6b2920	-0.057412267
220	0x3dc87758	0.09788388
221	0xbe5fc5cd	-0.21852799
222	0x3d92ab96	0.07161634
223	0xbe037958	-0.12839258
224	0xbb86bc9b	-0.004111839
225	0x3e4ef0d0	0.2020905
226	0x3cd24fdb	0.025672844
227	0xbdbdea5d	-0.09273217
228	0x3dd8d4bc	0.10587451
229	0xbd4feeaf	-0.050764736
230	0x3dfcd182	0.12344648
231	0xbe0b93b4	-0.13630563
232	0xbd4d35d0	-0.050100148
233	0xbe217de0	-0.15770674
234	0xbdbcd6db	-0.09220668
235	0xbd6b3d20	-0.05743134
236	0xbe200db9	-0.15630235
237	0xbde5d70d	-0.11222658
238	0xbd1b0989	-0.03785089
239	0xbe0b8cfb	-0.13627999
240	0xbd979df2	-0.074031726
241	0xbbff1587	-0.0077845487
242	0xbddfbe33	-0.109249495
243	0x3dd35e65	0.10320739
244	0x3de64377	0.11243337
245	0x3e1f0148	0.15527833
246	0x3d6c81ba	0.057740904
247	0x3baa2415	0.0051922896
248	0xbbbb1bef	-0.005710117
249	0xbd78906c	-0.060684606
250	0x3e04a619	0.12953986
251	0x3d7aa2c7	0.061190393
252	0x3e137aaf	0.14402269
253	0xbcfaae44	-0.030600674
254	0xbe0838b0	-0.13302875
255	0x3d4b866d	0.049688745

block2.3.bias f4 [16]
0	0x3e340214	0.17578918
1	0x3dfcc99f	0.12343144
2	0x3de15385	0.11002258
3	0x3dc5b7dc	0.09654209
4	0xbe2f19f8	-0.1709975
5	0x3c48964b	0.012242864
6	0xbda5a893	-0.080887936
7	0xbd9c4926	-0.076311395
8	0x3dff5831	0.12467993
9	0xbd858e81	-0.06521321
10	0x3df2c950	0.118548036
11	0x3ca6c3f4	0.02035711
12	0xbd9e1d0c	-0.07720384
13	0xbdab5796	-0.08366315
14	0xbe1ebd57	-0.15501915
15	0x3d55aaeb	0.052164953

block2.4.weight f4 [16]
0	0x3f8119b0	1.0085964
1	0x3f6c491d	0.9229906
2	0x3f81c663	1.0138668
3	0x3f7d1c0c	0.9887092
4	0x3f7d9d98	0.99068594
5	0x3f7f8b79	0.99822193
6	0x3f7f41aa	0.9970957
7	0x3f826f33	1.0190185
8	0x3f877308	1.058198
9	0x3f7f4c10	0.9972544
10	0x3f7e5df1	0.99362093
11	0x3f770597	0.96492904
12	0x3f838603	1.0275272
13	0x3f7b45a2	0.98153126
14	0x3f80d7dc	1.0065875
15	0x3f81f278	1.015212

block2.4.bias f4 [16]
0	0xbda1b455	-0.07895724
1	0xbd63f972	-0.05565781
2	0x3b785f48	0.003789859
3	0xbd88d320	-0.06680894
4	0xbd48d5fa	-0.04903219
5	0x3cbe57d4	0.02323524
6	0x3b209fc0	0.002450928
7	0x3cfb5779	0.030681359
8	0x3d19b6b6	0.037527762
9	0x3cbf3d99	0.023344802
10	0x3c74b766	0.014936304
11	0xbb8546e3	-0.0040672882
12	0xbc751039	-0.014957481
13	0xbc47c2f7	-0.012192479
14	0xbd059038	-0.03260824
15	0x3cb5a011	0.022171052

block2.4.running_mean f4 [16]
0	0xbd7cf7a8	-0.06175962
1	0x3ea17393	0.3153349
2	0xbcbd4aac	-0.023106895
3	0xbd9d71b6	-0.07687704
4	0x3d88f063	0.06686475
5	0x3e947efd	0.29003134
6	0xbe4f714b	-0.20258062
7	0xbe25e556	-0.16200766
8	0x3e7375d1	0.23775412
9	0xbdedc10c	-0.116090864
10	0x3e9a3e59	0.30125692
11	0x3d143c40	0.03619027
12	0x3d86e02a	0.06585725
13	0xbe8b106d	-0.2716097
14	0xbec06f72	-0.37585026
15	0xbd71dc0f	-0.059047755

block2.4.running_var f4 [16]
0	0x3e1c4715	0.1526149
1	0x3e44d23d	0.19220825
2	0x3e3e2f98	0.18572843
3	0x3df8ab2e	0.12142025
4	0x3e683c91	0.22679354
5	0x3e0470ce	0.12933657
6	0x3e5d3032	0.21600416
7	0x3e5863ac	0.21131772
8	0x3e101bd6	0.14073119
9	0x3de96624	0.11396435
10	0x3e0e6ac4	0.13907915
11	0x3e2f85df	0.17140912
12	0x3e04a783	0.12954526
13	0x3e5051f1	0.20343758
14	0x3e15595e	0.14584872
15	0x3dff4aa1	0.12465406

block3.0.weight f4 [48, 16, 3, 3]
0	0xbd0198e3	-0.031639945
1	0x3d7f632f	0.06235045
2	0x3cd32609	0.025774973
3	0x3d3d9b63	0.046290766
4	0xbd025a2a	-0.03182427
5	0x3c7273f1	0.01479815
6	0xbb8fa5b6	-0.004383768
7	0x3d261dc7	0.04055574
8	0xbc21e093	-0.009880203
9	0x3cad1e3f	0.021132587
10	0x3a2fdaf3	0.0006708346
11	0x3d414765	0.047187228
12	0x3c1740b9	0.00923174
13	0x3d34ddda	0.044156887
14	0x3d7fd416	0.06245812
15	0x3cc8f1bf	0.024529336
16	0x3d3f9d5a	0.04678092
17	0xbdacc0e5	-0.08435229
18	0x3c045fd4	0.008079488
19	0xbdd2d72e	-0.102949485
20	0x3d199038	0.037491053
21	0x3d8515ed	0.06498323
22	0x3cc5780b	0.024105093
23	0x3c73cabb	0.014879878
24	0x3dd7f7e6	0.1054533
25	0xbcf86b83	-0.030324703
26	0xbcb5b71e	-0.022182044
27	0x3d3c32e7	0.04594698
28	0xbdbfb382	-0.0936041
29	0x3b79bae0	0.003810577
30	0xbd548168	-0.051881224
31	0x3d588f86	0.05287125
32	0x3cda4821	0.026645722
33	0xbda85ef2	-0.082212344
34	0xbbd200f7	-0.0064088064
35	0x3dd4c15c	0.10388443
36	0x3c6358c5	0.013876145
37	0x3ccff95b	0.025387457
38	0xbcc4216c	-0.023941718
39	0x3d7d9e96	0.061918817
40	0xbcfdfa33	-0.031003093
41	0x3cba80f3	0.022766566
42	0xbd915bdd	-0.070976
43	0x3d12ec22	0.035869725
44	0x3d43fe93	0.047850203
45	0xbd8320d3	-0.06402745
46	0x3dacfc3a	0.08446546
47	0xbaa26128	-0.0012388574
48	0x3d93c714	0.072157055
49	0xbd3d607a	-0.046234585
50	0x3d5404fe	0.051762573
51	0xbc900ce8	-0.01758428
52	0x3af5e07c	0.0018758918
53	0xbd928aed	-0.07155404
54	0x3cd819ec	0.026379548
55	0xbdab8dcb	-0.08376654
56	0x3d158a28	0.03650871
57	0xbdca9de0	-0.098933935
58	0xbd17871f	-0.036994096
59	0xbbe97660	-0.007124707
60	0x3c9fbb63	0.019498533
61	0x3b0c13f8	0.0021374207
62	0x3ce3d6f1	0.027812453
63	0x3c9f3dbf	0.019438623
64	0x3c8fd85b	0.017559221
65	0xbd8107e6	-0.06300335
66	0x3d8e10da	0.06936808
67	0xbccd18f2	-0.025036309
68	0xbc9f6f0c	-0.019462131
69	0x3d1af27b	0.037828904
70	0xbd8e72df	-0.06955504
71	0x3dae87f0	0.08522022
72	0x3ae39ae6	0.0017364889
73	0x3cfed2a8	0.031106308
74	0xbd1b1aa3	-0.0378672
75	0xbd889d25	-0.06670598
76	0xbcb021ad	-0.021500433
77	0xbc80ca9d	-0.015721614
78	0xbc064f35	-0.008197595
79	0xbd06f6e8	-0.032950312
80	0xbdbb072b	-0.091322266
81	0x3d623c27	0.055233147
82	0x3d988548	0.074472964
83	0xbdaa7039	-0.08322186
84	0xbc1804c1	-0.009278477
85	0xbd831e2f	-0.064022414
86	0xbd900222	-0.07031657
87	0xb9c95fcd	-0.00038409085
88	0xbd1ff19f	-0.039048787
89	0xbd860f2e	-0.06545864
90	0x3d658319	0.056033228
91	0xbc966171	-0.01835701
92	0xbb9d99d8	-0.0048095994
93	0x3cba8352	0.022767697
94	0x3cc56caa	0.024099667
95	0x3c826df6	0.015921574
96	0xbd489b51	-0.048976246
97	0xbc206898	-0.009790562
98	0x3da481a3	0.08032539
99	0xbd8a6832	-0.06758155
100	0x3be38923	0.006943838
101	0xbdf1b903	-0.11802866
102	0xbd3ff3f1	-0.0468635
103	0xbcb1998f	-0.021679668
104	0xbd4e1e93	-0.050322127
105	0x3cda29dc	0.026631288
106	0xbd13c043	-0.036072027
107	0x3ddbc16a	0.1073025
108	0xbc299611	-0.01035072
109	0xbcca406b	-0.02468892
110	0xbcfb545f	-0.03067988
111	0xbcd060ca	-0.025436778
112	0xbcdf11cb	-0.027230164
113	0x3d1240a9	0.035706196
114	0xbd340e3e	-0.043958895
115	0xbdd22e05	-0.10262684
116	0xbda96326	-0.08270864
117	0xbd62add3	-0.055341553
118	0xbd659c34	-0.05605717
119	0xbd5a9f8c	-0.053374812
120	0x3db54899	0.088517375
121	0x3d4c7b96	0.04992255
122	0xbce86fae	-0.028373566
123	0x3d5a82ad	0.05334728
124	0xbc7035fc	-0.014661308
125	0xbdbf2b1e	-0.09334396
126	0x3d0d2244	0.034456506
127	0xbdbb5536	-0.09147112
128	0xbd3f16bd	-0.046652544
129	0xbd5a91bb	-0.053361636
130	0x3b1e8e3f	0.0024193672
131	0x3d6f4cef	0.05842298
132	0x3d43e7fb	0.047828656
133	0x3ca56543	0.020189887
134	0xbc532ca4	-0.012889061
135	0xbdce9c73	-0.10088434
136	0xbd808ac4	-0.062764674
137	0x3dccbc4b	0.099968515
138	0x3d2c4b71	0.042064134
139	0x3da4becc	0.08044204
140	0x3d2a25f3	0.041540097
141	0x3d06e461	0.032932643
142	0xbd8fb1ed	-0.070163585
143	0x3dfa6ba1	0.1222756
144	0x3d002a72	0.03129048
145	0x3d75c881	0.06000567
146	0xbc3ed7b5	-0.011648108
147	0xbda534ba	-0.080666974
148	0xbc8fcf68	-0.017554954
149	0xbcb24400	-0.02176094
150	0xbd82358e	-0.06357871
151	0x3c0364f2	0.008019673
152	0xbd163848	-0.036674768
153	0xbd062ec0	-0.032759428
154	0xbd85bdc3	-0.06530335
155	0x3b29e6b1	0.0025924856
156	0xbd6a4174	-0.057191327
157	0xbd71d188	-0.059037715
158	0xbd04960f	-0.03236967
159	0xbdce0e0b	-0.10061272
160	0xbdb6fca4	-0.08934906
161	0xbaeb17d8	-0.0017936183
162	0x3d85c027	0.06530791
163	0xbdcf1d76	-0.10113041
164	0x3d3e8008	0.04650882
165	0xbd9cf264	-0.0766342
166	0xbbf6935a	-0.00752489
167	0x3d6a24da	0.05716405
168	0x3c1ef661	0.009702296
169	0xbd76c5ba	-0.06024716
170	0xbd7ef7dc	-0.062248096
171	0xbd5084bf	-0.050907847
172	0xbd8edaa1	-0.06975294
173	0xbc990e53	-0.018683588
174	0x3c9690a0	0.01837951
175	0xbdc75944	-0.09733823
176	0x3cb78d8a	0.022406358
177	0xbc4ea055	-0.012611468
178	0x3cc2aa9e	0.023762997
179	0xbd902204	-0.07037738
180	0xbd6ee63f	-0.05832505
181	0xbda85791	-0.08219827
182	0xbd7fafb6	-0.06242343
183	0x3d801641	0.062542446
184	0xbc496af0	-0.012293562
185	0x3def7bdd	0.11693547
186	0x3c5cc01c	0.013473537
187	0x3c0d7d5a	0.008635843
188	0x3c20a991	0.009806053
189	0xbcd6b0bd	-0.026207322
190	0xbc15da8e	-0.009146346
191	0x3d747467	0.059681322
192	0xbc6d8814	-0.014497776
193	0x3ce612e8	0.028085187
194	0xbd01f9ad	-0.03173225
195	0x3d8a401b	0.067505084
196	0x3d2b10d8	0.04176411
197	0x3cfb468b	0.030673286
198	0xbdb44875	-0.088028826
199	0xbd312e82	-0.043257244
200	0x3c8478f4	0.016170956
201	0x3ba944c6	0.005165669
202	0x3c6e7caa	0.014556089
203	0xbd1153eb	-0.03548042
204	0x3d06d2b9	0.032915805
205	0x3d9c48b7	0.07631057
206	0x3d2a330b	0.041552585
207	0xbd139b19	-0.036036585
208	0xbd16a272	-0.036776014
209	0xbc0ff20f	-0.008785739
210	0x3cded96b	0.027203282
211	0x3d958f87	0.07302766
212	0xbd288512	-0.04114253
213	0x3d4987de	0.04920184
214	0xbcf60ce4	-0.030035444
215	0x3cf3724e	0.02971759
216	0x3c07f658	0.008298479
217	0xbaacc359	-0.0013180777
218	0xbd03cc1d	-0.03217708
219	0xbd9d7a07	-0.076892905
220	0xbcce145f	-0.025156198
221	0xbca4e4c1	-0.02012861
222	0x3db79216	0.089634106
223	0x3d8ff70b	0.070295416
224	0x3e1d2d94	0.15349418
225	0x3deed3ca	0.11661489
226	0xbcf78b41	-0.030217769
227	0x3d1e26fa	0.03861139
228	0x3d872e2b	0.06600603
229	0x3d355d90	0.04427868
230	0xbdae6e27	-0.08517104
231	0xbd0a08cd	-0.0336998
232	0x3da3edb3	0.08004322
233	0xbd34d206	-0.044145606
234	0x3d63c2b0	0.05560559
235	0xbd2a8f76	-0.04164072
236	0x3d278191	0.04089505
237	0x3d6db265	0.05803146
238	0x3d0854c3	0.03328396
239	0xbd5fb93a	-0.054620005
240	0x3c90e65b	0.017687967
241	0xbd933119	-0.07187099
242	0xbd8c1ea1	-0.068417795
243	0xbc6c6e37	-0.014430574
244	0x3cb26dbf	0.021780847
245	0x3d888545	0.06666044
246	0xbcacd98e	-0.021099832
247	0x3ddc60df	0.10760664
248	0x3d5ef846	0.05443599
249	0x3d277aca	0.040888585
250	0x3d2b7cf2	0.041867204
251	0xbdbb99ea	-0.09160216
252	0xbd94b2ea	-0.07260688
253	0xbcfd0e9c	-0.030890755
254	0x3ce05097	0.027382178
255	0xbd429399	-0.04750404

block3.0.bias f4 [48]
0	0xbda52aa5	-0.080647744
1	0x3d828707	0.06373411
2	0x3d30f095	0.043198187
3	0x3d42ecaa	0.04758898
4	0x3dab9c4a	0.08379419
5	0x3c058e74	0.008151639
6	0xbc46dc3e	-0.012137471
7	0xbd97b19b	-0.074069224
8	0xbd528303	-0.051394474
9	0xbd687e8a	-0.056761302
10	0xbd97388e	-0.07383834
11	0xbd2d51c1	-0.042314295
12	0xbc145654	-0.009053785
13	0xbbf3d181	-0.0074407463
14	0x3c046c1e	0.008082418
15	0xbd3d51fb	-0.04622076
16	0x3d80ee71	0.06295479
17	0xbd8ffb89	-0.070303984
18	0x3cddc017	0.027069135
19	0xbd2c18b5	-0.04201575
20	0x3d89990e	0.06718646
21	0xbd3c92ae	-0.046038322
22	0x3d9dd85d	0.07707284
23	0xbd711726	-0.058859967
24	0xbd694c8f	-0.056957778
25	0xbc4366ea	-0.011926392
26	0xbd6cd155	-0.057816822
27	0x3b4eb209	0.0031539223
28	0xbd93cb0f	-0.07216465
29	0xbbec852a	-0.007218023
30	0xbbf837d8	-0.0075750165
31	0xbccb45fa	-0.02481364
32	0x3c8d8ca8	0.017278984
33	0xbd4c07dc	-0.049812183
34	0x3d269880	0.04067278
35	0xbcb0592a	-0.021526892
36	0xbd3dd115	-0.046341974
37	0xbc925e0d	-0.017867113
38	0x3d055862	0.03255499
39	0xbd5372cb	-0.051623147
40	0xbd9cc45e	-0.076546416
41	0xbc629457	-0.013829312
42	0xbd7482ea	-0.059695162
43	0x3da91ee3	0.08257844
44	0xbd03c705	-0.03217222
45	0x3cb3fd02	0.02197123
46	0xbcf5e9ea	-0.030018765
47	0xbb32dbbe	-0.002729162

block3.1.weight f4 [48]
0	0x3f91d1d9	1.1392165
1	0x3f8dd982	1.1082003
2	0x3f922288	1.1416788
3	0x3f8e8261	1.1133538
4	0x3f910189	1.1328593
5	0x3f933023	1.1499065
6	0x3f8e470b	1.111543
7	0x3f8fb6c7	1.1227654
8	0x3f920707	1.1408395
9	0x3f8e0010	1.1093769
10	0x3f91b884	1.1384435
11	0x3f953d77	1.1659383
12	0x3f92a102	1.1455386
13	0x3f8f1056	1.117686
14	0x3f90b186	1.1304176
15	0x3f92fd48	1.1483545
16	0x3f8bd75b	1.0925096
17	0x3f8dd0c3	1.1079334
18	0x3f96c443	1.1778644
19	0x3f910d36	1.1332157
20	0x3f9416c9	1.1569453
21	0x3f934b9b	1.1507448
22	0x3f92a571	1.1456739
23	0x3f9110f1	1.1333295
24	0x3f97b1a6	1.1851089
25	0x3f8e8b35	1.1136233
26	0x3f90d153	1.1313881
27	0x3f91c0f8	1.1387014
28	0x3f8e0191	1.1094228
29	0x3f944d89	1.1586162
30	0x3f903570	1.1266308
31	0x3f934196	1.150439
32	0x3f90deea	1.1318028
33	0x3f9043f1	1.1270734
34	0x3f9246f0	1.1427898
35	0x3f91a082	1.1377108
36	0x3f9226a6	1.1418045
37	0x3f9646d7	1.1740369
38	0x3f8d92f1	1.1060468
39	0x3f92a5cf	1.1456851
40	0x3f8f8355	1.1211954
41	0x3f914142	1.134804
42	0x3f904b13	1.1272911
43	0x3f939cc2	1.1532214
44	0x3f8eb80f	1.114992
45	0x3f8e6f77	1.1127766
46	0x3f907c78	1.1287985
47	0x3f93e785	1.1555029

block3.1.bias f4 [48]
0	0x3d4ba1fa	0.04971502
1	0x3d1a15aa	0.037618317
2	0x3d2978ad	0.04137485
3	0x3d09aa9f	0.033609983
4	0xbb5a4db8	-0.0033310484
5	0x3dab3e08	0.08361441
6	0x3cba642a	0.02275284
7	0x3c91d64c	0.01780238
8	0x3d1183b3	0.03552599
9	0x3d1a50de	0.037674777
10	0x3c863b39	0.016385661
11	0x3d14f234	0.036363795
12	0x3d5d3acc	0.05401115
13	0xbb3ce9b6	-0.0028825826
14	0x3d4595b2	0.048238464
15	0x3cf59b03	0.029981142
16	0x3d1c742e	0.038196735
17	0x3ca6d39b	0.020364573
18	0x3d5bc9e0	0.05365932
19	0x3d1759dd	0.036950935
20	0x3d3cabe5	0.04606237
21	0x3d7507b8	0.059821814
22	0x3d15293b	0.036416274
23	0x3d0a8894	0.033821657
24	0x3ce790ae	0.02826723
25	0x3d5869ac	0.05283515
26	0x3d890ff1	0.06692494
27	0x3d05df23	0.032683503
28	0x3cf9fdd9	0.030516552
29	0x3d181501	0.037129406
30	0x3cf4e800	0.029895782
31	0x3d04c138	0.03241083
32	0x3d2ef90f	0.04271799
33	0x3ce9fb14	0.028562106
34	0x3d387d63	0.045041453
35	0x3d647e1a	0.055784322
36	0x3cacd727	0.021098686
37	0x3d1356e0	0.035971522
38	0x3b80bfbc	0.0039291065
39	0x3d5936b9	0.053030703
40	0x3d7ad69e	0.06123983
41	0x3d2719a2	0.04079593
42	0x3d57b875	0.052666146
43	0x3d2b8a85	0.04188015
44	0x3c83bd16	0.016081374
45	0x3d676510	0.056492865
46	0x3d28ecf2	0.041241594
47	0x3cd32299	0.025773333

block3.1.running_mean f4 [48]
0	0xbebc359b	-0.36759648
1	0x3cc9a43b	0.024614444
2	0x3e77adae	0.24187347
3	0x3e194cb8	0.14970672
4	0x3f2ecdea	0.6828295
5	0x3ee9aa1d	0.456376
6	0x3e3f1550	0.18660474
7	0xbdad2107	-0.08453565
8	0xbe4fcec5	-0.2029372
9	0x3ec0aa8c	0.37630117
10	0x3cec615c	0.028855018
11	0xbe8189a8	-0.25300336
12	0x3e2f5607	0.1712266
13	0xbc84bba1	-0.01620275
14	0xbd9ff06c	-0.07809529
15	0x3de62ace	0.11238633
16	0x3e92ac65	0.28647152
17	0xbdd3b79f	-0.10337757
18	0x3e3892fd	0.18024822
19	0x3eb3b1a3	0.35096464
20	0x3e2022e1	0.15638305
21	0x3ed09aaa	0.40743
22	0x3d35e267	0.044405367
23	0x3de632d1	0.11240161
24	0xbe9345be	-0.28764147
25	0x3e5e7be4	0.21726948
26	0x3e59a8db	0.2125582
27	0x3e376c84	0.17912489
28	0x3e8098b8	0.25116515
29	0x3e606701	0.21914293
30	0xbd63c908	-0.05561164
31	0xbdfa347e	-0.12217043
32	0xbe4f2fcd	-0.20233078
33	0x3d96bd34	0.073603064
34	0x3db33840	0.08750963
35	0x3e013984	0.12619597
36	0x3c5e089c	0.013551857
37	0x3ef501b6	0.47852868
38	0x3ed52d81	0.4163628
39	0xbd20752f	-0.039174255
40	0x3e3e4bdb	0.18583624
41	0x3dba4502	0.090951934
42	0x3de85393	0.113440655
43	0xbda5fef4	-0.08105269
44	0x3eb2bf70	0.3491168
45	0x3e853115	0.2601401
46	0x3e1e71e5	0.15473135
47	0x3e198734	0.14992982

block3.1.running_var f4 [48]
0	0x3e854176	0.26026505
1	0x3e5798ea	0.21054426
2	0x3eb1f63b	0.3475817
3	0x3e999d96	0.3000304
4	0x3e8b00c8	0.27149034
5	0x3ec4983c	0.38397396
6	0x3edcea19	0.43147352
7	0x3eb402ed	0.35158482
8	0x3ea7e451	0.3279138
9	0x3e97a37d	0.2961692
10	0x3e79179a	0.2432541
11	0x3e87c6c8	0.26518846
12	0x3eaf6e8c	0.34264028
13	0x3e554ffd	0.20831294
14	0x3ed25a0e	0.4108433
15	0x3e65bed3	0.22436075
16	0x3eb3379b	0.3500336
17	0x3e942455	0.2893397
18	0x3eb8849a	0.36038667
19	0x3e96049c	0.29300392
20	0x3ecfd048	0.40588593
21	0x3ec26948	0.37970948
22	0x3e746533	0.2386673
23	0x3eb945b3	0.3618599
24	0x3ea0329f	0.3128862
25	0x3ed0be9e	0.4077043
26	0x3eb537fa	0.3539427
27	0x3e698d16	0.22807726
28	0x3ed92628	0.42411923
29	0x3ea76dfa	0.32701093
30	0x3eadf160	0.33973217
31	0x3e9a1beb	0.30099425
32	0x3e9a1292	0.30092293
33	0x3ebbc88c	0.36676443
34	0x3ecf683d	0.40509215
35	0x3eb1ac23	0.34701642
36	0x3e91a641	0.28447154
37	0x3eace63b	0.33769402
38	0x3e90adde	0.2825765
39	0x3ea02a85	0.3128244
40	0x3ed35e8d	0.41283074
41	0x3ecd2ce4	0.4007331
42	0x3f041fde	0.51611125
43	0x3ecb2beb	0.39681944
44	0x3eb77fbe	0.35839647
45	0x3ec8626d	0.39137593
46	0x3e774fc3	0.2415152
47	0x3ecc4f6a	0.39904338
