src/models/mnist_model_20241222_185313.pth (torch, 109309 bytes, 34 tensors)

block1.0.weight f4 [16, 1, 3, 3]
0	0x3e8c93fb	0.2745665
1	0x3e9a78df	0.30170342
2	0xbdb1df4e	-0.0868517
3	0x3e95654f	0.29178855
4	0xbd929b9d	-0.07158587
5	0x3d07b47f	0.03313112
6	0xbe1b4a29	-0.15165009
7	0x3e45bbfd	0.19309993
8	0x3e94987e	0.29022592
9	0xbe88e7c6	-0.2673933
10	0x3e656277	0.22400843
11	0x3bc58470	0.0060277507
12	0x3e81a238	0.25319076
13	0x3dde7ca6	0.108636186
14	0x3e4cb802	0.19992068
15	0xbd27dcb8	-0.04098198
16	0x3e8c074c	0.27349317
17	0x3d937f0b	0.07201966
18	0xbe276b7d	-0.16349597
19	0x3de05eb1	0.10955561
20	0xbe046db4	-0.12932473
21	0xbdb5f97d	-0.08885477
22	0xbda29a93	-0.07939639
23	0x3e857797	0.26067802
24	0xbe9701f3	-0.29493675
25	0xbdeca74e	-0.11555348
26	0xbd86f681	-0.06589986
27	0xbe4a0bda	-0.19731084
28	0x3c166559	0.009179437
29	0xbeb986b9	-0.36235598
30	0x3ead362d	0.33830395
31	0xbe75adbc	-0.23992056
32	0x3e765d0e	0.24058935
33	0x3dea6f42	0.11447002
34	0xbd6c8883	-0.057747375
35	0x3e4b1abf	0.19834422
36	0x3cf2b61b	0.02962785
37	0x3e923b26	0.28560752
38	0x3d928a23	0.07155254
39	0xbda89cba	-0.08233018
40	0x3de4eca4	0.11177948
41	0xbdd10d09	-0.102075644
42	0x3de4d715	0.11173836
43	0x3e933ecf	0.28758857
44	0x3e4f66f3	0.20254116
45	0xbe02c515	-0.12770493
46	0x3e440b38	0.19144905
47	0x3b552db1	0.0032528455
48	0x3e4a7449	0.19770922
49	0xbe3ec68d	-0.18630429
50	0xbeabc216	-0.33546513
51	0xbe065269	-0.13117374
52	0xbe64cab6	-0.22342953
53	0x3e9c4dc0	0.3052807
54	0x3db1a3bc	0.08673808
55	0x3e17e3aa	0.1483294
56	0x3e03e872	0.1288164
57	0xbd0e1ec7	-0.03469732
58	0x3e6bfb26	0.23045024
59	0xbe678a24	-0.2261129
60	0xbd512862	-0.051063903
61	0xbe8c3042	-0.27380568
62	0x3d76fcd2	0.060299702
63	0xbe00d76a	-0.12582174
64	0x3d79035d	0.060794223
65	0xbdbf3dc6	-0.09337954
66	0x3e86cf69	0.26330116
67	0xbe4a82eb	-0.19776504
68	0xbe6ae47e	-0.22938725
69	0xbe205b48	-0.15659821
70	0x3ea7d63c	0.32780635
71	0x3e1351d4	0.14386684
72	0x3e8b2a07	0.27180502
73	0xbe99fb16	-0.30074376
74	0xbebe537d	-0.37173072
75	0xbe855d05	-0.2604753
76	0xbe64174d	-0.22274514
77	0x3d6ee2c6	0.058321737
78	0x3e119f67	0.14220963
79	0x3e847f24	0.2587825
80	0xbe786e8c	-0.2426092
81	0xbe80b0a9	-0.2513478
82	0x3e13d6e9	0.1443745
83	0xbe0b5877	-0.13607965
84	0x3e438aa0	0.1909585
85	0xbda9781b	-0.082748614
86	0x3e4f5e76	0.20250878
87	0xbe760f28	-0.24029219
88	0xbe27fbe7	-0.16404687
89	0x3e07827d	0.13233371
90	0x3d82cbfb	0.063865624
91	0xbdf16d30	-0.11788404
92	0x3e1963fb	0.14979546
93	0x3e81cabf	0.25349995
94	0xbe80f505	-0.25186935
95	0xbe311020	-0.17291307
96	0x3e9ea51b	0.3098534
97	0xbe066eba	-0.13128176
98	0xbdbb4c4b	-0.09145411
99	0xbe8ddf46	-0.27709407
100	0xbd3ce6dc	-0.046118602
101	0x3e3dd915	0.18539841
102	0x3c739d8b	0.014869104
103	0xbdf6d9f8	-0.12053293
104	0x3d6da0a7	0.05801454
105	0xbde8cbed	-0.11367021
106	0xbe4321d3	-0.19055872
107	0xbe88e77d	-0.26739112
108	0xbe9583f8	-0.29202247
109	0xbe37de21	-0.17955829
110	0x3ec4d2a9	0.3844197
111	0x3d9f41b8	0.07776207
112	0x3e31601e	0.17321822
113	0xbe8afa69	-0.27144173
114	0xbe05cb06	-0.13065729
115	0xbd89f1c1	-0.06735564
116	0x3cbd6153	0.023117697
117	0xbe9a592e	-0.30146164
118	0xbd89d369	-0.067297764
119	0xbe5d1d56	-0.21593222
120	0x3d805d4e	0.062677965
121	0xbd2ebe1d	-0.042661775
122	0xbcf3b118	-0.02974753
123	0xbe6e2033	-0.2325447
124	0xbe130efb	-0.14361183
125	0xbe67792c	-0.22604817
126	0xbdfd6b0b	-0.123739325
127	0xbe86efdf	-0.26354882
128	0x3e93e8c5	0.28888527
129	0xbd9ec450	-0.077522874
130	0x3e92bb4b	0.28658518
131	0x3e293bcb	0.16526715
132	0xbe86ea13	-0.2635046
133	0x3e74a406	0.23890695
134	0xbd6cd435	-0.057819564
135	0xbe1947dd	-0.1496882
136	0xbe7b3888	-0.24533284
137	0xbe8a1570	-0.2696948
138	0x3b1d22b7	0.002397699
139	0xbdb85441	-0.09000445
140	0x3e20a09b	0.15686266
141	0xbe93976c	-0.28826463
142	0x3e8fc4d0	0.28079844
143	0xbe6338c2	-0.2218962

block1.0.bias f4 [16]
0	0xbd8e5444	-0.06949666
1	0x3d154c70	0.03644985
2	0x3e3fa1c8	0.18714058
3	0x3ea63a96	0.32466573
4	0x3e8b0da7	0.27158853
5	0xbe8bc4f9	-0.27298716
6	0x3df62de9	0.120204754
7	0xbddd1e82	-0.107968345
8	0xbd25af4b	-0.040450376
9	0xbe818950	-0.25300074
10	0x3e91bbb9	0.28463534
11	0xbe64571b	-0.22298853
12	0x3e172b84	0.14762694
13	0x3df193ad	0.11795745
14	0x3dd02ab3	0.10164394
15	0xbe65249f	-0.22377251

block1.1.weight f4 [16]
0	0x3f73ac9c	0.95185256
1	0x3f75adc3	0.95968264
2	0x3f815f29	1.0107166
3	0x3f8197e0	1.0124474
4	0x3f6e91e3	0.93191355
5	0x3f896080	1.0732574
6	0x3f8428fd	1.0325009
7	0x3f81da0e	1.014467
8	0x3f6f7b8e	0.93547904
9	0x3f82a506	1.0206611
10	0x3f8289e2	1.0198328
11	0x3f823d4d	1.0174958
12	0x3f7b0fa1	0.9807072
13	0x3f837b61	1.0272027
14	0x3f7e3896	0.99305093
15	0x3f80cae2	1.0061915

block1.1.bias f4 [16]
0	0xbd5f832c	-0.054568455
1	0xbc6e5224	-0.014545951
2	0x3d1fdd7d	0.039029587
3	0x3d2c09fd	0.042001713
4	0xbd19891c	-0.037484273
5	0xba85eeae	-0.0010218227
6	0x3cf04e10	0.029334098
7	0xbdb8e560	-0.09028125
8	0xbd65fe7c	-0.0561509
9	0x3c08c167	0.008346892
10	0xbba6a91c	-0.0050860774
11	0xbc2f9188	-0.01071585
12	0xbd0ada78	-0.033899754
13	0x3c02f2ac	0.007992428
14	0x3d19b26d	0.037523676
15	0xbc09d39b	-0.008412267

block1.1.running_mean f4 [16]
0	0x3d89ac00	0.067222595
1	0x3e0fe123	0.14050727
2	0x3df17b78	0.11791128
3	0x3ea5b1f7	0.3236234
4	0x3ec66b67	0.38753816
5	0xbea0d2b0	-0.31410742
6	0x3e04700a	0.12933365
7	0xbdd9c48c	-0.106331915
8	0xbe01e97b	-0.12686722
9	0xbe8e1fc4	-0.2775861
10	0x3e9484fc	0.2900771
11	0xbea27fc6	-0.31738108
12	0x3de66343	0.112494014
13	0xbd0de6cb	-0.03464393
14	0x3dfdb1ac	0.12387404
15	0xbea81a6a	-0.32832652

block1.1.running_var f4 [16]
0	0x3d9474d3	0.07248845
1	0x3d673947	0.05645111
2	0x3cc9660d	0.024584794
3	0x3c4521f0	0.012032017
4	0x3d627242	0.055284746
5	0x3c55c24b	0.013046811
6	0x3c0bb656	0.008527359
7	0x3bc0a61d	0.0058791772
8	0x3d37fcf6	0.044918977
9	0x3bf0e4f4	0.007351512
10	0x3c5876fa	0.01321196
11	0x3d1d1131	0.038346473
12	0x3c2d0306	0.010559803
13	0x3da6d956	0.08146922
14	0x3cab97e7	0.020946456
15	0x3d3402f9	0.043948147

block1.3.weight f4 [16, 16, 3, 3]
0	0x3da97512	0.082742825
1	0x3d19573f	0.03743672
2	0x3cc471be	0.023980018
3	0xbdb01dc1	-0.08599425
4	0x3ccda85f	0.0251047
5	0xbc998d21	-0.018744053
6	0xbd75b33f	-0.059985396
7	0x3d66ab1e	0.056315534
8	0x3b3dc37b	0.0028955627
9	0xbd2999b2	-0.04140634
10	0xbd023d03	-0.031796467
11	0xbbfc615d	-0.0077020363
12	0x3cc7ed18	0.024405047
13	0xbd3b411f	-0.0457164
14	0xbd874d5c	-0.06606552
15	0xbcfcc8a2	-0.030857388
16	0xbd89ff75	-0.06738178
17	0x3c54f7dc	0.012998547
18	0x3d8b1b1f	0.06792282
19	0xbdc75c44	-0.09734395
20	0xbcc31bae	-0.02381691
21	0x3cc2f8a7	0.023800207
22	0xbc44a77d	-0.012002823
23	0xbd51d43e	-0.0512278
24	0x3cb2554d	0.02176919
25	0x3d762c0e	0.060100608
26	0x3c36ce74	0.011157621
27	0xbd2492ac	-0.04017894
28	0xbcd16427	-0.025560452
29	0xbc9fed7e	-0.019522425
30	0x3be39baa	0.006946047
31	0xbcac6f22	-0.021049086
32	0x3c83e0b4	0.016098358
33	0x3df7c00a	0.120971754
34	0x3d34d176	0.04414507
35	0xbbc7d9bc	-0.006098954
36	0xbb82d638	-0.003992822
37	0xbb7f7a0a	-0.0038982653
38	0x3c658ade	0.014010159
39	0x3c804da4	0.015662022
40	0xbda4dd52	-0.08050026
41	0xbd21e817	-0.03952798
42	0x3d979f52	0.07403435
43	0x3cf44c9c	0.029821686
44	0xbc23df97	-0.010002038
45	0xbd2a3ebb	-0.04156373
46	0x3be6a752	0.007038989
47	0xbd2430c4	-0.04008557
48	0x3d0f2ae0	0.034953
49	0x3daaec0b	0.08345803
50	0x3d9652fd	0.073400475
51	0x3d654ad1	0.055979554
52	0xbd5c0fd3	-0.05372603
53	0xbc1aef87	-0.009456522
54	0x3d13510f	0.035965975
55	0x3e0c422c	0.13697118
56	0x3db21256	0.086949036
57	0x3c136be7	0.008997894
58	0x3dab3a94	0.08360782
59	0x3be6f82e	0.0070486283
60	0xbd86e9f1	-0.065875895
61	0x3d170477	0.036869492
62	0xbd33ee6b	-0.043928545
63	0xbce19ced	-0.027540648
64	0xbd820b63	-0.06349828
65	0xbb7180cd	-0.0036850453
66	0x3db0a0a6	0.08624391
67	0x3d098911	0.033577982
68	0xbd49eb5e	-0.04929673
69	0xbd586a6f	-0.052835878
70	0xbd672566	-0.05643215
71	0x3d500e5a	0.050794937
72	0xbc608ceb	-0.013705472
73	0x3d54daf2	0.051966615
74	0x3d0164fa	0.03159044
75	0x3d0c09a4	0.03418888
76	0x3cf5fa3b	0.030026546
77	0xbcb87bfa	-0.022520054
78	0xbd42fa12	-0.047601767
79	0xbd8f6b13	-0.07002845
80	0x3d06f29e	0.03294622
81	0xbc341cfb	-0.010993238
82	0xbcc9cd70	-0.024634093
83	0xbdc00283	-0.09375479
84	0xbd41a5d6	-0.047277294
85	0xbddbed69	-0.10738642
86	0xbdc1da8f	-0.09465515
87	0x3941cb78	0.00018481712
88	0xbc352f3c	-0.011058625
89	0x3cde5e89	0.027144687
90	0xbcf5be3f	-0.029997943
91	0xbd99bd90	-0.07506859
92	0xbba44b52	-0.0050138617
93	0xbd99cb3a	-0.075094655
94	0xbd0a900e	-0.033828788
95	0xbdba7222	-0.091038
96	0x3b5e62c6	0.0033933385
97	0xbcfaa7ee	-0.030597653
98	0x3d7731c4	0.060350195
99	0x3d59e088	0.053192645
100	0x3d97b8db	0.07408305
101	0xbda64c98	-0.08120078
102	0x3d7ec970	0.062203825
103	0xbd41fd13	-0.04736049
104	0x3d039c66	0.032131575
105	0x3d9cc172	0.07654084
106	0xbc7bfe1d	-0.01538041
107	0xbc585d69	-0.0132058645
108	0x3d4a4b71	0.049388353
109	0xbd3b4850	-0.04572326
110	0x3d057cf2	0.03258986
111	0xbd7072f9	-0.058703396
112	0x3c99ce4b	0.018775126
113	0x3d502d24	0.0508243
114	0x3d8c7f05	0.068601646
115	0xbda4c82a	-0.08045991
116	0xbde55399	-0.111975856
117	0x3bd8ffd8	0.006622296
118	0x3cb32668	0.0218689
119	0xbe03d423	-0.12873892
120	0xbd00208e	-0.031281047
121	0xbd7e3b98	-0.06206855
122	0xbc2b22f1	-0.010445342
123	0xbd1c8898	-0.038216203
124	0xbcaa96fb	-0.020823946
125	0xbc5b6272	-0.01339017
126	0xbcdb01b8	-0.026734218
127	0x3da0a761	0.07844425
128	0x3d94d80a	0.07267769
129	0xbc5aac06	-0.013346678
130	0xbd29dbd4	-0.04146941
131	0xbd58b238	-0.052904338
132	0xbdb9dc55	-0.09075228
133	0xbdc9b60b	-0.09849175
134	0x3bb94e16	0.0056550605
135	0xbda77a68	-0.08177644
136	0xbdb15864	-0.08659437
137	0xbd7cbb43	-0.061702024
138	0xbd2bd854	-0.041954353
139	0xbd2c34cc	-0.04204254
140	0x3b7b2ea9	0.0038327372
141	0xbbef08d9	-0.007294756
142	0xbc5fac4a	-0.013651917
143	0xbd07ccb1	-0.033154193
144	0xbdfa5c84	-0.12224677
145	0x3d21adbb	0.039472323
146	0xbd0bbaa2	-0.034113534
147	0xbc582887	-0.013193256
148	0xbd3ac151	-0.045594517
149	0x3cc56ce3	0.024099773
150	0x3dc5008d	0.09619246
151	0x3d2948ab	0.041329067
152	0xbda1f36e	-0.07907759
153	0x3cd9d505	0.026590833
154	0x3db3d1eb	0.08780273
155	0x3d34e255	0.04416116
156	0x3d56d37a	0.052447774
157	0x3da238b4	0.079209715
158	0xbc2179af	-0.009855672
159	0x3c8a315c	0.01686924
160	0xbd7edb50	-0.06222087
161	0xbc8798fb	-0.016552439
162	0x3d62e5dc	0.055394992
163	0x3d1483c5	0.036258478
164	0xbd70a060	-0.058746696
165	0xbd9dab73	-0.07698717
166	0xbda6d7d3	-0.08146634
167	0xbdf2f372	-0.1186284
168	0xbe058980	-0.13040733
169	0xbd5c8d15	-0.053845484
170	0x3d17e9ca	0.037088193
171	0x3d9df986	0.077136084
172	0xbd7276ff	-0.059195515
173	0xbd6571ee	-0.056016855
174	0x3d41d0d2	0.047318287
175	0xbd8c1faa	-0.06841977
176	0xbd09307d	-0.033493508
177	0x3d2b8366	0.04187336
178	0xbc77b875	-0.015119662
179	0xbd3800fd	-0.044922817
180	0xbd16e666	-0.03684082
181	0xbd0e6370	-0.0347628
182	0xbd2d5408	-0.042316467
183	0xbdb3bd7d	-0.087763764
184	0xbda62e7b	-0.08114334
185	0xbd2f3213	-0.042772364
186	0x3da197a1	0.07890249
187	0xbd2c9c0c	-0.042141005
188	0xbd40ac6f	-0.047039445
189	0xbca43fcc	-0.020049952
190	0xbc77b0b7	-0.015117816
191	0x3d1d2722	0.038367398
192	0x3d36c940	0.04462552
193	0x3da8be0d	0.08239374
194	0xbc7fab5b	-0.015604819
195	0x3dbb9106	0.091585204
196	0x3dafcdaf	0.08584153
197	0xbcf6a4bf	-0.030107854
198	0xbdee6f6d	-0.116423465
199	0x3d579592	0.052632876
200	0xbcd84423	-0.026399678
201	0xbd63f176	-0.055650197
202	0xbd1b2bea	-0.037883677
203	0x3d1abeff	0.037779804
204	0x3d5c4c9e	0.053784005
205	0x3b8ce62a	0.0042998986
206	0xbc63984d	-0.013891292
207	0xbc4c6e88	-0.012477525
208	0xbde219ea	-0.11040099
209	0x3d224ad9	0.03962216
210	0x3dc79fe0	0.097472906
211	0x3ccc56b9	0.024943696
212	0xbd6d9c06	-0.058010124
213	0x3c94eed2	0.018180285
214	0xbb7bf751	-0.0038446973
215	0xbd88b83f	-0.06675767
216	0x3ccac430	0.024751753
217	0x3d745606	0.05965235
218	0x3cc61274	0.024178721
219	0xbd5900c8	-0.05297926
220	0x3d5f056e	0.054448538
221	0xbdcf6b12	-0.10127844
222	0xbcdfa2e6	-0.027299356
223	0x3cb02502	0.021502022
224	0xbb00fce4	-0.0019681985
225	0x3dc97664	0.09837034
226	0xbc5bea60	-0.013422579
227	0x3cdfa6b5	0.027301172
228	0x3cf3a455	0.029741446
229	0x3cc93069	0.024559217
230	0x3c82c899	0.015964793
231	0xbd0f9772	-0.03505654
232	0x3c2031e8	0.009777524
233	0x3c9c8a5f	0.01910895
234	0x3d0af386	0.03392365
235	0xbd7b89c3	-0.061410677
236	0xbda44fba	-0.08023019
237	0x3d56b86a	0.052421965
238	0x3d92e645	0.07172827
239	0xbccac3eb	-0.024751624
240	0x3c90040d	0.017580057
241	0x3db9fe47	0.09081703
242	0x3c9d9fea	0.019241292
243	0xbcceadae	-0.025229301
244	0xbc97200e	-0.018447902
245	0xbd951259	-0.0727889
246	0xbdc8a5aa	-0.09797223
247	0xbd987379	-0.074439
248	0xbd64cf2e	-0.055861644
249	0xbc2b5774	-0.010457862
250	0xbd5379f1	-0.051629964
251	0xbd700618	-0.05859956
252	0x3d367fc6	0.044555448
253	0x3d7221b5	0.059114177
254	0x3da46624	0.08027294
255	0xbb7dfa77	-0.0038754025

block1.3.bias f4 [16]
0	0x3cc26a46	0.023732316
1	0xbdae1808	-0.08500677
2	0x3d19f06d	0.037582804
3	0xbc802257	-0.015641375
4	0x3d1b340b	0.03789143
5	0xbda4ff72	-0.08056535
6	0xbced9a3b	-0.029004207
7	0xbd4c667a	-0.049902417
8	0xbd1eebd9	-0.03879914
9	0x3c9de3ed	0.019273723
10	0xbd399b3c	-0.04531406
11	0xbd974731	-0.073866256
12	0x3d11ff90	0.035644114
13	0x3d0e17be	0.03469061
14	0x3da54075	0.08068935
15	0xbd38330a	-0.04497055

block1.4.weight f4 [16]
0	0x3f840289	1.0313274
1	0x3f74eca9	0.95673615
2	0x3f7ab83c	0.9793737
3	0x3f80ecb3	1.0072235
4	0x3f87c143	1.0605854
5	0x3f7db1a8	0.99099207
6	0x3f7d704b	0.9899947
7	0x3f761331	0.96123034
8	0x3f823ef6	1.0175464
9	0x3f819278	1.0122824
10	0x3f878ad2	1.058924
11	0x3f7b7e49	0.9823957
12	0x3f823954	1.0173745
13	0x3f8298ea	1.0202916
14	0x3f83c4a9	1.0294391
15	0x3f7c21e6	0.98489225

block1.4.bias f4 [16]
0	0xbdb45304	-0.088048965
1	0xbd094c93	-0.033520292
2	0xbd43c79b	-0.04779778
3	0x3bd85bc7	0.0066027376
4	0x3ca1b38e	0.019738939
5	0x3c8913e2	0.016733114
6	0xbd3c1b60	-0.045924544
7	0xbd42ca26	-0.047556065
8	0x3cd031a3	0.025414294
9	0xbcbe6949	-0.023243563
10	0x3d5159ea	0.05111114
11	0xbd2f49ec	-0.042795107
12	0xbbf9ed79	-0.007627186
13	0x3c2506ef	0.010072454
14	0xbd80d8ed	-0.06291375
15	0xbd166abf	-0.036722895

block1.4.running_mean f4 [16]
0	0xbeb7b190	-0.35877657
1	0xbec8abe6	-0.39193648
2	0xbebfbfc8	-0.37451005
3	0xbdf4d734	-0.11955109
4	0x3e898479	0.2685888
5	0xbeed7eb7	-0.46385738
6	0xbd9cd7ce	-0.07658349
7	0xbe271660	-0.16317129
8	0x3de3bf16	0.11120431
9	0x3d9fff62	0.07812382
10	0x3e3fe15b	0.1873831
11	0x3cdb3d30	0.026762575
12	0xbebda5be	-0.37040514
13	0x3df813e8	0.12113172
14	0xbe78063b	-0.24221127
15	0x3ec23f87	0.37939093

block1.4.running_var f4 [16]
0	0x3e3c0f43	0.18365197
1	0x3e1da465	0.15394743
2	0x3e5f8e5d	0.21831651
3	0x3e25e4ea	0.16200605
4	0x3f06fa90	0.5272608
5	0x3e3d4641	0.18483831
6	0x3e7cf5e0	0.24703169
7	0x3e4989a4	0.19681412
8	0x3f3aec01	0.73016363
9	0x3eb17c95	0.3466536
10	0x3eb258a5	0.34833255
11	0x3f26cdea	0.6515795
12	0x3e6c5119	0.23077811
13	0x3ed45cbd	0.41477004
14	0x3e618d3a	0.2202653
15	0x3e996c5a	0.29965478

block2.0.weight f4 [32, 16, 3, 3]
0	0xbc397a66	-0.011320686
1	0xbc0297d6	-0.007970771
2	0x3d875853	0.066086434
3	0x3bc30670	0.005951695
4	0x3ceb1ced	0.028700316
5	0x3d008f00	0.031386375
6	0xbce16487	-0.027513755
7	0x3d80151e	0.06254028
8	0x3da90a38	0.08253902
9	0x3d8bfcec	0.068353504
10	0x3ca391a6	0.019966912
11	0x3dc96601	0.09833909
12	0x3cdd5bd8	0.027021334
13	0xbcd005c8	-0.025393382
14	0xbbdd3798	-0.006751012
15	0xbcb5fff9	-0.022216784
16	0xbd0d77ed	-0.0345382
17	0x3cbaff6a	0.022826869
18	0x3daf445e	0.08557962
19	0x3c89ce34	0.016821958
20	0x3d6fdf14	0.058562353
21	0xbc6030aa	-0.013683477
22	0xbd2fd087	-0.042923477
23	0x3cd536e6	0.026027154
24	0xbdb95927	-0.090502076
25	0xbdba7102	-0.09103586
26	0xbd9b8b53	-0.07594933
27	0x39e3924a	0.00043405808
28	0xbc34b8d2	-0.011030393
29	0x3cdcd279	0.02695583
30	0xbde7b31c	-0.11313459
31	0x3d477e7d	0.048704613
32	0xbd379d1a	-0.044827558
33	0x3becff2f	0.0072325687
34	0x3d23830b	0.039919894
35	0xbd64e2a1	-0.055880193
36	0xbd20255c	-0.03909813
37	0x3cd3a519	0.02583556
38	0x3d0b2dbb	0.03397916
39	0xbcae2897	-0.02125959
40	0x3da5c482	0.080941215
41	0xbd6a7ba7	-0.05724683
42	0xbd9cc6c5	-0.076551
43	0x3d68c635	0.05682965
44	0xbd32cb05	-0.043650646
45	0x3dcf68a2	0.10127379
46	0xbd193945	-0.037408132
47	0xbc798ff9	-0.01523208
48	0x3d4d998a	0.050195254
49	0x3d752266	0.059847258
50	0x3ad7e70b	0.0016472054
51	0xbd8b288b	-0.06794842
52	0xbd21669e	-0.039404504
53	0xbd3631b8	-0.04448101
54	0x3e083ded	0.13304873
55	0xbb8952e0	-0.0041907877
56	0xbc5f2e2b	-0.013621847
57	0x3ccf9e15	0.025343934
58	0x3ae08d59	0.0017131969
59	0xbd50091b	-0.050789934
60	0xbd0500f7	-0.032471623
61	0xbc88a643	-0.016680842
62	0xbda66a17	-0.08125704
63	0x3d621689	0.055197272
64	0x3d5ba377	0.05362269
65	0xbd1e8fa0	-0.03871119
66	0xbd011b0b	-0.03151993
67	0xbc942c5d	-0.01808756
68	0xbdb99dba	-0.09063287
69	0x3d2bbd2c	0.041928455
70	0x3cd62334	0.026139833
71	0xbd8a74aa	-0.06760533
72	0x3d2d0a38	0.042246073
73	0xbd03a9e7	-0.032144453
74	0xbc44bc63	-0.0120078055
75	0xbd8e8ffd	-0.06961057
76	0x3bf076d0	0.0073383823
77	0x3d81e9cf	0.063434236
78	0x3c8979ea	0.016781766
79	0x3d0abd77	0.033872094
80	0xbcfe137f	-0.031015156
81	0x3d962843	0.07331898
82	0x3cf569ff	0.02995777
83	0x3cd0b719	0.025477933
84	0xbc2840cc	-0.010269355
85	0x3cc60821	0.024173798
86	0xbc2967ae	-0.010339661
87	0x3d90503b	0.07046553
88	0x3cc0a9f8	0.023518547
89	0x3ac3d605	0.0014941102
90	0xbcab47da	-0.020908285
91	0x3d1e16df	0.03859603
92	0x3dab26d6	0.08357017
93	0xbb8c3495	-0.004278729
94	0xb9b91e7c	-0.00035308662
95	0xbcae69c7	-0.021290673
96	0xbd42e923	-0.047585618
97	0xbde5e1fe	-0.11224745
98	0xbdc699cb	-0.096973024
99	0x3d1cf9af	0.038324054
100	0x3ccb30d3	0.024803555
101	0x3ba87d66	0.005141902
102	0x3de668d6	0.112504646
103	0xbd314842	-0.0432818
104	0xbd4d8c29	-0.050182495
105	0xbc6cd087	-0.014454014
106	0xbd39446a	-0.04523126
107	0xbd4f57bc	-0.05062078
108	0x3db2e503	0.08735087
109	0xbcc20458	-0.023683712
110	0xbcfb56a8	-0.03068097
111	0x3d1d6df0	0.038434923
112	0x3de02ab9	0.10945649
113	0x3d37c16a	0.04486219
114	0x3c445c3d	0.011984882
115	0x3bced895	0.0063124397
116	0x3d8fd1f3	0.070224665
117	0x3da1416e	0.07873808
118	0x3d04e27f	0.032442566
119	0xbcb2e176	-0.021836024
120	0xbdaab134	-0.0833458
121	0xbd961068	-0.07327348
122	0x3ccf96cb	0.025340458
123	0x3cee3fdb	0.029083183
124	0xbd92750c	-0.07151231
125	0x3d5d0155	0.05395635
126	0xba6d5cd1	-0.0009054663
127	0xbd368418	-0.04455957
128	0xbbceec5a	-0.0063147964
129	0xbd39227e	-0.04519891
130	0x3d452fc3	0.048141252
131	0xbb8171b5	-0.0039503225
132	0xbc9712fe	-0.018441673
133	0xbe153fa1	-0.14575054
134	0xbd953bac	-0.07286772
135	0x3c9c0104	0.019043453
136	0x3db909c6	0.09035067
137	0x3dc211a1	0.09476019
138	0x3c21e2ee	0.009880764
139	0xbddabecf	-0.10680925
140	0xbcbebb33	-0.023282623
141	0xbdcd23f6	-0.10016625
142	0xbddf35eb	-0.10898956
143	0xbd08eaee	-0.03342717
144	0xbcd53dc4	-0.026030429
145	0x3d8a0a32	0.06740226
146	0xbd023c32	-0.031795688
147	0x3cbeda6c	0.023297511
148	0x3d81758d	0.06321249
149	0xbd2ac44f	-0.04169112
150	0x3c9f1082	0.019417051
151	0xbd332a9a	-0.0437418
152	0xbc1012b3	-0.008793521
153	0x3cc97def	0.024596183
154	0xbd440c6e	-0.047863416
155	0xbdb4fd80	-0.08837414
156	0x3d198c50	0.037487328
157	0x3cd046be	0.025424358
158	0xbc8fcecf	-0.017554669
159	0x3d6f7929	0.058465157
160	0xbd706c1f	-0.058696862
161	0xbd324296	-0.043520533
162	0x3cb6e104	0.022324093
163	0x3d4ca837	0.04996511
164	0xbd4e37db	-0.050346237
165	0x38b9461a	8.834545e-05
166	0xbd2f2a5d	-0.04276501
167	0xbd030db3	-0.031995486
168	0x3d735965	0.059411425
169	0x3bdd6862	0.006756828
170	0xbc9263c7	-0.017869843
171	0xb99766d0	-0.00028877566
172	0x3cb131ab	0.021630129
173	0xbdd7b92c	-0.105333656
174	0xbd9aa93e	-0.07551812
175	0xbdd1b13e	-0.102388844
176	0xbd21f43e	-0.039539568
177	0xbdb55d2d	-0.088556625
178	0xbb327e1a	-0.0027235807
179	0x3c84a378	0.01619123
180	0xbd91a7a8	-0.07112056
181	0xbda7edd4	-0.08199659
182	0xbdcf3abb	-0.10118624
183	0xbd87e679	-0.06635756
184	0xbd154d38	-0.036450595
185	0xbdcc844b	-0.099861704
186	0xbd8590a1	-0.065217264
187	0x3d04e28f	0.032442626
188	0xbd329214	-0.043596342
189	0xbd4c17df	-0.049827453
190	0xbd024062	-0.03179968
191	0x3d8bda96	0.06828801
192	0xbe17afdd	-0.1481318
193	0xbdbcf35a	-0.09226103
194	0xbdcefe9d	-0.101071574
195	0xbd88dd91	-0.066828854
196	0xbc97cc4a	-0.01853003
197	0xbd1836d6	-0.03716167
198	0x3dbc798f	0.09202873
199	0xbd2dd118	-0.042435735
200	0x3cd699e0	0.02619642
201	0xbcff19f1	-0.0311403
202	0xbce4bd17	-0.027922196
203	0xbcfb1818	-0.030651137
204	0xbbeb0efd	-0.0071734176
205	0x3d8fb4c5	0.07016901
206	0xbd182ec4	-0.037153974
207	0x3c560f8e	0.013065232
208	0xbc944906	-0.018101227
209	0x3c8eb7d1	0.017421635
210	0x3c8fd2bf	0.017556546
211	0x3d262b94	0.040568903
212	0xbcebc136	-0.028778654
213	0xbd80457a	-0.062632516
214	0x3d228f86	0.039687656
215	0xbd2221fc	-0.03958319
216	0x3d81e580	0.06342602
217	0xbd284b6c	-0.041087553
218	0xbd5aa182	-0.053376682
219	0xbd4615d4	-0.04836066
220	0x3d74ee40	0.059797525
221	0x3bfae7bb	0.007657019
222	0xbdd29cd8	-0.10283822
223	0xbd147c4d	-0.036251355
224	0xbd0b5abb	-0.034022074
225	0x3d36d08a	0.044632472
226	0x3d49b8ea	0.049248613
227	0x3c292505	0.010323768
228	0x3c157a68	0.009123422
229	0xbd8818f3	-0.06645384
230	0x3b5dfb13	0.0033871576
231	0xbe245e42	-0.16051582
232	0xbdb971fb	-0.09054943
233	0xbc92ddc5	-0.017928014
234	0x3dda20d6	0.10650794
235	0x3da55d5d	0.08074448
236	0x3d47474e	0.048651986
237	0x3da0e429	0.07856018
238	0x3d06d518	0.032918066
239	0x3c9181c2	0.017762069
240	0xbc5df3df	-0.013546913
241	0x3d94be90	0.072629094
242	0x3dcb95b8	0.09940666
243	0xbd58b014	-0.052902296
244	0x3c9092de	0.017648157
245	0xbbf4cac4	-0.0074704606
246	0x3c78cf87	0.015186197
247	0xbd76b398	-0.060229868
248	0x3d72153c	0.059102282
249	0xbd11bc78	-0.03558013
250	0x3d453ffc	0.048156723
251	0x3d37b49f	0.044849988
252	0xbd755576	-0.059895955
253	0xbc30c65c	-0.01078948
254	0xbceb4b82	-0.028722528
255	0xbdb4ed7d	-0.0883436

block2.0.bias f4 [32]
0	0xbd51bb65	-0.051204104
1	0x3c07d038	0.008289389
2	0xba1e8357	-0.0006046793
3	0xbc666729	-0.014062681
4	0xbd4ee492	-0.05051095
5	0xbda9bc8c	-0.082879156
6	0xbdac2e6c	-0.08407292
7	0xbca1e222	-0.019761149
8	0x3c7760bb	0.015098746
9	0x3daa4e43	0.083157085
10	0xbd8ff025	-0.07028226
11	0xbdb86298	-0.0900318
12	0x3d99fa3c	0.075184315
13	0x3d8dee76	0.069302484
14	0xbd81ca29	-0.06337387
15	0xbcb76831	-0.02238855
16	0x39578fd4	0.00020557578
17	0x3cdacc54	0.02670876
18	0xba483ca6	-0.0007638432
19	0x3d11c19b	0.035585027
20	0x3da3294c	0.07966861
21	0x3dc8709a	0.09787102
22	0xbbe9e53b	-0.007137922
23	0x3d4c22cc	0.049837872
24	0xbd5e7b4c	-0.054316804
25	0x3c3e2053	0.011604386
26	0x3d83d971	0.06437958
27	0xbd78a245	-0.060701627
28	0xbdae033c	-0.08496711
29	0xbd8a25b9	-0.06745476
30	0x3cfea66a	0.031085212
31	0x3da6b84a	0.08140619

block2.1.weight f4 [32]
0	0x3f818f9c	1.0121951
1	0x3f84b2ca	1.0367062
2	0x3f8469ae	1.0344751
3	0x3f7ec6da	0.99522173
4	0x3f7b8e59	0.9826408
5	0x3f7ef423	0.99591273
6	0x3f822ced	1.016996
7	0x3f78f0c3	0.97242373
8	0x3f779a3b	0.9671971
9	0x3f7ac6dc	0.97959685
10	0x3f7963f5	0.9741815
11	0x3f817c22	1.0116007
12	0x3f82fc18	1.0233183
13	0x3f7fb2f4	0.99882436
14	0x3f840081	1.0312654
15	0x3f718da1	0.94356734
16	0x3f77f73c	0.96861625
17	0x3f7c4e0b	0.98556584
18	0x3f86c533	1.052893
19	0x3f7dd130	0.9914732
20	0x3f84dd31	1.0380002
21	0x3f7b3c9a	0.98139346
22	0x3f7b5308	0.9817357
23	0x3f847fdb	1.0351518
24	0x3f7fd3f9	0.9993282
25	0x3f7b1995	0.9808591
26	0x3f836acb	1.0266966
27	0x3f7f8cbf	0.99824136
28	0x3f7a53f0	0.9778433
29	0x3f7631ed	0.9616993
30	0x3f84dd1e	1.037998
31	0x3f810814	1.008059

block2.1.bias f4 [32]
0	0x3cabe47e	0.020982977
1	0xbc8378c6	-0.0160488
2	0xba92cb15	-0.0011199439
3	0xbd05a807	-0.032630946
4	0xbd2ec4b5	-0.042668063
5	0xbd34b6fc	-0.04411982
6	0xbc5bda57	-0.0134187555
7	0xbd5bfaea	-0.053706087
8	0xbd12bbe9	-0.035823736
9	0xbaa05fe3	-0.0012235608
10	0xbd01719b	-0.031602483
11	0xbcced2c8	-0.025246993
12	0xbdc3a613	-0.095531605
13	0xbd111532	-0.035420604
14	0x3b944528	0.0045248456
15	0xbd2dac53	-0.04240067
16	0xbd2be7c4	-0.041969076
17	0x3bd14326	0.0063861785
18	0xbd5e4467	-0.054264452
19	0xbc280982	-0.010256173
20	0xbc45c476	-0.012070766
21	0xbcd136c2	-0.025538806
22	0xbb939414	-0.0045037363
23	0xbd221324	-0.039569035
24	0xbcdcde54	-0.026961483
25	0xbc9d9faf	-0.019241182
26	0xbbb2fc2d	-0.0054621906
27	0x3be92bf8	0.007115837
28	0xbdc806a2	-0.0976689
29	0xbdd52f8f	-0.10409462
30	0x3c8379ea	0.016049344
31	0xbdba3183	-0.09091475

block2.1.running_mean f4 [32]
0	0xbdc5ed7e	-0.09664439
1	0xbefc2249	-0.49244907
2	0xbf0a3528	-0.5398736
3	0xbe3e8488	-0.18605244
4	0xbecbab7e	-0.39779276
5	0x3e730108	0.23730862
6	0xbf18813f	-0.59572214
7	0xbfb8c650	-1.443552
8	0x3e9ab661	0.3021727
9	0xbecf7b46	-0.40523738
10	0x3d25344e	0.040333085
11	0xbeedd648	-0.46452546
12	0x3e984696	0.29741353
13	0xbfc975b3	-1.5739044
14	0xbebf4ffc	-0.3736571
15	0x3ef02ea4	0.46910584
16	0xbcba12d1	-0.02271405
17	0x3e4603ce	0.19337389
18	0x3eb12dd3	0.34605274
19	0x3d19e74f	0.03757411
20	0x3d5af453	0.053455662
21	0x3e720fa9	0.23638786
22	0xbe64d90d	-0.22348423
23	0x3f03f70b	0.5154883
24	0x3e9b51b2	0.30335766
25	0xbf9505f6	-1.1642444
26	0x3e70bb3a	0.23508921
27	0x3db4a591	0.08820642
28	0x3ef9c29b	0.48781285
29	0x3f499b6f	0.787528
30	0x3e88b669	0.26701668
31	0xbe843303	-0.2582017

block2.1.running_var f4 [32]
0	0x3f46fe9e	0.77732265
1	0x3f35224f	0.70755476
2	0x3f663b96	0.8993467
3	0x3f388b74	0.7208779
4	0x3f8fd4c0	1.1236801
5	0x3ee2dbc2	0.44308287
6	0x3f3a1feb	0.7270495
7	0x3f8e2094	1.1103692
8	0x3f0f87da	0.5606667
9	0x3f3d3dbc	0.73922324
10	0x3f0ba84e	0.5455369
11	0x3f139f37	0.5766482
12	0x3f00712a	0.50172675
13	0x3fcc8587	1.5978249
14	0x3efdf859	0.49603537
15	0x3f229c76	0.6351999
16	0x3f750381	0.9570847
17	0x3f0e34b3	0.5554916
18	0x3eca84c3	0.39554414
19	0x3f1d5876	0.61463106
20	0x3f74da15	0.95645267
21	0x3f56d931	0.8392516
22	0x3f4bdc54	0.7963307
23	0x3f1e970d	0.61949235
24	0x3f116b83	0.56804675
25	0x400d0f55	2.2040608
26	0x3f172246	0.5903667
27	0x3efbed7b	0.4920462
28	0x3f5bb637	0.8582491
29	0x3f7942c9	0.9736753
30	0x3f434ac8	0.7628598
31	0x3f1eabba	0.61980784

block2.3.weight f4 [16, 32, 3, 3]
0	0x3cc6fdda	0.024290968
1	0x3c3bbef7	0.011459104
2	0x3d0a9756	0.03383573
3	0xbd6f83a8	-0.058475167
4	0x3c939c88	0.018018976
5	0xbd288d44	-0.041150346
6	0xbd2b23bc	-0.041782126
7	0xbd8fce2b	-0.07021745
8	0xbdb338df	-0.08751082
9	0x3d0f4d49	0.034985814
10	0x3c70f725	0.014707361
11	0x3d1d348f	0.038380202
12	0xbccc1c6b	-0.024915894
13	0xbd3d51f0	-0.04622072
14	0xbb063bbb	-0.002048238
15	0x3d4b996b	0.049706858
16	0x3cd96bf6	0.026540738
17	0xbdce79be	-0.10081814
18	0x3d1f5372	0.03889794
19	0xbd35f889	-0.044426475
20	0x3c9e3267	0.019311143
21	0xbd4bb0ae	-0.04972904
22	0xbd35352e	-0.04424017
23	0xbd4bcc86	-0.049755596
24	0xbdf5cf8d	-0.12002478
25	0xbe0afef7	-0.13573824
26	0xbd8bb2de	-0.068212256
27	0x3c287a48	0.01028306
28	0x3bf8c285	0.007591548
29	0x3bd98163	0.0066377386
30	0xbd4b78f3	-0.049675893
31	0xbd80cd95	-0.06289212
32	0x3c8b3d42	0.016996983
33	0x3d17b251	0.03703529
34	0xbcd62fcb	-0.026145836
35	0x3c0e7559	0.00869497
36	0x3d50e0a4	0.050995484
37	0x3d6238c6	0.055229925
38	0xbd053115	-0.03251751
39	0xbcb7ec7c	-0.022451632
40	0x3c12bd08	0.008956201
41	0x3cd41dea	0.02589317
42	0x3c9a62e6	0.018845987
43	0xbca5d673	-0.020243859
44	0x3af11c03	0.0018395189
45	0x3d43f88f	0.047844466
46	0xbd66da91	-0.056360785
47	0x3ca568c4	0.020191558
48	0x3c5588ec	0.013033133
49	0x3d7db112	0.061936446
50	0x3d32f61d	0.043691743
51	0x3d6948a3	0.056954037
52	0x3c813ac6	0.015775096
53	0x3d704e55	0.058668453
54	0xbd3d5d48	-0.046231538
55	0xbd5bca98	-0.053660005
56	0xbd0a94b6	-0.033833228
57	0xbd453f51	-0.048156086
58	0xbd44259a	-0.047887422
59	0x3d850f7a	0.064970925
60	0x3c919aa7	0.01777394
61	0xbca12c08	-0.019674316
62	0x3dba820c	0.09106836
63	0xbcd76d04	-0.0262971
64	0xbd5d45d9	-0.05402169
65	0xbc9be986	-0.019032251
66	0xbd498745	-0.04920127
67	0xbd41690f	-0.047219332
68	0xbca15763	-0.01969499
69	0xbcdef933	-0.027218437
70	0xbd9a33de	-0.07529424
71	0xbd237615	-0.039907534
72	0x3d73b436	0.059498034
73	0x39b73df0	0.00034950627
74	0x3d73b2a1	0.059496526
75	0x3c8fac7a	0.017538298
76	0x3ca428eb	0.020039042
77	0x3db23bab	0.08702787
78	0x3c7f9f62	0.015601965
79	0x3cdd3530	0.0270029
80	0xbd24cdb1	-0.040235225
81	0x3c55dd98	0.01305332
82	0xbd6f402b	-0.058410805
83	0x3b8746ff	0.0041283364
84	0x3c2493e5	0.010045026
85	0xbcd4a877	-0.025959237
86	0xbc849650	-0.016184956
87	0x3d3d3c15	0.046199877
88	0x3db35cae	0.087579116
89	0x3d06cc55	0.03290971
90	0x3cbfe68f	0.023425369
91	0xbd39a9e5	-0.04532804
92	0xbbdf1051	-0.006807365
93	0xbd7704ef	-0.06030744
94	0xbd7fcb0e	-0.062449507
95	0xbc61c55e	-0.013779966
96	0xbcc68290	-0.024232179
97	0x3c90807b	0.01763939
98	0xbc93bc44	-0.018034108
99	0x3b868098	0.004104685
100	0xba9c55ab	-0.0011927387
101	0xbb2269f2	-0.0024782387
102	0x3ad6c986	0.0016386963
103	0xbd4bb6d3	-0.0497349
104	0x3da9d3d3	0.082923554
105	0xbad5cf69	-0.0016312423
106	0xbd180f0b	-0.03712372
107	0xbceab329	-0.028649883
108	0xbd844271	-0.06457985
109	0x3c1824c7	0.009286112
110	0xbd108fc8	-0.03529337
111	0xbbf134be	-0.0073610237
112	0xbcaa79b8	-0.020809993
113	0x3d9598b7	0.07304519
114	0x3d3dd692	0.04634721
115	0x3d8ad248	0.06778389
116	0x3d8a278c	0.06745824
117	0xbc1a2526	-0.009408271
118	0xbbfff272	-0.007810884
119	0xbdb98770	-0.09059036
120	0xbcf6c284	-0.03012205
121	0x3ab2464e	0.0013601275
122	0x3c1ab2f7	0.009442083
123	0xbcf6618f	-0.030075816
124	0xbb799b42	-0.0038086926
125	0xbd451c9a	-0.04812298
126	0x3d37d7d0	0.04488355
127	0x3d2384da	0.03992162
128	0x3ca1f0f8	0.019768223
129	0x3add22ae	0.0016871297
130	0xbd5867ad	-0.052833248
131	0xbda8f821	-0.08250452
132	0xbd6c2337	-0.05765077
133	0xbd20bec4	-0.03924443
134	0x3c4d2f0d	0.012523425
135	0x3d16eb5e	0.036845557
136	0x3d1f82a9	0.038942967
137	0x3bfab467	0.0076509
138	0x3d4fb2c1	0.050707582
139	0x3cc042e3	0.023469394
140	0xbcf3debd	-0.029769296
141	0x3d63c3c0	0.055606604
142	0x3dab6281	0.083683975
143	0x3dd47956	0.103747055
144	0xbc50331e	-0.0127075
145	0x3d1b59e5	0.037927527
146	0xbb9ecdeb	-0.0048463247
147	0xbd3e49bd	-0.04645704
148	0xbdbb1fc1	-0.09136916
149	0xbd7d3a68	-0.06182328
150	0xbbafb2fa	-0.005361912
151	0x3c4c372d	0.012464327
152	0x3c823796	0.015895646
153	0x3d0b5969	0.034020815
154	0xbd216e5e	-0.039411895
155	0x3d184e3d	0.03718399
156	0x3c798fce	0.01523204
157	0xbcc7224a	-0.024308342
158	0xbd9a524b	-0.075352274
159	0x3d21bf0c	0.039488837
160	0x3c86f161	0.01647252
161	0xbd72a174	-0.059236005
162	0xbcbfea2d	-0.023427093
163	0xbd9fc40b	-0.07801064
164	0x3d0b22ca	0.033968724
165	0xbd0308ab	-0.03199069
166	0xbd381780	-0.044944286
167	0x3cb942a0	0.022614777
168	0x3ce2c740	0.0276829
169	0x3d82b8b2	0.06382884
170	0x3ca04289	0.019562976
171	0x3cba930b	0.022775194
172	0x3cc78a11	0.024357827
173	0xbc09ba90	-0.008406296
174	0xbd5c3f01	-0.053771023
175	0xbd28e09c	-0.04122983
176	0x3d20e3bf	0.039279696
177	0xbd4ec7af	-0.050483402
178	0x3cf2dc9c	0.02964621
179	0xbbd3a1d3	-0.0064585
180	0x3d0f6f3d	0.035018194
181	0xbce0edbb	-0.027457109
182	0x3c45e329	0.012078085
183	0x3d3e8a07	0.046518352
184	0x3dcb8802	0.09938051
185	0x3d591f92	0.053008623
186	0x3d901606	0.07035451
187	0x3d1976df	0.03746688
188	0x3d4c05af	0.049810108
189	0xbd321a2d	-0.043481994
190	0xbd0bb36a	-0.03410665
191	0xbc0d04c5	-0.008607094
192	0xbd914867	-0.07093888
193	0xb83bd8a0	-4.4786022e-05
194	0x3cc54ed0	0.024085432
195	0xbda07e33	-0.078365706
196	0xbcf10db9	-0.029425489
197	0xbc01f3a0	-0.00793162
198	0xbc7414c9	-0.014897534
199	0x3d45426f	0.04815906
200	0xbd494ef2	-0.049147554
201	0x3ad34b8f	0.0016120541
202	0x3c35b7ed	0.011091215
203	0x3cad1ce5	0.021131942
204	0x3d5c3fa9	0.05377165
205	0xbc97cd94	-0.018530644
206	0x3d81c733	0.06336822
207	0xbc6f9845	-0.014623706
208	0xbd1f5c49	-0.03890637
209	0xbd15688b	-0.036476653
210	0xbcf70cc8	-0.030157462
211	0x3cb0e670	0.021594256
212	0x3c1a982e	0.0094356965
213	0xbc2c1c21	-0.010504753
214	0xbc504df3	-0.012713897
215	0x3d5ab726	0.05339732
216	0xbac3cf1b	-0.0014939042
217	0x3d35440f	0.04425436
218	0x3d0f8ccf	0.035046395
219	0xbcfa533c	-0.030557267
220	0x3cb6f302	0.022332672
221	0xbd5b0f5c	-0.053481445
222	0x3d948c13	0.072532795
223	0x3cbd3aa0	0.023099244
224	0x3c941385	0.018075714
225	0x3d60833b	0.05481265
226	0xbbbdae84	-0.005788626
227	0xbd36a7aa	-0.04459349
228	0x3d4c3049	0.049850736
229	0xbb3da7df	-0.002893917
230	0x3d7ca3f8	0.06167981
231	0xbd7f9606	-0.062398933
232	0xbcbe0516	-0.023195785
233	0xbd15e3bb	-0.036594134
234	0xbd7704f2	-0.06030745
235	0xbcdd92b6	-0.027047496
236	0xbd3ae136	-0.045624934
237	0xbd845a2d	-0.06462512
238	0xbd63e08b	-0.055634063
239	0xbd9b3428	-0.075783074
240	0xbcf564ae	-0.029955234
241	0xbd23f3f8	-0.04002759
242	0xbd5e616d	-0.05429213
243	0x3d1bc4d9	0.038029525
244	0x3d854618	0.0650751
245	0x3d9e4040	0.077270985
246	0xbc9bffb8	-0.019042835
247	0xbd26ca7a	-0.04072044
248	0xbcf54344	-0.029939301
249	0xbcf9ff31	-0.030517193
250	0x3c970d18	0.01843886
251	0x3b0e868d	0.002174768
252	0x3cdf0d80	0.027228117
253	0xbb5b7090	-0.003348384
254	0xbd5e05c5	-0.05420472
255	0xbb1e8a7c	-0.002419143

block2.3.bias f4 [16]
0	0xbb85ac63	-0.004079388
1	0xbcb90ef0	-0.02259013
2	0xbd1b7c14	-0.037960127
3	0x3d62a319	0.055331323
4	0x3af5169a	0.0018698752
5	0x3d8665da	0.065623954
6	0x3c0e5745	0.008687799
7	0xbc192fa4	-0.009349737
8	0xbd191cd4	-0.03738101
9	0xbce721a9	-0.028214293
10	0x3d194e1d	0.03742801
11	0x3bb98ce1	0.005662546
12	0x3d53f231	0.051744644
13	0xbd86b8a2	-0.06578185
14	0x3ceeea18	0.029164359
15	0xb99b2b58	-0.00029596197

block2.4.weight f4 [16]
0	0x3f8505f4	1.0392442
1	0x3f807d7e	1.0038297
2	0x3f86e0d5	1.0537363
3	0x3f75a7f5	0.9595941
4	0x3f71ea86	0.9449848
5	0x3f7cca22	0.9874593
6	0x3f701fd0	0.9379854
7	0x3f8220b9	1.0166236
8	0x3f80a37f	1.0049895
9	0x3f874f95	1.0571162
10	0x3f82dbae	1.0223291
11	0x3f72c87e	0.94837177
12	0x3f80a878	1.0051413
13	0x3f7f73b1	0.99785906
14	0x3f7bee89	0.9841085
15	0x3f762723	0.9615347

block2.4.bias f4 [16]
0	0xbdc407ee	-0.09571825
1	0xbbf5c6ec	-0.00750052
2	0xbdc0c732	-0.094129935
3	0xbd112df9	-0.035444234
4	0xbd00b9b0	-0.031427085
5	0xbdc8fb57	-0.09813564
6	0xbdad24ad	-0.08454261
7	0xbcecc018	-0.028900191
8	0xbd746a05	-0.05967142
9	0xbda30b54	-0.07961145
10	0x3d8e5508	0.06949812
11	0xbd6d097d	-0.057870377
12	0x3c147921	0.0090620825
13	0xbd863484	-0.06552985
14	0x3c8f5cde	0.017500337
15	0xbd38db6f	-0.045131143

block2.4.running_mean f4 [16]
0	0xbeef069e	-0.46684736
1	0xbdeee334	-0.11664429
2	0xbf0ca3ab	-0.5493724
3	0xbd2bbeb6	-0.041929923
4	0xbf73fe44	-0.95309854
5	0x3f174e19	0.5910354
6	0xbd07fa7a	-0.033197857
7	0xbe1ef858	-0.15524423
8	0xbe94d6a1	-0.2907
9	0xbf18f5ff	-0.5975036
10	0xbf8c21b9	-1.0947791
11	0xbf1a1c17	-0.6019911
12	0x3e1d41f4	0.1535719
13	0xbe85f6fd	-0.26165
14	0xbf165483	-0.58722705
15	0xbe3025da	-0.17201939

block2.4.running_var f4 [16]
0	0x3f2bf3ec	0.6716907
1	0x3f014ed5	0.50510913
2	0x3f425e61	0.7592526
3	0x3f41e25c	0.7573602
4	0x3f69655a	0.91170275
5	0x3f7fa03c	0.99853873
6	0x3f3fdfd8	0.74950933
7	0x3f161db9	0.58639103
8	0x3f24361b	0.6414506
9	0x3eddcce6	0.43320388
10	0x3ff65faa	1.9247944
11	0x3f69cf5e	0.9133204
12	0x3f2b1bd9	0.6683937
13	0x3f7e92f6	0.99442995
14	0x3f438831	0.76379687
15	0x3ebb7030	0.3660903

block3.0.weight f4 [32, 16, 3, 3]
0	0x3ccf565f	0.02530974
1	0x3d2ab0cd	0.041672517
2	0xbd149867	-0.036278155
3	0xbd4e61c1	-0.050386194
4	0xbcafd109	-0.02146198
5	0x3c8f1997	0.017468257
6	0xbda0c8ce	-0.078508005
7	0xbd5fc0a9	-0.054627094
8	0x3d700815	0.058601458
9	0xbc2be621	-0.010491879
10	0xbd85a585	-0.06525711
11	0x3cb602f5	0.022218207
12	0x3c60bcf1	0.013716922
13	0x3d181972	0.03713364
14	0x3e1f682d	0.15567084
15	0x3de22a13	0.11043181
16	0x3d32e0cf	0.043671425
17	0x3d224eb6	0.039625846
18	0x3d079bae	0.033107452
19	0xbca46a08	-0.02007009
20	0x3d88d16d	0.0668057
21	0x3daba73a	0.08381505
22	0x3d888802	0.066665664
23	0x3dab2e18	0.08358401
24	0x3dd9b9c7	0.10631137
25	0x3c003b06	0.007826572
26	0x3d6e9ac4	0.058253065
27	0x3bf1e9f9	0.007382628
28	0x3d90b7e3	0.070663236
29	0xbcbcfaf5	-0.023068884
30	0xbd35b580	-0.044362545
31	0x3c06ce63	0.008227917
32	0xbd2749e2	-0.040841945
33	0x3cc64484	0.024202593
34	0x3d0a7a7e	0.033808224
35	0xbcb7c1a2	-0.022431199
36	0x3d85e5d5	0.065379776
37	0xbda28811	-0.07936109
38	0xbd043a75	-0.03228231
39	0xbd419925	-0.04726519
40	0xbd716e86	-0.058943294
41	0x3ce11021	0.027473511
42	0xbdb9c333	-0.090704344
43	0x3d6bb720	0.05754769
44	0x3c88b406	0.016687404
45	0x3d9cde30	0.076595664
46	0x3dc16015	0.09442154
47	0xbd8e5a84	-0.06950858
48	0xbdccaab4	-0.099934965
49	0xbb321953	-0.002717574
50	0x3d62cd59	0.055371616
51	0x3d603660	0.054739356
52	0x3d5c89e7	0.05384245
53	0x3d580cf7	0.05274674
54	0xbcb93b2c	-0.022611223
55	0xbd14c2a2	-0.03631843
56	0x3c875c62	0.016523544
57	0xbd810481	-0.06299687
58	0x3d9c5cb1	0.07634867
59	0xbd82cc06	-0.06386571
60	0xbd0c66bd	-0.034277666
61	0x3d655323	0.05598749
62	0xbd77328b	-0.060350936
63	0xbc5cab9b	-0.013468648
64	0x3bc4c66c	0.006005099
65	0xbdece72d	-0.11567531
66	0x3cab0624	0.020876952
67	0xbb5ec166	-0.0033989786
68	0xbc29aa5c	-0.010355558
69	0x3cd94808	0.026523605
70	0x3c7be614	0.015374679
71	0x3af4f5b6	0.001868895
72	0xbd5c2f10	-0.05375582
73	0xbcdf7f17	-0.02728228
74	0xbc977d57	-0.018492384
75	0xbb8d9139	-0.0043202904
76	0xbdb85c54	-0.09001985
77	0xbd6c91f4	-0.05775638
78	0xbd706603	-0.058691036
79	0x3cbb2429	0.022844391
80	0x3c8eadea	0.017416913
81	0x3ba45373	0.0050148307
82	0xbd7ce080	-0.061737537
83	0xbcf9010e	-0.03039601
84	0xbce9b0d8	-0.028526708
85	0x3c243332	0.010021972
86	0xbc142c0a	-0.009043703
87	0xbdd0c399	-0.10193557
88	0xbdda60cb	-0.10662993
89	0x3e0e8414	0.13917571
90	0x3d438ccb	0.047741693
91	0x3d9eb3fa	0.077491716
92	0xbb892282	-0.004185022
93	0x3cfdc929	0.03097971
94	0x3dc7d41a	0.09757252
95	0xbd174b6b	-0.03693716
96	0xbd3b9202	-0.04579354
97	0xbca33f1e	-0.019927558
98	0xbcd418c7	-0.025890721
99	0xbd6a4e06	-0.057203315
100	0x3cea380c	0.028591178
101	0xbc926f57	-0.017875357
102	0x3d829a5f	0.063771
103	0x3de1d7f2	0.110275164
104	0x3db4aab8	0.088216245
105	0xbd027f12	-0.031859465
106	0x3ba59090	0.0050526336
107	0x3c9a2c58	0.018819973
108	0x3d894e09	0.06704337
109	0xbbbe7dfc	-0.0058133584
110	0x3cd56ef3	0.026053881
111	0xbc846e01	-0.016165735
112	0xbc8c6c4a	-0.01714148
113	0x3d880631	0.06641806
114	0xbcd0b518	-0.025476977
115	0xbd3187cf	-0.043342408
116	0xbde9a2c4	-0.11407998
117	0x3d048172	0.03235001
118	0x3df1778a	0.117903784
119	0x3cbfbeed	0.02340647
120	0xbcca80c3	-0.024719601
121	0xbd20df6e	-0.03927558
122	0x3d0f79d0	0.03502828
123	0xbcd6a313	-0.026200807
124	0x3cc58e05	0.024115572
125	0xbd1730aa	-0.036911644
126	0x3dfcbec7	0.123410754
127	0x3dcc5fac	0.099791855
128	0xbcd291d5	-0.025704304
129	0x3df1dc59	0.11809606
130	0xbc585785	-0.01320446
131	0x3cd4eeef	0.025992839
132	0xbd1fe095	-0.039032537
133	0x3ba3e9f2	0.0050022537
134	0xbdabcbda	-0.08388491
135	0x3c621c5e	0.013800709
136	0x3c08fa8b	0.008360515
137	0x3da1c668	0.07899171
138	0x3df2062f	0.11817586
139	0x3d49dd0e	0.04928308
140	0xbd86707e	-0.06564425
141	0xbce7ca01	-0.028294565
142	0xbd87bbc0	-0.06627607
143	0xbc4e93c4	-0.012608472
144	0x3cc9c5ff	0.024630545
145	0x3e049b3b	0.1294984
146	0x3c6fae90	0.014629021
147	0x3c69c13b	0.014267261
148	0xbc19ea82	-0.00939429
149	0x3d3cb0aa	0.046066917
150	0x3d807ebd	0.062741734
151	0x39ae0fd8	0.0003319967
152	0xbbe62fec	-0.0070247557
153	0x3c963c91	0.018339427
154	0xbccc8899	-0.024967479
155	0xbcde6e5c	-0.027152233
156	0xbbbd5574	-0.005778009
157	0x3d705365	0.05867328
158	0xbbde1c9d	-0.0067783133
159	0x3c909bc4	0.0176524
160	0xbd0893f4	-0.033344224
161	0x3d32ab7c	0.04362057
162	0x3d9efb65	0.077627935
163	0x3be9a892	0.007130691
164	0xbd674c8e	-0.056469493
165	0xbd896d1e	-0.067102656
166	0xbd911ac8	-0.07085186
167	0xbda24114	-0.07922569
168	0xbd8b900c	-0.06814584
169	0xbd767347	-0.06016853
170	0xbc872b58	-0.01650016
171	0xba97dca6	-0.0011586144
172	0xbd878160	-0.06616473
173	0xbc85db08	-0.016339794
174	0xbbd49e7c	-0.0064886194
175	0x3d51f781	0.05126143
176	0xbcf0ce74	-0.02939532
177	0xbd807366	-0.062720105
178	0x3c1cf316	0.009579441
179	0x3c897ab8	0.01678215
180	0xbd762a13	-0.06009872
181	0xbce99e01	-0.028517725
182	0x3dab92e3	0.08377626
183	0x3be657d6	0.007029514
184	0x3d01ceed	0.03169148
185	0x3db6bf41	0.089231975
186	0x3ca1ef1d	0.019767338
187	0xbd9b00d2	-0.07568516
188	0x3d27f74f	0.041007336
189	0xbd2893ec	-0.041156694
190	0xbd0f98e1	-0.035057906
191	0xbcbd63f8	-0.023118958
192	0x3bf67e36	0.0075223697
193	0xbd62cc95	-0.055370886
194	0xbdf5f5c4	-0.12009767
195	0xbd43c367	-0.047793772
196	0x3b3bac6d	0.002863671
197	0xbca87267	-0.020562364
198	0x3a56ae0f	0.0008189389
199	0x3c8e6655	0.01738278
200	0xbd82fd3b	-0.06395956
201	0x3d67ffdd	0.056640495
202	0xba8b0e88	-0.0010609189
203	0x3d3d3bec	0.046199724
204	0xbbcf19fe	-0.006320237
205	0x3d97ff23	0.0742171
206	0x3c870fbf	0.016487
207	0x3cd5fdff	0.026122091
208	0x3d8a6217	0.067569904
209	0xbd1a5f09	-0.03768829
210	0xbc9a3977	-0.01882623
211	0xbd361bca	-0.044460095
212	0xbb86fc14	-0.0041194055
213	0xbd25f8bd	-0.04052042
214	0xbbe40a8c	-0.006959265
215	0xbdb2897c	-0.08717629
216	0x3c410194	0.011780161
217	0x3dbf3f15	0.09338204
218	0x3cba92fa	0.022775162
219	0x3d4ebc3e	0.05047249
220	0x3ce4372e	0.027858343
221	0xbd0e97a8	-0.0348126
222	0x3c1cd7cb	0.009572933
223	0x3dc1a8fa	0.09456058
224	0x3d3dedf4	0.046369508
225	0x3e12eb69	0.14347614
226	0x3e3fd4e1	0.1873355
227	0x3db3aeda	0.08773585
228	0xbd71afaa	-0.059005417
229	0xbb1de8c8	-0.0024095047
230	0xbc7408f8	-0.014894716
231	0x3d27ce7c	0.040968403
232	0xbc6e7de4	-0.014556382
233	0x3d8b9711	0.06815923
234	0x3cbb026b	0.022828301
235	0xbd1fbad7	-0.038996544
236	0xbdcd1af4	-0.100149065
237	0xbcdf5881	-0.027263882
238	0x3dad088c	0.08448896
239	0x3be21b41	0.0069002216
240	0x3d4c641b	0.049900156
241	0x3d2c415f	0.04205453
242	0x3dde0bb5	0.10842077
243	0x3cb0d30e	0.021585014
244	0x3c0f1b78	0.008734576
245	0x3d0eb0bf	0.034836527
246	0xbcf48269	-0.02984734
247	0xbd17b562	-0.037038215
248	0x3d894cc1	0.06704093
249	0x3e01bb2d	0.12669058
250	0x3ddb6ab4	0.107137114
251	0x3d913070	0.07089317
252	0xbd185322	-0.037188657
253	0x3d5f83d0	0.054569066
254	0xbc8f2324	-0.017472811
255	0x3d1c393b	0.038140517

block3.0.bias f4 [32]
0	0x3c5d20bc	0.013496574
1	0x3d06372f	0.03276747
2	0xbd8bc1af	-0.068240516
3	0xbcd4a51b	-0.025957635
4	0xbcbd7b46	-0.02313007
5	0x3b2dbb76	0.002650944
6	0xbd7ce49c	-0.061741456
7	0xbcc4984a	-0.023998398
8	0x3d001180	0.03126669
9	0xbb439c0d	-0.0029847652
10	0xbd66ca3d	-0.056345213
11	0x3b8dba16	0.0043251617
12	0x3d422c82	0.047405727
13	0xbd459e8f	-0.048246916
14	0x3db2f84f	0.08738767
15	0xbd37be2e	-0.044859104
16	0x3d8d4f40	0.06899881
17	0x3cf37ccc	0.029722594
18	0xbd1f5aa1	-0.03890479
19	0xbdbda588	-0.09260088
20	0x3cff7267	0.031182481
21	0xbcd13e64	-0.025542445
22	0x3c95f3ed	0.01830479
23	0x3d28dd6d	0.041226793
24	0xbd597c59	-0.053097103
25	0x3ab2ef97	0.0013651726
26	0xbcbb2a85	-0.022847423
27	0xbd9edcb8	-0.077569425
28	0x3cbaeaf6	0.022817116
29	0x3cd48780	0.025943518
30	0xbd80a1fe	-0.062808976
31	0x3d877753	0.06614556

block3.1.weight f4 [32]
0	0x3f9932fa	1.1968682
1	0x3f9a5283	1.205643
2	0x3f9794dd	1.1842304
3	0x3f97379c	1.1813846
4	0x3f9cb8c2	1.2243884
5	0x3f96234e	1.1729524
6	0x3f9ad3a9	1.2095844
7	0x3f989880	1.1921539
8	0x3f94be52	1.1620581
9	0x3f95c33f	1.1700209
10	0x3f9774aa	1.1832478
11	0x3f99b3bf	1.2007979
12	0x3f99481b	1.197513
13	0x3f95e7af	1.1711329
14	0x3f99bda4	1.2010999
15	0x3f95eb7c	1.1712489
16	0x3f96df99	1.1786987
17	0x3f9dad22	1.2318461
18	0x3f9766bd	1.1828228
19	0x3f984beb	1.1898168
20	0x3f991f68	1.196271
21	0x3f999805	1.1999518
22	0x3f99827f	1.1992949
23	0x3f980d9c	1.1879153
24	0x3f981399	1.1880981
25	0x3f9f9d96	1.2469966
26	0x3f9bda8f	1.2176074
27	0x3f95fe8e	1.1718309
28	0x3f974980	1.1819305
29	0x3f9933db	1.196895
30	0x3f9b69d9	1.2141677
31	0x3f99e02f	1.202154

block3.1.bias f4 [32]
0	0x3cba58c9	0.022747414
1	0x3bf613d2	0.007509687
2	0x3cb8636e	0.02250835
3	0x3ce15005	0.027503977
4	0x3daca5b9	0.084300466
5	0x3d944324	0.072393686
6	0x3d821e78	0.06353468
7	0x3d3125fb	0.04324911
8	0x3cb328cb	0.021870038
9	0x3cf78db9	0.030218946
10	0x3c973419	0.01845746
11	0x3c14dc6f	0.009085759
12	0xbcc5e6c8	-0.024157897
13	0x3ca38116	0.019959014
14	0x3cd71771	0.026256295
15	0x3caf4cb9	0.021398889
16	0x3da2d143	0.0795007
17	0x3d8f3dce	0.0699421
18	0xbc8eab82	-0.017415766
19	0x3cec5635	0.0288497
20	0x3d5612d6	0.052264057
21	0x3da14c24	0.07875851
22	0x3c7d077b	0.015443678
23	0x3d0790d7	0.033097114
24	0x3d72149a	0.05910168
25	0x3cf70fe5	0.030158946
26	0x3d292801	0.041297916
27	0x3c67dabf	0.014151274
28	0x3d38bc38	0.045101374
29	0x3d6d8805	0.057991046
30	0x3d343f7d	0.04400586
31	0x3d0d46c7	0.034491327

block3.1.running_mean f4 [32]
0	0x3f0b64ea	0.5445086
1	0x3f0555b5	0.52083904
2	0xbe9b734f	-0.3036141
3	0xbebdf351	-0.37099698
4	0x3f2ad9f1	0.667388
5	0x3de0d2c8	0.10977703
6	0x3ec9682d	0.39337292
7	0xbca3d228	-0.019997671
8	0x3f4f3555	0.80940753
9	0xbe83c8de	-0.25739187
10	0xbe938770	-0.28814268
11	0x3e6b8d77	0.23003183
12	0x3ef31c27	0.47482416
13	0x3f294265	0.66116935
14	0x3e6d3363	0.23164134
15	0x3e9c0735	0.3047425
16	0x3e90bbe1	0.2826834
17	0x3eb35986	0.35029238
18	0x3e7f635b	0.24940245
19	0xbd7f970d	-0.062399913
20	0x3ee7e3e5	0.45291057
21	0x3ee61892	0.4494062
22	0x3efdbdb3	0.49558792
23	0xbdb37eec	-0.08764443
24	0x3ef94a9f	0.48689744
25	0x3d358eae	0.044325523
26	0x3e7894a3	0.2427545
27	0xbe84fe21	-0.25975135
28	0x3eca0a46	0.39460963
29	0x3efe5a2b	0.49678168
30	0x3e880ac9	0.26570728
31	0x3f11a9a0	0.5689945

block3.1.running_var f4 [32]
0	0x3e8bd9f1	0.27314714
1	0x3eb7783b	0.35833916
2	0x3e895560	0.26822948
3	0x3eab4dbe	0.3345775
4	0x3ee73647	0.45158598
5	0x3e981a81	0.2970772
6	0x3ed81582	0.4220391
7	0x3ec547f8	0.3853147
8	0x3f033041	0.51245505
9	0x3eb6c26d	0.3569521
10	0x3ea7dc14	0.32785094
11	0x3eb6f8c3	0.35736665
12	0x3ea59c60	0.32345867
13	0x3eecfd1a	0.4628685
14	0x3e9f985c	0.31170928
15	0x3edf5ee5	0.43627086
16	0x3f160f33	0.5861694
17	0x3eb105f2	0.34574848
18	0x3e96c624	0.29448044
19	0x3ec781b7	0.38966152
20	0x3eb32f8f	0.34997222
21	0x3f06c047	0.5263714
22	0x3ee387ff	0.44439694
23	0x3ec9fbc1	0.39449885
24	0x3ee86386	0.4538843
25	0x3eb2380f	0.34808394
26	0x3eaa8430	0.33303976
27	0x3eb216ca	0.34783012
28	0x3ea67416	0.32510442
29	0x3e8ea558	0.27860522
30	0x3ef0ce6f	0.47032496
31	0x3e8d0b80	0.27547836
