src/models/mnist_model_20241222_184418.pth (torch, 102909 bytes, 34 tensors)

block1.0.weight f4 [16, 1, 3, 3]
0.23582402 0.23469244 -0.09530594 0.2404829 -0.11448671 0.07118088 -0.24380177 0.1793992
0.32710057 -0.21668893 0.27770922 0.085571446 0.23264596 0.032371797 0.1748603 -0.03684354
0.30180505 0.09268721 -0.15539455 0.10362425 -0.12090119 -0.046661627 -0.120840296 0.22522534
-0.24291761 -0.16671072 -0.12836754 -0.21275222 0.006658818 -0.37080318 0.28837138 -0.27076742
0.22957453 0.08342845 -0.06642542 0.21311468 0.059750795 0.28716817 0.029435407 -0.1013198
0.10247331 -0.07585572 0.13182665 0.28443438 0.19721414 -0.13031603 0.20131963 0.036806107
0.18394923 -0.17090832 -0.34418598 -0.16068332 -0.21610302 0.28563827 0.09619464 0.13576373
0.14032966 0.006939131 0.22444895 -0.24133864 -0.008820164 -0.26108485 0.060223017 -0.095163144
0.0890754 -0.08994011 0.28270113 -0.17038774 -0.20823303 -0.17247577 0.33046892 0.13011083
0.28913125 -0.28646025 -0.3449502 -0.25820488 -0.21782036 0.10112049 0.14643927 0.2941853
-0.18231243 -0.22742958 0.16658905 -0.12352649 0.17110743 -0.0887361 0.20146756 -0.2848049
-0.1790997 0.119618654 0.07522721 -0.102814436 0.12849641 0.24084835 -0.24688162 -0.19207455
0.31969005 -0.12715825 -0.12635633 -0.32028908 -0.1559444 0.09006007 -0.025904676 -0.2149356
0.0077511743 -0.22948493 -0.24297887 -0.21561223 -0.30610645 -0.21963054 0.36524063 0.015002891
0.11632088 -0.27366263 -0.20322618 -0.065438814 0.06398354 -0.34595862 -0.16454516 -0.13920914
0.030735496 -0.13939214 0.0699158 -0.18374152 -0.26874048 -0.19121115 -0.12433057 -0.27352753
0.31065255 -0.08757042 0.2676988 0.16518235 -0.2454902 0.24343318 -0.04531501 -0.11029475
-0.24820246 -0.2997536 0.08905523 -0.06829587 0.14326002 -0.29561874 0.23063996 -0.26033267
00000000: da7b 713e 3753 703e c32f c3bd 2641 763e
00000010: 0278 eabd 48c7 913d 2ca7 79be 6db4 373e
00000020: ba79 a73e b4e3 5dbe e72f 8e3e 1540 af3d
00000030: be3a 6e3e 4a98 043d 940e 333e 40e9 16bd
00000040: 3186 9a3e cbd2 bd3d c01f 1fbe f338 d43d
00000050: 0b9b f7bd 4320 3fbd 1e7b f7bd 79a1 663e
00000060: 65bf 78be 37b6 2abe c872 03be b8db 59be
00000070: 3732 da3b ead9 bdbe 6aa5 933e 07a2 8abe
00000080: 9615 6b3e 89dc aa3d 0d0a 88bd bc3a 5a3e
00000090: 40bd 743d b507 933e 8622 f13c c180 cfbd
000000a0: 87dd d13d 3e5a 9bbd 91fd 063e 62a1 913e
000000b0: 81f2 493e 9171 05be bc26 4e3e 00c2 163d
000000c0: 305d 3c3e 9702 2fbe 2539 b0be 2b8a 24be
000000d0: 1c4a 5dbe 2e3f 923e b201 c53d a605 0b3e
000000e0: 94b2 0f3e a661 e33b f2d5 653e 7a21 77be
000000f0: 7382 10bc eaac 85be 69ac 763d e5e4 c2bd
00000100: 2a6d b63d 8532 b8bd 34be 903e 207a 2ebe
00000110: 0a3b 55be 7d9d 30be 3933 a93e c63b 053e
00000120: 0309 943e ebaa 92be 509d b0be 6e33 84be
00000130: 4d0c 5fbe 4218 cf3d 2df4 153e 759f 963e
00000140: 1cb0 3abe 4de3 68be 5296 2a3e 75fb fcbd
00000150: c936 2f3e 46bb b5bd 834d 4e3e f3d1 91be
00000160: e965 37be a0fa f43d b910 9a3d 6090 d2bd
00000170: 9094 033e f3a0 763e 89ce 7cbe 31af 44be
00000180: 6aae a33e c635 02be 8e63 01be eefc a3be
00000190: e4af 1fbe 6a71 b83d 0b36 d4bc 1418 5cbe
000001a0: 90fd fd3b 19fe 6abe 74cf 78be 74c9 5cbe
000001b0: fcb9 9cbe d4e6 60be d200 bb3e b0ce 753c
000001c0: a439 ee3d 821d 8cbe 861a 50be c904 86bd
000001d0: cd09 833d 7d21 b1be 877e 28be d78c 0ebe
000001e0: 02c9 fb3c d0bc 0ebe 0430 8f3d bd26 3cbe
000001f0: 5a98 89be dbcc 43be 07a1 febd cd0b 8cbe
00000200: da0d 9f3e 1f58 b3bd d10f 893e 9025 293e
00000210: c861 7bbe 8c46 793e 3b9c 39bd 37e2 e1bd
00000220: c928 7ebe 4e79 99be 9762 b63d b5de 8bbd
00000230: c1b2 123e 575b 97be e22c 6c3e 534a 85be

block1.0.bias f4 [16]
-0.07227205 0.04356751 0.16519992 0.26124886 0.30396196 -0.25991896 0.099609934 -0.12621178
-0.062247407 -0.22789013 0.31888703 -0.27130023 0.20378113 0.09702454 0.14126602 -0.18328173
00000000: 5e03 94bd d873 323d 2b2a 293e 69c2 853e
00000010: e7a0 9b3e 1914 85be 4b00 cc3d a93d 01be
00000020: 23f7 7ebd 085c 69be 2945 a33e dde7 8abe
00000030: 00ac 503e cdb4 c63d 0aa8 103e 35ae 3bbe

block1.1.weight f4 [16]
0.9929184 0.9534448 1.0179428 1.033565 0.96121925 1.0770019 1.0179267 0.9831772
0.99613273 1.0064123 0.9969753 0.99350363 0.9943444 1.0331298 0.9867487 1.0292412
00000000: e62f 7e3f f514 743f f34b 823f dc4b 843f
00000010: 7712 763f 33db 893f 6c4b 823f 80b1 7b3f
00000020: 8e02 7f3f 1ed2 803f c639 7f3f 4156 7e3f
00000030: 5b8d 7e3f 993d 843f 909b 7c3f 2dbe 833f

block1.1.bias f4 [16]
-0.014292398 -0.0053705554 0.011980224 -0.023573665 -0.01987666 0.034201555 0.029947376 -0.043671094
-0.010736973 0.013921937 -0.029658034 -0.02326698 -0.01813706 0.033295974 -0.0076407944 0.024752468
00000000: a92a 6abc 7cfb afbb b448 443c 8f1d c1bc
00000010: 61d4 a2bc ee16 0c3d 3354 f53c 76e0 32bd
00000020: 21ea 2fbc d618 643c 68f5 f2bc 659a bebc
00000030: 2c94 94bc 5c61 083d a15f fabb b0c5 ca3c

block1.1.running_mean f4 [16]
0.033378586 0.16655825 0.07837606 0.2503489 0.4211293 -0.30082503 0.12110132 -0.11801716
-0.12148794 -0.26032606 0.3160512 -0.4421727 0.13589752 -0.07437937 0.1697771 -0.28981465
00000000: fcb7 083d 3f8e 2a3e a183 a03d bb2d 803e
00000010: 429e d73e bd05 9abe f803 f83d fbb2 f1bd
00000020: abce f8bd 7549 85be 76d1 a13e 7664 e2be
00000030: b828 0b3e 3654 98bd 0cda 2d3e 9662 94be

block1.1.running_var f4 [16]
0.045149144 0.06761066 0.03127759 0.012766063 0.056128375 0.012884106 0.009848785 0.0053441045
0.029315693 0.010005642 0.015750494 0.11329419 0.02445619 0.11030867 0.022945216 0.042050097
00000000: 4fee 383d 7577 8a3d ee1c 003d c028 513c
00000010: dee6 653d db17 533c cc5c 213c 991d af3b
00000020: 7727 f03c b4ee 233c 2e07 813c c906 e83d
00000030: 5958 c83c 83e9 e13d 9bf7 bb3c b93c 2c3d

block1.3.weight f4 [16, 16, 3, 3]
0.07193819 0.029881123 0.018509686 -0.07449531 0.030492067 0.004359179 -0.05078957 0.078372315
0.032380976 -0.03991244 -0.03615991 -0.001976006 0.047588892 -0.025537822 -0.046907835 -0.037323974
-0.07073188 0.02308337 0.04085768 -0.112786576 -0.021956021 0.039694063 -0.014520431 -0.025841853
0.009717328 0.03972915 0.013235715 0.014430439 0.016452726 0.0455009 0.0036797985 -0.015261041
0.037072007 0.086234696 0.017665574 -0.02713908 0.0030561057 -0.0043194657 0.017049322 0.02232077
-0.08048847 -0.031217584 0.049092866 0.020971464 -0.006347608 -0.0008003881 -0.03239616 -0.09646436
-0.00037140938 0.07589939 0.04841175 0.08281048 -0.050404295 0.020831887 0.0106550865 0.09716017
0.035773743 -0.0072376514 0.05806819 -0.012090187 -0.02495 0.09254401 -0.03647665 0.0059843096
-0.044876114 0.054073405 0.055468168 0.037187167 -0.050121043 -0.09905321 -0.056344155 0.06354401
0.02838905 0.08822174 0.10211399 0.023954779 0.021964097 -0.022890277 -0.06799848 -0.068415485
0.02557766 -0.045639396 -0.02638787 -0.054112542 -0.036255192 -0.0652305 -0.061906673 0.043823995
-0.006268894 0.061641842 -0.033992764 -0.0503736 -0.020943282 -0.07431566 -0.033253405 -0.09419053
0.020117624 -0.07909301 0.03274 0.019940037 0.038229555 -0.10167072 0.06061015 -0.05059016
0.043441433 0.06035475 -0.0140394345 -0.013562714 0.00830995 -0.051330306 0.01887061 -0.0613566
0.06332496 0.061024237 0.078198545 -0.053333417 -0.08299469 -0.009851075 0.0029760816 -0.1342418
-0.021126127 -0.06615037 -0.0020092754 -0.05393424 -0.029774224 -0.029686699 -0.060185123 0.06645309
0.05343535 -0.013701899 -0.026319752 -0.070199065 -0.08526233 -0.12344273 0.017397707 -0.08648173
-0.1066693 -0.05635806 -0.030115345 -0.033818416 0.03401832 -0.033020493 -0.018141033 -0.041515566
-0.08776745 0.048888337 -0.046875466 0.012280113 -0.043828003 -0.0006392899 0.07970827 0.03299727
-0.07531041 0.011802984 0.061674528 0.02298299 0.04081584 0.07304265 -0.01022977 0.016726408
-0.053512648 -0.00921249 0.04620481 0.050190378 -0.042597752 -0.08717612 -0.05979135 -0.07482834
-0.10006251 -0.024763614 0.04297279 0.027992614 -0.076784156 -0.12146362 0.05327919 -0.051102053
-0.009812274 0.042366564 -0.026199367 -0.008983935 -0.028044512 -0.04267154 -0.045813166 -0.09012967
-0.08040139 -0.042034153 0.0839783 -0.03383344 -0.048717737 -0.0147191705 0.021976352 0.041761585
0.06269218 0.034696218 -0.07926656 -0.054071814 0.022473153 -0.037026178 -0.0727314 0.05047918
-0.066965275 -0.07422928 -0.104379885 -0.020387031 0.009800743 -0.014305454 0.0009465148 -0.04775817
-0.07788036 -0.0011845932 0.09456596 0.04312525 -0.047512602 0.023859825 -0.039746214 -0.053387087
0.0398986 0.09140595 0.062326394 -0.053915765 0.06901865 -0.072585784 0.033135414 0.070899755
0.008941233 0.059540186 -0.047338042 -0.029518314 0.07700885 -0.005688887 -0.041393936 -0.037514966
0.038114797 -0.006159148 0.026947355 -0.04981882 -0.08851767 0.022466548 0.031883188 -0.04689528
-0.0034893951 0.06863675 0.009285419 -0.012272597 -0.00814284 -0.05198814 -0.0999477 -0.04168786
-0.03347771 -0.006968969 -0.031038426 -0.03884189 0.051059462 0.058037814 0.100065 -0.052162685
00000000: 5454 933d 42c9 f43c a0a1 973c ff90 98bd
00000010: 80ca f93c 72d7 8e3b b908 50bd aa81 a03d
00000020: eaa1 043d 3a7b 23bd 6a1c 14bd e17f 01bb
00000030: 92ec 423d b234 d1bc 6e22 40bd 06e1 18bd
00000040: e0db 90bd 5619 bd3c 625a 273d a6fc e6bd
00000050: 1ddd b3bc 3e96 223d 1ae7 6dbc 4bb2 d3bc
00000060: 6d35 1f3c 08bb 223d 9dda 583c a66d 6c3c
00000070: dec7 863c 275f 3a3d c628 713b 7209 7abc
00000080: d1d8 173d d19b b03d 65b7 903c c752 debc
00000090: f248 483b 4e8a 8dbb 05ab 8b3c 0cda b63c
000000a0: 24d7 a4bd 05bc ffbc 9a15 493d 59cc ab3c
000000b0: 98ff cfbb 23d1 51ba d6b1 04bd 1b8f c5bd
000000c0: b9b9 c2b9 2471 9b3d 664b 463d 8a98 a93d
000000d0: bc74 4ebd a2a7 aa3c ac92 2e3c e9fb c63d
000000e0: 7d87 123d d229 edbb e9d8 6d3d eb15 46bc
000000f0: f163 ccbc b787 bd3d 8a68 15bd 0718 c43b
00000100: 04d0 37bd 137c 5d3d 9732 633d 9251 183d
00000110: b94b 4dbd 69dc cabd 21c9 66bd 5d23 823d
00000120: 2790 e83c 9aad b43d 2421 d13d d03c c43c
00000130: 0dee b33c 6484 bbbc c942 8bbd 6b1d 8cbd
00000140: 3e88 d13c 60f0 3abd 602b d8bc 1da5 5dbd
00000150: 5380 14bd 9297 85bd da91 7dbd ca80 333d
00000160: 4b6b cdbb 287c 7c3d ff3b 0bbd 8c54 4ebd
00000170: 3f91 abbc cf32 98bd b934 08bd f7e6 c0bd
00000180: b7cd a43c 84fb a1bd 611a 063d 4a59 a33c
00000190: 9896 1c3d bd38 d0bd 5942 783d a137 4fbd
000001a0: a5ef 313d 8b36 773d a805 66bc 2536 5ebc
000001b0: 7526 083c ba3f 52bd 8a96 9a3c 0f51 7bbd
000001c0: 84b0 813d 8df4 793d 8f26 a03d 2474 5abd
000001d0: 1ff9 a9bd 6766 21bc 5d0a 433b af76 09be
000001e0: b310 adbc d879 87bd 0cae 03bb 26ea 5cbd
000001f0: 13e9 f3bc 8531 f3bc ad84 76bd 8f18 883d
00000200: 07df 5a3d ee7d 60bc 859c d7bc 87c4 8fbd
00000210: 049e aebd 8bcf fcbd a385 8e3c 551d b1bd
00000220: 6f75 dabd b6d7 66bd 75b4 f6bc 2e85 0abd
00000230: cb56 0b3d 7f40 07bd 819c 94bc 3a0c 2abd
00000240: 6cbf b3bd 233f 483d 7d00 40bd 8732 493c
00000250: fe84 33bd 0596 27ba 173e a33d 2528 073d
00000260: 583c 9abd 4e61 413c 6e9e 7c3d d346 bc3c
00000270: 832e 273d 6397 953d c49a 27bc d205 893c
00000280: 1430 5bbd fcef 16bc 4141 3d3d 6d94 4d3d
00000290: fb7a 2ebd 6589 b2bd c6e7 74bd 9a3f 99bd
000002a0: 93ed ccbd 10dd cabc 3c04 303d c450 e53c
000002b0: 0341 9dbd ebc1 f8bd 483b 5a3d 6350 51bd
000002c0: a9c3 20bc 9088 2d3d 0ea0 d6bc 5b31 13bc
000002d0: 9bbd e5bc 5ac8 2ebd 96a6 3bbd e895 b8bd
000002e0: 7ca9 a4bd 012c 2cbd d1fc ab3d ef94 0abd
000002f0: 408c 47bd ad28 71bc c007 b43c 320e 2b3d
00000300: c264 803d 9f1d 0e3d 8256 a2bd 687a 5dbd
00000310: 9e19 b83c c3a8 17bd 33f4 94bd 42c3 4e3d
00000320: 1725 89bd 8505 98bd 1fc5 d5bd b402 a7bc
00000330: 4c93 203c 6c61 6abc 881f 783a 129e 43bd
00000340: bd7f 9fbd 5a44 9bba ccab c13d 1aa4 303d
00000350: 939c 42bd ae75 c33c edcc 22bd 6bac 5abd
00000360: b76c 233d 0b33 bb3d f649 7f3d c7d6 5cbd
00000370: a659 8d3d dba7 94bd 00b9 073d e433 913d
00000380: 407e 123c 69e0 733d 89e5 41bd 64d0 f1bc
00000390: d1b6 9d3d d869 babb b08c 29bd 4ba9 19bd
000003a0: 431e 1c3d aed2 c9bb b3c0 dc3c d20e 4cbd
000003b0: c148 b5bd c40b b83c f297 023d 4415 40bd
000003c0: 56ae 64bb 6d91 8c3d df21 183c 0113 49bc
000003d0: 8c69 05bc 84f1 54bd 61b1 ccbd e4c0 2abd
000003e0: ec1f 09bd f35b e4bb 4c44 febc ac18 1fbd
000003f0: ba23 513d 0fb9 6d3d e1ee cc3d 8aa8 55bd

block1.3.bias f4 [16]
-0.0018646682 -0.032201424 0.07937996 -0.048246462 0.043542627 -0.04909975 -0.070917055 -0.06830029
-0.0038380502 0.017228073 -0.05898402 -0.06700017 0.0755917 0.029046526 -0.015098144 -0.086020045
00000000: e267 f4ba a4e5 03bd f691 a23d 159e 45bd
00000010: c159 323d d21c 49bd f63c 91bd 06e1 8bbd
00000020: cc87 7bbb e321 8d3c 3a99 71bd 6337 89bd
00000030: d2cf 9a3d fbf2 ed3c 355e 77bc 472b b0bd

block1.4.weight f4 [16]
0.9750552 1.0028286 0.961722 1.0297618 1.0376071 0.9963242 0.9768283 0.9665747
1.10722 1.0218122 0.9940077 0.9873065 1.0209243 0.9937365 1.0406636 1.0008866
00000000: 389d 793f b05c 803f 6a33 763f 3ccf 833f
00000010: 4fd0 843f 1a0f 7f3f 6b11 7a3f 7171 773f
00000020: 63b9 8d3f beca 823f 4a77 7e3f 1ec0 7c3f
00000030: a6ad 823f 8465 7e3f 7734 853f 0d1d 803f

block1.4.bias f4 [16]
-0.08782062 -0.0021726226 -0.012755752 0.011534397 0.0316447 0.027832482 -0.041460548 -0.065605834
0.053918794 -0.034950826 0.004206334 -0.02460666 0.029811226 -0.027186422 0.030271363 0.031304553
00000000: 4cdb b3bd 8f62 0ebb 80fd 50bc c4fa 3c3c
00000010: df9d 013d f200 e43c 89d2 29bd 5a5c 86bd
00000020: f4d9 5c3d 9928 0fbd 49d5 893b e893 c9bc
00000030: ac36 f43c 0fb6 debc a6fb f73c 3439 003d

block1.4.running_mean f4 [16]
-0.33296806 -0.3755534 -0.22147705 0.0893282 0.29901695 -0.5716562 -0.17009348 0.22295922
0.028355198 0.072132036 -0.020599272 -0.11846049 -0.16035123 0.13690597 -0.47734466 -0.13741829
00000000: ca7a aabe 8948 c0be e1ca 62be b4f1 b63d
00000010: c018 993e 1058 12bf fc2c 2ebe 6c4f 643e
00000020: 2949 e83c f6b9 933d cebf a8bc 6a9b f2bd
00000030: 1d33 24be 1431 0c3e 8566 f4be 61b7 0cbe

block1.4.running_var f4 [16]
0.065904126 0.19974488 0.16454747 0.3007388 0.49964803 0.104755014 0.17288198 0.11610435
0.21040422 0.36610782 0.29043818 0.31920078 0.19893798 0.2670015 0.26996136 0.2056236
00000000: bef8 863d ec89 4c3e 227f 283e 70fa 993e
00000010: ded1 ff3e cc89 d63d f907 313e 1ec8 ed3d
00000020: 3474 573e 7c72 bb3e 50b4 943e 496e a33e
00000030: 66b6 4b3e 6cb4 883e 6038 8a3e fe8e 523e

block2.0.weight f4 [32, 16, 3, 3]
0.028076727 -0.013399937 0.0125448 -0.008213012 -0.033395354 -0.083041854 -0.053740058 -0.00019292123
0.029242128 0.04782389 -0.013887743 0.115604945 0.040717445 0.00083812186 0.013374964 -0.03310271
0.042804383 0.0280612 0.0265637 -0.009287695 0.07213178 -0.070325546 -0.051987275 -0.006458044
-0.054973856 -0.015132925 -0.06580479 -0.01524853 -0.010685014 -0.039630577 -0.08991755 0.04682765
-0.04201841 0.03720028 0.031825036 -0.10509693 0.02491808 0.07042539 0.060675442 -0.012300957
0.0274715 -0.084754966 -0.08397533 0.045649387 -0.036448583 0.09684749 0.047990598 -0.040011726
0.069203675 0.057853114 0.021491611 -0.06357288 0.018463772 0.006942293 0.028062096 0.04646347
0.060243733 0.07592024 0.08001795 -0.028059104 0.08803687 0.062219847 -0.038660005 0.063966595
0.03508174 -0.01071194 -0.087044686 0.027710931 -0.011927635 0.035738226 0.07783803 -0.02207869
0.16157572 0.011512432 -0.05255075 -0.067632794 -0.053214986 -0.015859071 -0.012841591 -0.025030926
-0.064825855 0.08663006 0.09188495 0.025047066 0.0121347215 0.08629256 0.053095695 0.05670673
0.032311648 0.019134756 -0.02109208 0.08433092 0.041758522 0.018187944 0.040548116 -0.080954626
-0.0040150275 -0.058084212 -0.07845985 0.024814546 0.010689969 0.018301448 0.036618322 -0.049974248
-0.0011128727 -0.03985096 0.013211523 -0.00065240375 0.059873592 -0.06037192 -0.06453089 0.009547588
0.021569563 0.007222942 0.07369142 0.055667225 0.04791112 0.07780903 0.07597964 0.006540123
-0.067648575 -0.049559437 0.036989857 -0.004118898 -0.03749615 0.06892026 -0.0070669837 -0.0040625813
-0.05937323 -0.02834685 0.00078705087 -0.042814717 0.061402913 -0.08733308 -0.08815871 -0.00946857
0.094361395 0.05777022 -0.00872382 -0.080200605 -0.009245032 -0.056594003 -0.059224878 0.042631716
-0.016618894 0.09315386 -0.066795304 0.077408835 0.06876639 -0.06975563 0.05170623 -0.05026449
-0.05705283 0.097554214 -0.045026973 -0.081041634 0.06537121 -0.0017710023 -0.039602283 0.02701335
-0.09752501 -0.006999953 0.05013703 0.012502751 -0.084946156 0.012928524 -0.10605719 -0.03938876
0.057644762 -0.002512782 -0.0057734605 -0.023936763 0.009800326 -0.040729016 -0.10141093 -0.066891134
0.0373798 -0.09925063 -0.0065118168 -0.026852723 -0.04326719 0.00040675985 -0.089464374 -0.03824782
-0.01841971 -0.08940288 -0.110671535 0.015542832 -0.048717037 -0.0050990675 -0.028009191 0.030189173
-0.045818813 -0.0692413 -0.06601381 0.013284186 -0.016339792 -0.07171287 0.055036206 -0.04121653
0.094373725 -0.04519869 0.010557583 0.0742522 0.0098776445 0.09273234 -0.005184822 -0.0113119045
-0.05547319 0.022235977 0.041541953 0.04077931 -0.0258806 -0.040282305 0.09186622 0.023286207
0.067417584 -0.025820157 -0.05916433 -0.051403776 0.048621576 -0.03873379 -0.09191618 -0.10246818
-0.13683183 0.006672536 0.0037894007 -0.06681014 0.016682953 -0.06446684 -0.02807344 -0.08316119
0.018394677 0.04179946 0.04231614 0.012010273 0.08156325 0.014724644 -0.03296113 0.0382895
-0.03691265 0.04642296 0.083696164 -0.041927442 -0.038431615 -0.055347875 0.009926813 -0.11531107
0.0038853146 -0.027875748 0.027795203 0.04474878 -0.04661785 0.047486518 0.04770124 -0.063773915
00000000: 2a01 e63c 698b 5bbc b488 4d3c de8f 06bc
00000010: 91c9 08bd d911 aabd 891e 5cbd e64a 4ab9
00000020: 308d ef3c fce2 433d 6b89 63bc 49c2 ec3d
00000030: 56c7 263d 68b5 5b3a aa22 5b3c b596 07bd
00000040: a653 2f3d 9ae0 e53c 1e9c d93c 6b2b 18bc
00000050: d4b9 933d d706 90bd 9cf0 54bd 009e d3bb
00000060: 442c 61bd 16f0 77bc a9c4 86bd f8d4 79bc
00000070: 3210 2fbc ac53 22bd b126 b8bd 5ace 3f3d
00000080: 7f1b 2cbd 525f 183d f85a 023d 0f3d d7bd
00000090: 0021 cc3c 303b 903d d086 783d f489 49bc
000000a0: e90b e13c 0394 adbd 42fb abbd dafa 3a3d
000000b0: 1c4b 15bd fa57 c63d ca91 443d 56e3 23bd
000000c0: a8ba 8d3d 63f7 6c3d 2d0f b03c 8032 82bd
000000d0: 5641 973c 2d7c e33b 7be2 e53c 7b50 3e3d
000000e0: 22c2 763d 127c 9b3d 73e0 a33d 35dc e5bc
000000f0: ad4c b43d 3dda 7e3d f459 1ebd eb00 833d
00000100: dfb1 0f3d 2281 2fbc 7c44 b2bd 0902 e33c
00000110: 216c 43bc 3f62 123d 8c69 9f3d 5ede b4bc
00000120: 1b74 253e a49e 3c3c 753f 57bd 1083 8abd
00000130: f5f7 59bd e2ea 81bc 8965 52bc a80d cdbc
00000140: 6bc3 84bd 1a6b b13d 2d2e bc3d 812f cd3c
00000150: b6d0 463c 27ba b03d df7a 593d 5145 683d
00000160: 3859 043d 7ec0 9c3c 4cc9 acbc b0b5 ac3d
00000170: fc0a 2b3d e2fe 943c c815 263d 8acb a5bd
00000180: 7e90 83bb b6e9 6dbd 8faf a0bd e047 cb3c
00000190: fb24 2f3c ebec 953c 18fd 153d ccb1 4cbd
000001a0: d0dd 91ba c33a 23bd 2575 583c 1306 2bba
000001b0: 033e 753d 8c48 77bd c528 84bd 7d6d 1c3c
000001c0: a7b2 b03c 6eae ec3b 87eb 963d 5103 643d
000001d0: 733e 443d 575a 9f3d 379b 9b3d 874e d63b
000001e0: 568b 8abd d6fe 4abd ad82 173d d2f7 86bb
000001f0: 9095 19bd 1126 8d3d 2892 e7bb 671f 85bb
00000200: 5831 73bd a737 e8bc 1752 4e3a 7c5e 2fbd
00000210: 9f81 7b3d b0db b2bd 8e8c b4bd 1022 1bbc
00000220: 8c40 c13d 77a0 6c3d 5aee 0ebc 3740 a4bd
00000230: 7a78 17bc 1dcf 67bd c995 72bd 989e 2e3d
00000240: 5924 88bc 73c7 be3d facb 88bd 8688 9e3d
00000250: 65d5 8c3d 0adc 8ebd e9c9 533d 23e2 4dbd
00000260: 3ab0 69bd 81ca c73d 346e 38bd 28f9 a5bd
00000270: 57e1 853d fa20 e8ba 0136 22bd 1a4b dd3c
00000280: 31bb c7bd dd5f e5bb 7d5c 4d3d 57d8 4c3c
00000290: 40f8 adbd 29d2 533c 8334 d9bd 1c56 21bd
000002a0: ea1c 6c3d 7dad 24bb 4c2f bdbb 0817 c4bc
000002b0: 8c91 203c 78d3 26bd 89b0 cfbd 38fe 88bd
000002c0: 901b 193d ea43 cbbd 1461 d5bb 3efa dbbc
000002d0: f038 31bd 6242 d539 1939 b7bd bfa9 1cbd
000002e0: efe4 96bc db18 b7bd c2a7 e2bd 5da7 7e3c
000002f0: 848b 47bd 1416 a7bb 8873 e5bc 494f f73c
00000300: 82ac 3bbd 62ce 8dbd 4032 87bd eaa5 593c
00000310: 07db 85bc 32de 92bd a56d 613d aad2 28bd
00000320: 0347 c13d 4322 39bd b6f9 2c3c 8a11 983d
00000330: d8d5 213c 74ea bd3d 70e5 a9bb 9155 39bc
00000340: db37 63bd 3928 b63c e527 2a3d 3508 273d
00000350: 8d03 d4bc 0fff 24bd 5b24 bc3d b7c2 be3c
00000360: 3b12 8a3d cb84 d3bc 4c56 72bd c48c 52bd
00000370: 6b27 473d 53a7 1ebd 8d3e bcbd d6da d1bd
00000380: a51d 0cbe 4aa5 da3b 9857 783b c1d3 88bd
00000390: b0aa 883c 3107 84bd 45fa e5bc 6a50 aabd
000003a0: 6fb0 963c e935 2b3d b053 2d3d bcc6 443c
000003b0: a20a a73d a23f 713c 4002 07bd 73d5 1c3d
000003c0: b831 17bd 0026 3e3d e568 ab3d 1cbc 2bbd
000003d0: 786a 1dbd 74b4 62bd 12a4 223c 3628 ecbd
000003e0: c3a0 7e3b ae5b e4bc c4b2 e33c 7f4a 373d
000003f0: 5cf2 3ebd 3981 423d 6062 433d e69b 82bd

block2.0.bias f4 [32]
-0.0155585455 0.04791359 0.017851118 0.028003084 -0.035109762 0.0091291 -0.06689781 -0.04801651
-0.044633105 0.09003273 -0.031401005 -0.10214491 0.059066728 0.058403708 -0.061281864 -0.0051789884
0.066025965 0.06559048 0.007300014 0.036699787 0.05106834 0.040841617 0.048730616 0.06555146
-0.07611747 0.025834063 0.061785914 -0.081054 -0.05701448 -0.09267067 0.002232151 0.08366621
00000000: 45e9 7ebc 0a41 443d 823c 923c b966 e53c
00000010: 41cf 0fbd 3892 153c b801 89bd f6ac 44bd
00000020: 34d1 36bd 1463 b83d 579e 00bd 5a31 d1bd
00000030: f4ef 713d ba38 6f3d b102 7bbd 81b4 a9bb
00000040: 9f38 873d 4d54 863d f534 ef3b 8452 163d
00000050: 092d 513d 8a49 273d c199 473d d83f 863d
00000060: 7ae3 9bbd f5a1 d33c 3a13 7d3d a4ff a5bd
00000070: 0488 69bd 1fca bdbd 4849 123b 3159 ab3d

block2.1.weight f4 [32]
0.9912852 1.0187589 1.0001912 1.0289171 1.0278399 0.9770727 0.985725 1.05162
1.0054796 0.94274783 0.9979125 1.0152633 0.99990076 0.9798976 0.9915168 0.97283196
1.0155251 1.0122808 0.9858207 0.9955979 0.99130225 0.9931144 1.011153 0.9295527
0.9829703 1.0448092 0.9602288 1.0041746 1.0380895 1.0316478 1.062491 1.0212705
00000000: dec4 7d3f b166 823f 4406 803f 8eb3 833f
00000010: 4290 833f 7021 7a3f 7958 7c3f 7c9b 863f
00000020: 8eb3 803f ec57 713f 3277 7f3f 26f4 813f
00000030: 7ff9 7f3f 92da 7a3f 0cd4 7d3f 840b 793f
00000040: bafc 813f 6b92 813f bf5e 7c3f 81df 7e3f
00000050: fcc5 7d3f bf3c 7e3f 766d 813f 2af7 6d3f
00000060: f1a3 7b3f 4fbc 853f 8ed1 753f cb88 803f
00000070: 1ee0 843f 090d 843f b5ff 873f feb8 823f

block2.1.bias f4 [32]
-0.029495848 -0.026670238 -0.009058322 -0.025192445 0.03505831 -0.03509371 -0.009739101 0.011049299
0.021991502 -0.010295681 -0.045320366 -0.010978765 -0.007328309 -0.015845165 -0.008356857 -0.049750652
0.02884512 -0.0030530964 0.0038169923 0.015507665 -0.0008628949 0.024801768 0.05481741 -0.0412069
-0.012853221 0.035074215 0.017412467 -0.0033028754 -0.037977368 0.000612739 -0.0006220955 -8.097515e-05
00000000: 47a1 f1bc 8b7b dabc 5b69 14bc 6360 cebc
00000010: 4d99 0f3d 6cbe 0fbd c090 1fbc 1e08 353c
00000020: 8627 b43c 37af 28bc d9a1 39bd 47e0 33bc
00000030: 5022 f0bb b8cd 81bc 33eb 08bc 57c7 4bbd
00000040: 9a4c ec3c 7516 48bb 8126 7a3b dd13 7e3c
00000050: e633 62ba 142d cb3c 3888 603d 91c8 28bd
00000060: 5196 52bc fba9 0f3d 97a4 8e3c 0e75 58bb
00000070: 288e 1bbd 38a0 203a 1f14 23ba 34d1 a9b8

block2.1.running_mean f4 [32]
0.36635193 -0.31589243 -0.4671054 0.52208394 -0.029425198 0.21858881 -0.24475572 -0.6797417
0.010732708 -0.14517511 0.50228375 -0.22052829 0.43076214 -1.165548 -0.025411729 -0.16973437
0.20728001 0.27777568 0.81551003 -0.40250152 -0.31148955 0.8848289 0.3067843 -0.33852425
-0.37154812 -0.75674963 0.33225083 0.55846906 -0.11817521 0.46841055 -0.010761158 -0.58758897
00000000: 7b92 bb3e a7bc a1be 7028 efbe 4ba7 053f
00000010: 1d0d f1bc bfd5 5f3e 3ea1 7abe 8d03 2ebf
00000020: 3dd8 2f3c c9a8 14be ab95 003f 2bd2 61be
00000030: db8c dc3e ad30 95bf 422c d0bc d9ce 2dbe
00000040: 3641 543e 9d38 8e3e 44c5 503f ae14 cebe
00000050: 8f7b 9fbe 2684 623f d512 9d3e 0d53 adbe
00000060: 8e3b bebe 58ba 41bf c81c aa3e d4f7 0e3f
00000070: d805 f2bd 82d3 ef3e 914f 30bc 3b6c 16bf

block2.1.running_var f4 [32]
0.81488484 0.3577899 0.5572445 0.40926322 0.2853558 0.39381275 0.36744726 0.38614914
0.34877437 0.45717248 0.32222018 0.337491 0.30786523 0.6077971 0.45618567 0.5993687
0.5993644 0.45787582 0.6113997 0.88920313 0.37386927 0.7677001 0.47528306 0.31062332
0.5416014 0.83219165 0.8576564 0.47392908 0.35847503 0.6101782 0.5780418 0.35931733
00000000: 4b9c 503f 3d30 b73e 93a7 0e3f f38a d13e
00000010: 281a 923e d3a1 c93e 0c22 bc3e 57b5 c53e
00000020: 8e92 b23e 8312 ea3e 0bfa a43e 9fcb ac3e
00000030: 83a0 9d3e 9798 1b3f 2b91 e93e 3a70 193f
00000040: f26f 193f b36e ea3e b184 1c3f d1a2 633f
00000050: cb6b bf3e fe87 443f 4d58 f33e 050a 9f3e
00000060: 64a6 0a3f 830a 553f 5f8f 5b3f d5a6 f23e
00000070: 0a8a b73e a334 1c3f 8cfa 133f 71f8 b73e

block2.3.weight f4 [16, 32, 1, 1]
-0.076171 -0.08750648 0.03581448 -0.16200046 0.06460348 -0.056141596 -0.08554627 -0.13263515
-0.06620298 0.10772887 0.015441078 0.1344701 -0.12048588 -0.05916784 0.0833584 0.13761212
0.17212479 -0.21234359 0.1233228 -0.13694246 0.0110310465 -0.008919216 0.10287206 -0.05299032
-0.062147915 -0.083266415 -0.06405679 0.1480597 0.11670185 0.10600308 -0.14878595 -0.17383558
0.16729413 0.09671608 -0.04466401 0.024197362 0.15991662 0.15846115 -0.11661922 -0.06735721
0.05651395 0.12788329 0.047751646 -0.015938714 -0.010367462 0.17053987 -0.15290235 0.033934873
-0.113000244 0.01608177 -0.14057015 0.1425553 -0.072565265 0.03143557 -0.15724793 -0.008444339
-0.08445457 -0.087599486 -0.0326245 0.13157013 0.010564433 -0.08264161 0.1772977 0.0010797859
-0.089097545 -0.026969703 -0.11941252 -0.045499407 -0.069106914 0.087243326 -0.1728972 -0.12521575
0.11479472 -0.028546602 -0.032661576 0.05874999 -0.029431814 0.06789105 -0.1026826 0.0024234594
-0.15590881 0.055544037 -0.085435994 0.07923607 -0.016659383 -0.022356119 -0.036425587 -0.0038488992
0.19943449 0.036113687 0.108801335 -0.17171173 -0.05145959 -0.061646715 -0.18587801 0.036083203
-0.03922718 0.06914037 -0.025296599 -0.17031504 -0.06481172 -0.12769933 0.042008985 -0.1499734
0.12770031 0.067651846 -0.100637145 -0.08564121 -0.13708825 0.16799468 -0.071673125 -0.045792263
0.05285803 0.072717994 -0.0595015 0.10393749 0.057013 -0.0032016898 0.12156492 -0.11180905
-0.071983956 -0.041881837 -0.012896792 0.08168848 0.15542868 -0.14953674 0.118390515 0.048567038
0.11856146 0.09219009 -0.04440279 -0.108763546 -0.1355877 0.03183412 0.16199361 0.08236099
0.13457942 0.053746242 0.025869006 -0.10354828 -0.13524723 -0.014437935 0.10502045 0.13646996
-0.10666195 0.11695769 0.15969421 -0.15622643 -0.21079914 -0.13078737 -0.043066476 0.081493534
0.07172222 0.075733446 -0.09312695 0.11699077 0.058405697 -0.16324906 -0.123919345 0.030952519
0.16005872 -0.12017067 0.020178052 -0.22684711 0.12714903 0.041245636 -0.024477106 0.11659027
0.08767515 0.10519782 0.026869753 0.030302735 0.07301654 0.08561928 -0.15334027 -0.032079272
0.1183923 -0.11920109 0.12989308 0.0036544232 0.14192691 -0.07405846 0.09031121 -0.0791249
0.12590975 0.12945116 0.050298214 0.06341667 0.11740386 -0.092045255 -0.071472436 0.038289245
-0.089426294 0.054032147 0.11102255 -0.16126184 -0.01648767 0.025612595 -0.10931456 0.15181775
0.061924692 -0.19647327 -0.070045695 0.0056174863 0.13264665 -0.034451723 0.18647859 -0.038913127
-0.13206756 -0.0142800165 -0.109195344 0.03662234 0.0408755 -0.13426435 -0.16261035 0.13826072
-0.04110305 0.13754354 0.17650492 -0.042447943 0.090187 -0.21531017 0.05779744 -0.15387022
0.018003166 0.16214108 -0.020134758 -0.087075695 0.0837521 -0.06697195 0.14711294 -0.17959368
-0.017222889 -0.14117849 -0.05125781 0.0036520823 -0.11407118 -0.11564508 -0.06295837 -0.09118758
-0.109595805 -0.0008376354 -0.14606462 0.06923282 0.15124334 0.17002465 0.025587004 -0.031119488
-0.052740615 -0.09118792 0.100879595 0.09563854 0.16195855 -0.009498176 -0.12942758 0.07204774
00000000: 8bff 9bbd 9936 b3bd 34b2 123d 73e3 25be
00000010: d44e 843d bbf4 65bd e232 afbd 82d1 07be
00000020: 6e95 87bd f4a0 dc3d 93fc 7c3c 88b2 093e
00000030: 4dc1 f6bd fa59 72bd cfb7 aa3d 31ea 0c3e
00000040: 7b41 303e 9970 59be aa90 fc3d a53a 0cbe
00000050: 90bb 343c e721 12bc 96ae d23d 610c 59bd
00000060: d08e 7ebd 9587 aabd 3530 83bd f69c 173e
00000070: 6101 ef3d 2518 d93d 585b 18be f401 32be
00000080: 274f 2b3e 1513 c63d 9cf1 36bd 8c39 c63c
00000090: 2fc1 233e a443 223e 0fd6 eebd 94f2 89bd
000000a0: 2c7b 673d d6f3 023e 3b97 433d e891 82bc
000000b0: 4adc 29bc 01a2 2e3e 6f92 1cbe 4bff 0a3d
000000c0: ac6c e7bd ebbd 833c 9ff1 0fbe 04fa 113e
000000d0: 199d 94bd 96c2 003d 9a05 21be 205a 0abc
000000e0: 85f6 acbd 5c67 b3bd 45a1 05bd 52ba 063e
000000f0: 7216 2d3c 0140 a9bd 878d 353e 9a87 8d3a
00000100: c678 b6bd 91ef dcbc 8d8e f4bd 965d 3abd
00000110: ed87 8dbd a1ac b23d f70b 31be 8f38 00be
00000120: 7f19 eb3d 90da e9bc 25c8 05bd d4a3 703d
00000130: fd1a f1bc 760a 8b3d 414b d2bd e7d2 1e3b
00000140: 8fa6 1fbe 2582 633d 11f9 aebd 8546 a23d
00000150: 4279 88bc 2e24 b7bc ff32 15bd d03d 7cbb
00000160: 8e38 4c3e f2eb 133d 3cd3 de3d 33d5 2fbe
00000170: 4bc7 52bd 4481 7cbd ce56 3ebe fbcb 133d
00000180: aeac 20bd 7799 8d3d d03a cfbc 1167 2ebe
00000190: 02bc 84bd 9dc3 02be 9d11 2c3d a192 19be
000001a0: dfc3 023e 0d8d 8a3d d91a cebd a964 afbd
000001b0: dd60 0cbe cc06 2c3e 5cc9 92bd ab90 3bbd
000001c0: a981 583d 2ced 943d d8b7 73bd 2edd d43d
000001d0: 7786 693d 71d3 51bb 07f7 f83d 25fc e4bd
000001e0: 536c 93bd 4a8c 2bbd 114d 53bc 4a4c a73d
000001f0: b228 1f3e 2920 19be ba76 f23d 3bee 463d
00000200: 5ad0 f23d 28ce bc3d b3df 35bd 6cbf debd
00000210: 81d7 0abe 7f64 023d a7e1 253e e1ac a83d
00000220: 30cf 093e 0525 5c3d 3deb d33c 1f11 d4bd
00000230: 407e 0abe 178d 6cbc f614 d73d c8be 0b3e
00000240: 9571 dabd 8387 ef3d e186 233e d2f9 1fbe
00000250: bbdb 57be 20ed 05be 7966 30bd 15e6 a63d
00000260: 19e3 923d 231a 9b3d 58b9 bebd db98 ef3d
00000270: d03a 6f3d c32a 27be 6dc9 fdbd 2390 fd3c
00000280: 6fe6 233e 0a1c f6bd 714c a53c 9c4a 68be
00000290: 5b33 023e 2ff1 283d 3684 c8bc e1c6 ee3d
000002a0: 078f b33d f471 d73d f51d dc3c 713d f83c
000002b0: b289 953d 2959 af3d 3b05 1dbe 8e65 03bd
000002c0: aa77 f23d b31f f4bd b102 053e 0c7f 6f3b
000002d0: 4a55 113e f6ab 97bd 15f5 b83d 3c0c a2bd
000002e0: 7cee 003e d88e 043e 8005 4e3d 99e0 813d
000002f0: 6f71 f03d 3982 bcbd 2460 92bd 2fd5 1c3d
00000300: 2225 b7bd d050 5d3d ca5f e33d d321 25be
00000310: 2611 87bc 81d1 d13c 50e0 dfbd 1d76 1b3e
00000320: bfa4 7d3d 4a30 49be 1e74 8fbd e412 b83b
00000330: 86d4 073e 401d 0dbd 3ef4 3e3e 5f63 1fbd
00000340: b83c 07be bbf6 69bc cfa1 dfbd 4f01 163d
00000350: 116d 273d 987c 09be 5483 26be 3894 0d3e
00000360: ac5b 28bd 37d8 0c3e b5bd 343e e5dd 2dbd
00000370: f6b3 b83d 457a 5cbe 02bd 6c3d 2890 1dbe
00000380: 607b 933c 5008 263e a6f1 a4bc be54 b2bd
00000390: 3986 ab3d 9728 89bd c6a4 163e 68e7 37be
000003a0: 0417 8dbc 1891 10be b6f3 51bd c657 6f3b
000003b0: 279e e9bd 54d7 ecbd 51f0 80bd 8ec0 babd
000003c0: c473 e0bd c394 5bba f791 15be f0c9 8d3d
000003d0: 89df 1a3e f11a 2e3e d69b d13c 4cee febc
000003e0: 8b06 58bd bbc0 babd f699 ce3d 24de c33d
000003f0: 76d8 253e 3d9e 1bbc aa88 04be c48d 933d

block2.3.bias f4 [16]
0.1640216 0.1002905 0.095612764 0.1324647 -0.15977575 0.008448952 -0.09136 -0.04892243
0.13408236 -0.10740041 0.10988294 -0.0054027825 -0.092078134 -0.07429517 -0.19929986 0.043443434
00000000: 47f5 273e 1b65 cd3d a0d0 c33d d4a4 073e
00000010: 419c 23be 796d 0a3c f41a bbbd e362 48bd
00000020: e34c 093e bff4 dbbd 4f0a e13d d309 b1bb
00000030: 7693 bcbd 1128 98bd 4315 4cbe bef1 313d

block2.4.weight f4 [16]
0.9981165 0.98687977 1.0389937 1.0364683 0.949415 0.9909603 1.0269849 1.0174102
1.0108855 1.0037812 1.0109955 0.9566154 0.99675936 0.96444565 1.0265129 1.0236717
00000000: 9084 7f3f 27a4 7c3f bffd 843f feaa 843f
00000010: dd0c 733f 93af 7d3f 3e74 833f 7f3a 823f
00000020: b264 813f e77b 803f 4d68 813f bfe4 743f
00000030: 9f2b 7f3f e9e5 763f c664 833f ad07 833f

block2.4.bias f4 [16]
-0.0701319 -0.040594634 0.014635315 0.001081565 -0.04376105 -0.023248289 0.035767857 -0.007933279
0.019724077 0.018107522 -0.047048766 -0.0013703881 -0.018478297 -0.016794063 0.024483718 -0.03348586
00000000: 50a1 8fbd 8f46 26bd f6c8 6f3c 4dc3 8d3a
00000010: c93e 33bd 3273 bebc 5181 123d 95fa 01bc
00000020: 6394 a13c 3a56 943c 35b6 40bd 989e b3ba
00000030: cc5f 97bc b493 89bc 1492 c83c 7828 09bd

block2.4.running_mean f4 [16]
0.014898971 0.2376936 -0.2098782 0.088603586 -0.1327654 0.37598372 -0.21641433 -0.15083715
0.08928142 -0.26355538 0.29776025 -0.013922324 -0.009375691 -0.068615675 -0.50752133 -0.041368835
00000000: d01a 743c f365 733e 50ea 56be cc75 b53d
00000010: a7f3 07be f080 c03e b89b 5dbe 0e75 1abe
00000020: 2dd9 b63d bbf0 86be 0874 983e 761a 64bc
00000030: 809c 19bc 6086 8cbd ebec 01bf 5e72 29bd

block2.4.running_var f4 [16]
0.20475218 0.110645175 0.09840569 0.108907714 0.20976236 0.119654454 0.38870534 0.13838197
0.15140775 0.111880995 0.11397044 0.18110336 0.088924274 0.14722833 0.12284732 0.18967482
00000000: 8eaa 513e f099 e23d ec88 c93d 020b df3d
00000010: f2cb 563e 650d f53d 6304 c73e 01b4 0d3e
00000020: a20a 1b3e dd21 e53d 5669 e93d 2973 393e
00000030: ee1d b63d 06c3 163e 6097 fb3d 1e3a 423e

block3.0.weight f4 [24, 16, 3, 3]
-0.024137784 0.038968977 0.053327788 0.04448023 -0.037925646 0.11133116 -0.025239982 0.009853979
-0.0076604565 0.0618266 0.019628955 0.015187737 0.044110302 0.069008395 0.038786978 0.036999553
0.10596016 -0.053004462 0.05878128 0.007617416 0.034302015 0.013816203 0.031107532 -0.023503182
0.027595788 -0.04013512 -0.031575568 0.039871454 -0.09406087 0.053861383 -0.07498225 0.0232678
-0.023695963 -0.12184826 -0.026631624 0.07291675 0.020793842 0.014225765 -0.029348237 0.05359672
-0.057365578 -0.015307848 -0.0866005 -0.03970812 0.036711626 -0.0054038204 0.04633411 0.011720025
0.11793685 -0.057603665 -0.016363531 0.05580542 0.06384705 -0.04952702 0.015517342 -0.040834893
0.040660523 -0.1039428 -0.059344154 -0.05053916 -0.06206595 0.002556696 -0.017145142 0.037528265
0.07849502 0.022260088 0.0750409 0.05330042 -0.011823445 -0.03301625 -0.026562035 0.09304201
0.0024959617 0.04768112 -0.0010264147 -0.052482244 -0.009547007 -0.018323252 -0.07314428 -0.040042136
-0.05096671 0.041219227 0.039890803 -0.116452225 0.047411516 -0.054360755 -0.08804458 0.023691103
0.02025236 -0.049631562 0.030857855 0.025672473 -0.04258486 0.024641268 0.01116112 0.052213587
-0.054075092 0.016735354 0.10389754 -0.014497986 0.06225617 -0.06127514 -0.036028884 -0.014185273
-0.057622533 0.012629444 -0.041725084 0.0523674 0.010537033 -0.049149003 -0.04813984 -0.021626027
-0.021662198 0.08363161 -0.062530525 -0.033604465 -0.021798298 -0.016407533 0.00616224 -0.04267697
0.042620517 0.036890294 -0.052575037 0.042915706 0.056915645 -0.05806822 -0.01997187 -0.12207746
-0.13046245 -0.13050853 -0.02623835 -0.042701576 0.019527037 0.055019908 -0.12996222 -0.0874359
-0.038839214 0.08485535 0.030400539 0.004740049 -0.0252075 -0.01894486 -0.120479114 0.07672538
-0.022952745 -0.0035134 0.022444362 -0.064215645 -0.02371664 -0.027535476 -0.029858086 0.05131578
-0.029614685 -0.010050528 -0.050676633 -0.010512766 -0.067956105 -0.08689124 -0.0021050433 -0.13108425
-0.073199935 0.088508345 0.11287017 -0.02431647 0.012956469 -0.06878202 0.036570664 -0.0068809534
-0.005600194 -0.046656888 -0.08499731 0.017195253 -0.06441176 -0.012992655 0.05418416 -0.085811146
0.10432403 0.040566247 -0.058596965 -0.0084219575 -0.0190536 -0.08168108 -0.030919025 0.067940295
-0.03461706 0.11285648 0.036781806 0.016160758 0.05911748 -0.075949445 -0.041275486 0.016352708
-0.058759514 0.028287742 -0.013990812 0.014538432 -0.0062989113 -0.0039279046 -0.033372097 -0.030728571
0.028186899 -0.025685115 0.016754607 0.050968464 -0.012202497 0.093418606 0.09772626 0.0107831815
-0.0302123 -0.0051129195 0.059018552 0.11964539 -0.005463679 0.051672626 -0.020440705 -0.015102006
0.012463535 -0.09282259 -0.111542486 0.0023315249 0.003758168 -0.049303625 0.071743004 0.036584325
0.021383198 0.056961667 -0.035956614 -0.017993564 0.03583942 0.041690584 -0.06661704 -0.10784504
0.016960809 -0.09158374 0.093021594 0.0083900215 0.003152768 0.07103618 0.02797448 -0.044035263
0.04141878 -0.05065341 -0.06344913 -0.009014165 -0.014450293 0.041757468 -0.05555582 0.076697186
0.032876045 0.062015604 0.021381319 -0.039524566 -0.06914027 -0.0102812005 0.07125091 0.010960088
00000000: 9abc c5bc ef9d 1f3d 3d6e 5a3d e730 363d
00000010: ec57 1bbd 9701 e43d 14c4 cebc 9572 213c
00000020: 9104 fbbb e43d 7d3d e7cc a03c fcd5 783c
00000030: 01ad 343d 4654 8d3d 18df 1e3d d88c 173d
00000040: a401 d93d 351b 59bd a4c4 703d 849b f93b
00000050: 4580 0c3d 5b5d 623c 39d5 fe3c bf89 c0bc
00000060: 9010 e23c b964 24bd 6255 01bd 4050 233d
00000070: fca2 c0bd c19d 5c3d 4b90 99bd 1d9c be3c
00000080: 091e c2bc 958b f9bd 902a dabc 6155 953d
00000090: d957 aa3c 2f13 693c b76b f0bc 3c88 5b3d
000000a0: 2bf8 6abd c5cd 7abc 9a5b b1bd fba4 22bd
000000b0: ee5e 163d 8812 b1bb d6c8 3d3d 5905 403c
000000c0: e088 f13d d2f1 6bbd d00c 86bc 3994 643d
000000d0: 3ec2 823d d8dc 4abd 733c 7e3c 7d42 27bd
000000e0: a68b 263d f6df d4bd db12 73bd 2602 4fbd
000000f0: de38 7ebd 3e8e 273b f873 8cbc 3db7 193d
00000100: ffc1 a03d ca5a b63c 0baf 993d 8b51 5a3d
00000110: 1fb7 41bc 0c3c 07bd a098 d9bc cf8c be3d
00000120: 4a93 233b 474d 433d c388 86ba 9ff7 56bd
00000130: 0d6b 1cbc a51a 96bc abcc 95bd 3903 24bd
00000140: 78c2 50bd 7ed5 283d 8a64 233d 817e eebd
00000150: 9432 423d 62a9 5ebd b750 b4bd d813 c23c
00000160: 47e8 a53c 774a 4bbd 9dc9 fc3c 144f d23c
00000170: 766d 2ebd 7cdc c93c 21dd 363c eadd 553d
00000180: d87d 5dbd 9518 893c 3cc8 d43d f688 6dbc
00000190: 5300 7f3d a4fb 7abd 0693 13bd 5969 68bc
000001a0: 9b05 6cbd baeb 4e3c ece7 2abd 337f 563d
000001b0: 85a3 2c3c 7750 49bd 482e 45bd 1129 b1bc
000001c0: ec74 b1bc 0d47 ab3d 0110 80bd d6a4 09bd
000001d0: 5892 b2bc 1769 86bc 9eec c93b 0cce 2ebd
000001e0: da92 2e3d 471a 173d ec58 57bd 61c8 2f3d
000001f0: 6120 693d f1d8 6dbd 0c9c a3bc bf03 fabd
00000200: f397 05be 07a4 05be cff1 d6bc d9e7 2ebd
00000210: 2af7 9f3c 8e5c 613d d114 05be 9811 b3bd
00000220: de15 1fbd a4c8 ad3d 8d0a f93c 6a52 9b3b
00000230: f67f cebc 4032 9bbc c1bd f6bd 3222 9d3d
00000240: 6507 bcbc 1241 66bb 3ddd b73c 7e83 83bd
00000250: 6649 c2bc 1492 e1bc f298 f4bc 7f30 523d
00000260: 7f9a f2bc f8aa 24bc 4d92 4fbd bd3d 2cbc
00000270: 922c 8bbd 09f4 b1bd c4f4 09bb f33a 06be
00000280: d9e9 95bd dd43 b53d 7a28 e73d 5533 c7bc
00000290: 5f47 543c 96dd 8cbd 1fcb 153d 9f79 e1bb
000002a0: d581 b7bb 4b1b 3fbd 1213 aebd 0fdd 8c3c
000002b0: 50ea 83bd 25df 54bc 36f0 5d3d c1bd afbd
000002c0: d6a7 d53d cb28 263d 5f03 70bd 40fc 09bc
000002d0: 4c16 9cbc 6948 a7bd e549 fdbc 4824 8b3d
000002e0: 9eca 0dbd 4c21 e73d 85a8 163d 9163 843c
000002f0: 2c25 723d 628b 9bbd 7c10 29bd 1df6 853c
00000300: d1ad 70bd b2bb e73c b839 65bc 9a32 6e3c
00000310: 1967 cebb a7b5 80bb 2eb1 08bd 7cba fbbc
00000320: 36e8 e63c 9769 d2bc f540 893c 4fc4 503d
00000330: fbec 47bc 4152 bf3d b524 c83d f1ab 303c
00000340: c97f f7bc 478a a7bb 70bd 713d a408 f53d
00000350: a908 b3bb ada6 533d 4473 a7bc 676e 77bc
00000360: db33 4c3c c519 bebd 6370 e4bd 7fcc 183b
00000370: 994b 763b 99f2 49bd ffed 923d 72d9 153d
00000380: d12b af3c a350 693d 3e47 13bd 3d67 93bc
00000390: 5bcc 123d bfc3 2a3d 846e 88bd dcdd dcbd
000003a0: 65f1 8a3c 4290 bbbd 1b82 be3d 4d76 093c
000003b0: ab9e 4e3b 6b7b 913d bd2a e53c 525e 34bd
000003c0: bda6 293d f379 4fbd 9ef1 81bd 26b0 13bc
000003d0: ecc0 6cbc e109 2b3d 808e 63bd 6a13 9d3d
000003e0: 08a9 063d 1304 7e3d e027 af3c 83e4 21bd
000003f0: 6a99 8dbd 7b72 28bc ffeb 913d f191 333c

block3.0.bias f4 [24]
-0.006383933 -0.056469396 -0.044047996 -0.047284745 0.048736513 -0.053411264 0.06293218 0.048109945
0.05576145 -0.0047389707 -0.0068690353 0.014566168 -0.007504813 0.04231494 0.0061283074 0.033089045
-0.022508193 0.051994964 -0.0076516396 0.07122055 -0.00103179 -0.08763053 -0.0034716704 -0.029535962
00000000: 5030 d1bb 744c 67bd ac6b 34bd a6ad 41bd
00000010: f09f 473d c5c5 5abd 96e2 803d ef0e 453d
00000020: 1e66 643d 5e49 9bbb a515 e1bb f0a6 6e3c
00000030: efea f5bb 6e52 2d3d f8cf c83b 6188 073d
00000040: 1a63 b8bc acf8 543d 9bba fabb 14dc 913d
00000050: 213d 87ba a377 b3bd f784 63bb 67f5 f1bc

block3.1.weight f4 [24]
1.1310337 1.1306473 1.1577058 1.1050345 1.1290684 1.1167195 1.1385214 1.1297743
1.1309144 1.1124878 1.1460453 1.0966038 1.1050117 1.1296555 1.129913 1.1367344
1.1041331 1.1260576 1.1148988 1.1487398 1.1325575 1.13794 1.1918875 1.1276568
00000000: b6c5 903f 0db9 903f b42f 943f c571 8d3f
00000010: 5085 903f aaf0 8e3f 12bb 913f 729c 903f
00000020: cec1 903f 0066 8e3f 9db1 923f 835d 8c3f
00000030: 0671 8d3f 8d98 903f fda0 903f 8380 913f
00000040: 3c54 8d3f a822 903f 01b5 8e3f e809 933f
00000050: a5f7 903f 05a8 913f c58f 983f 0f57 903f

block3.1.bias f4 [24]
0.018175328 0.014975115 0.038824085 0.0044240667 0.00030101778 0.04062197 0.016505111 0.036280464
-0.013397678 0.044127952 0.067269795 0.030184496 0.032183677 -0.01620083 -0.015582316 0.01949116
-0.015240281 0.047633663 0.038445152 0.027287811 0.0025231978 0.057026632 -0.029175567 0.04053521
00000000: 6de4 943c 2f5a 753c 0106 1f3d c3f7 903b
00000010: ecd1 9d39 3963 263d ba35 873c d39a 143d
00000020: ef81 5bbc 83bf 343d bfc4 893d 7a45 f73c
00000030: 08d3 033d 9ab7 84bc f84c 7fbc edab 9f3c
00000040: 5fb2 79bc 841b 433d aa78 1d3d b08a df3c
00000050: 3c5c 253b c294 693d 9901 efbc 4008 263d

block3.1.running_mean f4 [24]
-0.21575324 -0.1023018 -0.1525981 0.07680534 0.05285216 -0.15839969 0.36244085 -0.09189607
-0.06954043 0.85590696 0.45986298 -0.20654392 0.49733177 -0.097608425 -0.38547522 0.14028637
-0.18929252 0.19429533 -0.13220511 0.32834116 -0.23141229 0.14078754 -0.29817638 0.021398878
00000000: 6bee 5cbe 9b83 d1bd ad42 1cbe 1e4c 9d3d
00000010: 827b 583d 8733 22be d991 b93e 0234 bcbd
00000020: 376b 8ebd b81c 5b3f 2973 eb3e 4080 53be
00000030: 45a2 fe3e ede6 c7bd 025d c5be 3ba7 0f3e
00000040: e6d5 41be 5bf5 463e c760 07be 551c a83e
00000050: 58f7 6cbe 9c2a 103e 93aa 98be b34c af3c

block3.1.running_var f4 [24]
0.30601275 0.22073297 0.38893905 0.32870582 0.2138511 0.34421876 0.4216831 0.4984826
0.36438116 0.35355702 0.4437269 0.2595731 0.36114112 0.39958605 0.2571485 0.32369035
0.2949277 0.29872182 0.35365 0.33653098 0.4429072 0.24942547 0.25971842 0.5170007
00000000: b4ad 9c3e d307 623e 0523 c73e 214c a83e
00000010: c8fb 5a3e 713d b03e d9e6 d73e 1d39 ff3e
00000020: 2b90 ba3e 6d05 b53e 2c30 e33e c4e6 843e
00000030: 7de7 b83e 8b96 cc3e f8a8 833e beba a53e
00000040: c300 973e 11f2 983e 9d11 b53e ca4d ac3e
00000050: bcc4 e23e 6469 7f3e d0f9 843e 285a 043f

classifier.1.weight f4 [48, 216]
-0.08327949 0.08138446 -0.022891996 -0.0710948 0.048615914 -0.0026011993 -0.05194817 -0.029767064
0.022590395 0.0329371 -0.052964073 -0.03266147 0.084044605 0.0071298694 0.08086196 0.005102794
0.05896888 0.05101924 -0.0765342 -0.025921972 0.06493447 -0.029337207 -0.01189784 -0.03876504
-0.093275055 0.031679295 0.12737988 -0.060662568 0.02760812 0.020315293 -0.019776382 0.041251972
-0.059503783 0.09433637 0.081867926 0.050464112 -0.0078017055 0.0034489676 0.088292666 0.0106430985
0.013472545 -0.022007994 -0.07235216 -0.018548386 -0.016900867 0.037016645 -0.03863569 0.04637434
-0.0065802457 0.023259226 -0.08711157 -0.073137075 -0.022041349 0.034487814 0.031757336 0.07284458
0.04404848 0.015913252 0.09177807 0.04043468 -0.013801562 -0.024908278 -0.08807626 -0.058898076
0.010321178 0.003466397 -0.03857545 0.009131612 -0.04763538 -0.15387464 -0.10664631 0.04263659
-0.059169374 0.04577749 0.07487758 0.10325197 -0.028275149 0.018314412 0.08494722 0.04500889
0.031540737 -0.0326234 -0.039172113 0.03165591 0.05865773 0.025748862 -0.09147648 0.043678317
0.13096449 -0.04414199 0.026072787 0.02907502 -0.010673844 0.026935808 0.11473135 -0.096660405
0.036493927 -0.009720418 -0.0503507 0.051258583 0.07845574 0.012811002 0.067624636 -0.049647175
0.055144697 -0.03656203 0.029812729 -0.029663138 0.09228585 0.13873018 0.019368144 0.025505237
-0.008275291 -0.07946322 0.0382963 0.08944243 -0.053312626 0.008778099 0.033023976 0.022987884
-0.110787034 0.008875472 0.086670585 -0.0216226 -0.0853752 -0.035448086 -0.04041908 0.06362577
0.10895958 -0.12314463 -0.06686652 -0.16706803 -0.07693601 0.10225815 -0.0049702288 -0.0022028298
0.052329965 0.015290899 -0.068328425 0.05951892 -0.046818614 -0.041070346 0.018815467 -0.05288855
0.042654842 0.03640392 -0.014113446 0.029007722 -0.033416606 0.057409186 -0.028593017 -0.08484683
0.015837476 0.07821934 0.07238906 0.013010312 0.04499024 0.044445153 -0.041980516 0.03613924
0.079460524 -0.025353018 -0.059241816 0.045267772 0.066471875 0.06391178 -0.047756374 -0.055744126
0.04482311 0.07600377 0.06050907 -0.03539787 0.07294583 0.05124021 0.038050763 -0.065413065
-0.008503401 0.11261325 0.02479527 0.0014829569 0.008193817 -0.0014180248 0.008362569 -0.056647643
-0.042303678 -0.014298992 -0.010746331 -0.07819588 0.022247713 0.0066587976 0.06387258 0.006323297
-0.12342147 0.0059616324 0.028558925 -0.113060705 -0.061769377 -0.08849698 -0.11810684 0.0076743285
0.09338993 0.0038969654 -0.06680802 -0.07266692 -0.16648968 -0.06950279 0.060803622 -0.097318165
0.07786978 0.024838436 -0.09066527 0.007515849 0.05391079 -0.06915051 0.024383685 0.05543031
0.077345 0.024853392 0.024748217 0.044652108 0.02749657 0.03672612 -0.006676981 -0.0042250454
0.04532491 0.05323943 0.011562017 0.08023816 0.011359392 -0.0560036 -0.08848972 0.058160964
0.06642935 -0.029556954 -0.0025685676 -0.048325952 -0.011468578 -0.024904067 -0.046463035 0.016340561
0.10841252 0.105407044 0.10215923 -0.004826668 -0.028229062 0.09677525 -0.027183397 -0.025095755
-0.008050663 0.125915 0.019099005 0.041525006 0.09800668 -0.014859231 -0.0889962 0.07998117
00000000: 708e aabd e5ac a63d ff87 bbbc 279a 91bd
00000010: 7b21 473d e278 2abb 9bc7 54bd 0fda f3bc
00000020: 7e0f b93c 0de9 063d dbf0 58bd 09c8 05bd
00000030: 941f ac3d aea1 e93b f59a a53d 5735 a73b
00000040: 5a89 713d 8df9 503d f6bd 9cbd 515a d4bc
00000050: 5dfc 843d 9554 f0bc 28ef 42bc 17c8 1ebd
00000060: fe06 bfbd 26c2 013d df6f 023e 5079 78bd
00000070: 6d2a e23c 426c a63c 1402 a2bc d4f7 283d
00000080: 3dba 73bd 6d33 c13d 5faa a73d 75b3 4e3d
00000090: 73a5 ffbb 1308 623b c9d2 b43d 6460 2e3c
000000a0: f3bb 5c3c 1c4a b4bc 5f2d 94bd c9f2 97bc
000000b0: b073 8abc c49e 173d 7540 1ebd 05f3 3d3d
000000c0: 1a9f d7bb 228a be3c 8d67 b2bd e4c8 95bd
000000d0: 0f90 b4bc 1843 0d3d fb13 023d 8a2f 953d
000000e0: 2e6c 343d 825c 823c 24f6 bb3d d69e 253d
000000f0: f21f 62bc 720c ccbc 5461 b4bd 1c3f 71bd
00000100: 281a 293c 7e2c 633b 4b01 1ebd c29c 153c
00000110: 511d 43bd 5091 1dbe 6169 dabd b4a3 2e3d
00000120: 965b 72bd 2d81 3b3d 6b59 993d c575 d33d
00000130: 49a1 e7bc 1b08 963c cff8 ad3d 3e5b 383d
00000140: dc30 013d 1da0 05bd f072 20bd a1a9 013d
00000150: 1743 703d 47ef d23c 0558 bbbd 09e8 323d
00000160: 8e1b 063e 3bce 34bd 9996 d53c bd2e ee3c
00000170: 59e1 2ebc 7ca8 dc3c 45f8 ea3d e4f5 c5bd
00000180: a87a 153d 6342 1fbc 893c 4ebd 85f4 513d
00000190: 67ad a03d 3de5 513c c97e 8a3d d65a 4bbd
000001a0: 68df 613d 11c2 15bd d339 f43c 1c00 f3bc
000001b0: 5d00 bd3d 490f 0e3e f1a9 9e3c 5cf0 d03c
000001c0: 1695 07bc 9dbd a2bd 95dc 1c3d 982d b73d
000001d0: 575e 5abd 04d2 0f3c 2644 073d 1651 bc3c
000001e0: 50e4 e2bd 6d6a 113c 5980 b13d e121 b1bc
000001f0: 31d9 aebd 0332 11bd 7a8e 25bd 3a4e 823d
00000200: 3326 df3d 4033 fcbd 50f1 88bd e213 2bbe
00000210: a090 9dbd b96c d13d 4ddd a2bb 5a5d 10bb
00000220: f257 563d ae86 7a3c c6ef 8bbd 1cca 733d
00000230: e0c4 3fbd 6139 28bd e522 9a3c aaa1 58bd
00000240: d8b6 2e3d 471c 153d 153c 67bc 9aa1 ed3c
00000250: dadf 08bd e525 6b3d e73b eabc 2dc4 adbd
00000260: 98bd 813c 7631 a03d b740 943d 3429 553c
00000270: b047 383d 1f0c 363d c3f3 2bbd bd06 143d
00000280: 33bc a23d 22b1 cfbc 8ca7 72bd b36a 393d
00000290: 6822 883d 2ee4 823d 309c 43bd f453 64bd
000002a0: 7098 373d dda7 9b3d 5cd8 773d 5bfd 10bd
000002b0: a064 953d 41e1 513d 1edb 1b3d 49f7 85bd
000002c0: d951 0bbc c7a1 e63d 731f cb3c c75f c23a
000002d0: 5c3f 063c 04dd b9ba 2803 093c 5c07 68bd
000002e0: 9f46 2dbd 5246 6abc 6111 30bc 2925 a0bd
000002f0: d640 b63c 0b32 da3b a1cf 823d a933 cf3b
00000300: 65c4 fcbd cc59 c33b 68f4 e93c 5f8c e7bd
00000310: e301 7dbd e83d b5bd 00e2 f1bd ef78 fb3b
00000320: 3843 bf3d 3b64 7f3b a5d2 88bd 65d2 94bd
00000330: 457c 2abe 7b57 8ebd 380d 793d bf4e c7bd
00000340: 317a 9f3d fa79 cb3c b7ae b9bd 8347 f63b
00000350: 8fd1 5c3d c89e 8dbd 4bc0 c73c e50a 633d
00000360: 0e67 9e3d 5799 cb3c c6bc ca3c 21e5 363d
00000370: 7d40 e13c 216e 163d 94ca dabb 4072 8abb
00000380: 9da6 393d 9711 5a3d 9d6e 3d3c e853 a43d
00000390: be1c 3a3c 0864 65bd 193a b5bd 313a 6e3d
000003a0: 1c0c 883d 6d21 f2bc 6a55 28bb 6ff1 45bd
000003b0: b4e6 3bbc 9d03 ccbc 0650 3ebd a4dc 853c
000003c0: 6207 de3d a6df d73d dc38 d13d 0729 9ebb
000003d0: a240 e7bc 1a32 c63d b7af debc 9d95 cdbc
000003e0: eee6 03bc ddef 003e 8475 9c3c 2016 2a3d
000003f0: bab7 c83d 2274 73bc a443 b6bd 2bcd a33d

classifier.1.bias f4 [48]
0.041576516 0.08244787 0.0674936 0.10906073 -0.02877752 0.10977139 -0.029214205 -0.021308973
0.07378603 -0.012575184 0.03160524 0.07414925 -0.0052323462 0.014808301 0.01420058 0.09225317
0.072020054 0.0038622615 -0.021497982 0.0427956 0.049700093 0.04862439 0.03650008 0.03528066
0.0073730554 -0.036828328 -0.0004936228 -0.028405258 0.037017405 -0.030134035 -0.024689846 0.018171864
0.02210456 0.01603236 0.016286772 -0.033660885 0.009109542 -0.032515667 0.029323902 0.07040398
0.040054154 0.03603476 0.068205416 0.07038143 0.1035196 0.09323597 0.061611023 0.008438456
00000000: 234c 2a3d 6eda a83d 163a 8a3d 3b5b df3d
00000010: d5be ebbc d3cf e03d a152 efbc 2890 aebc
00000020: 211d 973d 2508 4ebc 7f74 013d 90db 973d
00000030: 1a74 abbb 849e 723c 8da9 683c 3bef bc3d
00000040: 407f 933d ff1d 7d3b 891c b0bc 704a 2f3d
00000050: 5392 4b3d 5e2a 473d 1c81 153d 7482 103d
00000060: ac99 f13b 4dd9 16bd 7766 01ba 25b2 e8bc
00000070: 909f 173d a7db f6bc 5c42 cabc 29dd 943c
00000080: 9f14 b53c 4c56 833c d66b 853c ffdf 09bd
00000090: 3040 153c 262f 05bd ae38 f03c f62f 903d
000000a0: d30f 243d 2f99 133d 48af 8b3d 2424 903d
000000b0: 1602 d43d 80f2 be3d d75b 7c3d 7341 0a3c
