src/models/mnist_model_20241222_185157.pth (torch, 109309 bytes, 34 tensors)

block1.0.weight f4 [16, 1, 3, 3]
00000000: 3974 803e 8ffd 8b3e 8bb1 c3bd 8b11 913e
00000010: 128a 83bd 3df1 713d a58b 0ebe 1cad 603e
00000020: 8b0a 9d3e 1da5 69be cde0 893e 3162 6e3d
00000030: 1ed6 8e3e 2c45 ae3d 8dd3 433e dbe9 76bc
00000040: e2e7 7d3e b0d3 8b3d 711e 2dbe c9ed b73d
00000050: a348 0bbe 7cee a7bd 62a9 f1bd deaa 6e3e
00000060: bb8e 63be 3ccd 1cbe 3309 dbbd 9a2d 58be
00000070: d593 ccbb 0f65 bcbe ad68 9b3e 2e2c 91be
00000080: 89a4 653e 2f62 9f3d e0f6 acbd 8cc1 483e
00000090: 3426 9e3c f2dd 883e afd4 283d 99d1 06be
000000a0: 3605 b23d 4f37 d6bd 0814 d53d 724b 9a3e
000000b0: 709c 563e e028 f8bd da82 483e 1d51 dc3c
000000c0: 8c47 3b3e 8e10 3abe d6eb aebe e325 13be
000000d0: 2010 65be 8777 973e ac94 b03d 71a5 0c3e
000000e0: e280 f43d 6695 1dbd 8062 643e f948 68be
000000f0: 51e2 15bd 72ec 8ebe 3273 8c3d a9d2 00be
00000100: 9961 9c3d fe71 96bd 6772 843e 0ea5 51be
00000110: ab91 57be 56c0 3dbe 79a1 a03e 9297 143e
00000120: 7fd9 933e d98a 98be 93c8 b8be 2fef 80be
00000130: 8a9e 5ebe 3c83 d43d c236 153e bd9f 8e3e
00000140: 3be6 4abe 7673 81be 1352 193e e1a6 0dbe
00000150: 7fb4 3d3e 90fa 8cbd 86ed 4d3e 5989 7dbe
00000160: a370 2cbe a367 f23d fe6c a03d b5d1 c8bd
00000170: d624 263e 4a12 823e cc7d 7dbe 47ab 37be
00000180: e33c 993e a7c5 0bbe 95d3 ccbd 6b45 95be
00000190: e1de ebbd e439 f23d 3f2c 40bd 8a88 2fbe
000001a0: 34d9 afbb c630 27be 80df 7bbe 159d 81be
000001b0: d0fd 95be 1842 3ebe f792 b23e e605 e93c
000001c0: 9f4b de3d e4db 9fbe 2293 4dbe 4662 aebd
000001d0: 914f 2a3d 8d0a 98be 37a0 e9bd 01a5 5fbe
000001e0: 4446 11bb dade b1bd a849 68bc d615 84be
000001f0: 5366 3dbe 787b 3cbe 1304 cabd baeb 79be
00000200: 15f6 993e 02f8 5dbd 7d8f 9d3e 2942 083e
00000210: 1fc1 8bbe 40ae 653e b4cf a6bd 911c 14be
00000220: d1a5 74be 7de4 7bbe 61fa 0a3d 4d08 b5bd
00000230: f4ac 1b3e 4429 96be 6f1f 823e c390 80be
0.2508867 0.27341887 -0.09555348 0.28333697 -0.06422819 0.059067953 -0.13920458 0.21941036
0.30672106 -0.22816892 0.26929322 0.05819911 0.27897733 0.08509287 0.19123669 -0.015070404
0.24795488 0.068274856 -0.16906144 0.08980901 -0.13601927 -0.08199784 -0.11799885 0.23307368
-0.22222416 -0.15312666 -0.10695114 -0.21111146 -0.006243209 -0.36795852 0.303533 -0.2835402
0.22426046 0.07782399 -0.08445525 0.19605082 0.019305326 0.2673183 0.041218456 -0.13165893
0.086924 -0.10459768 0.10404211 0.30135685 0.20958114 -0.12117171 0.19581166 0.026894147
0.18289012 -0.18170378 -0.34164304 -0.14369921 -0.22369432 0.2958338 0.08622107 0.13734986
0.11938645 -0.038472556 0.223032 -0.22684087 -0.036592785 -0.27914768 0.06857909 -0.1258036
0.07635803 -0.07345961 0.25868532 -0.2047312 -0.21051662 -0.18530402 0.31373194 0.14510944
0.28876874 -0.29793432 -0.36090526 -0.25182483 -0.21740165 0.103765935 0.1457167 0.27856246
-0.19814388 -0.25283402 0.14972715 -0.1383319 0.18525885 -0.068837285 0.20110139 -0.24759425
-0.16839842 0.118361734 0.078332886 -0.098056234 0.1622499 0.25404578 -0.24755019 -0.17936431
0.29929265 -0.13649617 -0.100012936 -0.29154524 -0.1151712 0.11827448 -0.046917196 -0.1714193
-0.005366469 -0.163272 -0.24596977 -0.25315157 -0.29295206 -0.185799 0.3487775 0.028445195
0.10854267 -0.3122245 -0.20075658 -0.08514838 0.041579787 -0.2969555 -0.11407512 -0.21840288
-0.0022167126 -0.08685084 -0.014177717 -0.2579791 -0.18496065 -0.18406475 -0.09864058 -0.24406329
0.30070558 -0.054191597 0.30773535 0.13306488 -0.27295777 0.22429752 -0.08145085 -0.14464022
-0.23891379 -0.2459888 0.033930186 -0.08839474 0.15202695 -0.29328358 0.25414607 -0.25110444

block1.0.bias f4 [16]
00000000: 91e9 bebc 9651 b03d 381e 113e 4cc3 8f3e
00000010: c114 943e c72b 83be 5118 083e 10ae 2bbe
00000020: bcf8 6ebd e624 7abe d493 9b3e f44a 58be
00000030: ead3 363e 75ba f63d cd97 c63d 8ef2 39be
-0.023304733 0.08609311 0.14171684 0.28078687 0.28922084 -0.25619337 0.13290526 -0.16765618
-0.05834268 -0.24428138 0.3038622 -0.21122342 0.17854276 0.120472826 0.096969225 -0.18158934

block1.1.weight f4 [16]
00000000: 2680 793f b753 783f ca87 813f 183c 813f
00000010: b07b 7b3f b152 863f 92f0 843f 6c3e 7f3f
00000020: a65d 773f 32b2 7d3f d528 813f 8607 813f
00000030: 8b36 7e3f 9abb 813f 8ed2 7d3f 6fca 7f3f
0.97461164 0.9700274 1.0119565 1.0096464 0.9823561 1.0493985 1.0385916 0.99704623
0.9662727 0.9910003 1.0090586 1.0080421 0.99301976 1.0135376 0.99149406 0.99918264

block1.1.bias f4 [16]
00000000: ffa4 87bc d38b ab3b 75b5 873c 2f9f 063d
00000010: 3aa0 23bc f912 f33c 1e88 1c3d 450c 25bd
00000020: 2049 ffbc 17e6 91bb 7b20 faba 5ff8 3ebb
00000030: b6cc 3dbc 7788 bd3b 197e 583b 8974 21bc
-0.016558168 0.005235174 0.016566018 0.032866653 -0.009986931 0.029672133 0.03821575 -0.040294904
-0.031162798 -0.0044524777 -0.0019083166 -0.002913974 -0.011584451 0.00578409 0.0033034144 -0.009854444

block1.1.running_mean f4 [16]
00000000: d8e5 f23d 1301 563e 7cee 6a3d 2780 843e
00000010: 7891 c83e 5592 97be 0e98 0c3e 40b5 30be
00000020: 1d6b fabd 9548 8bbe 1919 9f3e 243e babe
00000030: f9e2 dc3d 8a9a 63bd 8303 003e d275 92be
0.118602455 0.20898847 0.057356343 0.25879022 0.39173484 -0.2960383 0.1372988 -0.17256641
-0.122274615 -0.27203813 0.31073835 -0.36375535 0.10785479 -0.0555673 0.1250134 -0.28605515

block1.1.running_var f4 [16]
00000000: 777e 9a3d e1c4 8d3d 5796 ff3c 42a0 5d3c
00000010: e18a 363d 82ee 533c 7707 003c 0c88 9b3b
00000020: 0abb 073d f4a5 f93b dbf9 623c 0fea b73d
00000030: 2e43 c23c 9a13 e23d 63e4 9b3c abfa 2d3d
0.075436525 0.06922317 0.031199617 0.013526978 0.04456604 0.012935283 0.00781428 0.0047464427
0.03313736 0.00761866 0.0138535155 0.0898019 0.023713674 0.11038895 0.019029802 0.042475384

block1.3.weight f4 [16, 16, 3, 3]
00000000: 812d 753d e95f af3c ddb5 5a3c 0898 afbd
00000010: ab40 ab3c fc66 9fbc 8da7 2dbd 775f 953d
00000020: 09f0 6f3c 2a51 54bd 13c8 36bd 9a15 8fbc
00000030: 2c11 013d 16c8 17bd cb63 75bd db1d cabc
00000040: da9d 5fbd 9c49 b83c d919 763d d4a9 b8bd
00000050: 4b7b f9bc 99f1 243d ac5e 9639 b123 0dbd
00000060: 5d13 f53c 62e7 803d 3917 823c 915e 10bd
00000070: 1c5f 40bd 4ca8 9fbc e525 c1ba bdbc c7bc
00000080: b2ce 373d 7500 e13d 358c 143d 1294 f7bb
00000090: a703 93bb 6759 b2bb cfa2 4a3c d1c0 863c
000000a0: 3f69 9fbd e995 17bd 8c8a a43d b59b 293d
000000b0: 9278 413b b18d dcbc a05a d1bc 716b 3fbd
000000c0: d885 d53c abfd af3d 064b 513d df98 803d
000000d0: 03a0 96bd 8fae d2bc ebaf 7a3b c709 e43d
000000e0: d313 493d c70d bebc 6087 3a3d 271e 16bd
000000f0: 0fa4 75bd eaea 023d d214 33bd 0671 54bc
00000100: 04ed 89bd 452a 0a3d 624f 903d bb90 d63c
00000110: 3a8d 22bd e0f4 59bd 3ee9 14bd 823b 853d
00000120: 0450 2f3b 67ed 5e3d 95aa 4c3d f299 ee3c
00000130: afce 3a3c 976d b5bc 36a3 bcbc 1aba 49bd
00000140: 2e97 343d de98 53bd 6cc2 f7bc a864 b9bd
00000150: 7f23 50bd d6c7 99bd d0d4 9cbd c369 8dbc
00000160: ca1a 78bc 8f06 083d f0a6 41bd 342a 98bd
00000170: 9b96 58bc 8306 a1bd 483d d6bc bc83 aabd
00000180: c18d 933c 5bf0 2cbd 4719 8b3d 8155 2d3d
00000190: 061b 543d 175a d1bd 216b 953d d1a3 26bd
000001a0: a4f0 be3c 12d6 9b3d d8aa bdbb eb37 f3bb
000001b0: a2e5 933c bfc8 8cbd 8ab2 633b 90d9 32bd
000001c0: 9cd5 7a3d 8384 fd3c 76e2 9f3d 063d 40bd
000001d0: 8f71 a1bd 4af1 b53b 87f7 e63c 0fd4 fabd
000001e0: 677b 82bc 31ea 61bd 0019 37bc 8634 18bd
000001f0: f51f 9dbc 5993 babc d0fd 86bd fa32 843d
00000200: 3774 343d 08d9 b2bc eaef 08bd bad7 80bd
00000210: df4a a2bd 112f c5bd f261 603c 375c 89bd
00000220: 85ef a0bd dcd9 50bd 42a4 04bd e95e f6bc
00000230: 905e 623c a838 37bc b942 87bc 0ff7 43bd
00000240: 99c8 dbbd 13fc 493d 8e9a ecbc 38d0 283b
00000250: 1a83 1bbd 9758 2e3c 260f b13d ca32 1f3d
00000260: c48b a9bd fcdb c03c d763 9c3d 19e5 003d
00000270: 97f9 533d 8310 9d3d f955 94bc 9d0f 943c
00000280: 775b 80bd 6567 7bbc e278 163d 5f66 203d
00000290: e861 67bd b7bd bbbd a27d 82bd 1d96 a7bd
000002a0: 1df4 acbd 90c9 babb 1463 883d 0828 1e3d
000002b0: beef 8ebd 4b2c 93bd 6e66 473d 7e08 61bd
000002c0: 1cd3 0dbd 1aaf 1c3d 7566 debc 7b5b 18bd
000002d0: f20c f1bc 1493 22bd 4c6e 41bd dab7 a5bd
000002e0: cf4c 9abd ef6d 26bd 4b6f a33d 8a83 3abd
000002f0: e240 59bd a67a 5bbc 8867 023d 3f87 733d
00000300: cd52 873d deac 903d bb54 90bd 57c9 b3bb
00000310: 298b 263d 36a3 0cbd bed1 83bd 18d4 b33d
00000320: 0170 43bc 361b 36bd 153f 84bd 5e65 2d3c
00000330: f5c8 d53c 8600 15bc f6a2 8ebc d5f0 6cbd
00000340: e6dd cabd c3f3 a4bb 964a cb3d 7340 303d
00000350: 334c 96bd d338 873c 5935 3fbc 0e29 1dbd
00000360: 65e6 373d 74a4 7c3d 87d6 463d eda0 b8bd
00000370: 2b9e 343d a939 a0bd 8edf 503c 2d2d 5f3d
00000380: 772e d13c 32d7 413d a838 3dbd 3b02 693c
00000390: bac2 3b3c 1a68 acbc 6c6f 8ebc 2d42 e1bc
000003a0: 2940 453d 55ca b73c 9430 913c 693c 72bd
000003b0: 7064 aabd 6aca 083d 1db4 503d f132 26bd
000003c0: 4009 503a 0071 753d 8b27 c73b 2fa8 70bc
000003d0: afc1 b5bc cb22 8ebd b666 cabd af95 36bd
000003e0: c7b8 23bd 2d1e 763c 0df5 5fbc 29ed 8dbc
000003f0: fb7b 5d3d 8635 0b3d ad60 923d 43f4 39bd
0.05985785 0.021408038 0.013349024 -0.085739195 0.02090486 -0.019458286 -0.042396117 0.07293599
0.014644631 -0.051835217 -0.0446244 -0.017466355 0.031510517 -0.03705605 -0.059909623 -0.02467244
-0.0545939 0.022496037 0.060083244 -0.09016767 -0.030454298 0.040269468 0.00028680766 -0.034457866
0.02991646 0.06294133 0.015880214 -0.035246436 -0.046965703 -0.01948943 -0.0014736025 -0.02438199
0.044874854 0.10986415 0.036266524 -0.007555493 -0.0044865194 -0.0054427865 0.012367918 0.016449364
-0.07783746 -0.0370082 0.08034238 0.04140826 0.0029521328 -0.026923032 -0.025555909 -0.046733323
0.026064798 0.08593305 0.05109694 0.06279158 -0.073547386 -0.025718002 0.0038251828 0.111346774
0.04909117 -0.023199929 0.04553926 -0.03664985 -0.05997091 0.031962313 -0.043721028 -0.0129664
-0.0673466 0.033731718 0.07046391 0.02619206 -0.039685465 -0.053212047 -0.03635525 0.06505491
0.0026750574 0.054425623 0.049967367 0.029126141 0.011401816 -0.022146983 -0.023027044 -0.049249746
0.04408949 -0.051659457 -0.030244075 -0.09052402 -0.0508151 -0.07508819 -0.07657778 -0.017262345
-0.015143106 0.03320938 -0.047278345 -0.074299246 -0.013219501 -0.0786257 -0.026152268 -0.083259076
0.01801193 -0.04222141 0.06791931 0.04231787 0.051783584 -0.102222614 0.07295824 -0.04068357
0.023308106 0.0760919 -0.0057881884 -0.0074224374 0.018053833 -0.06874227 0.0034743869 -0.043664515
0.06123887 0.030946976 0.07806866 -0.046933196 -0.07882988 0.0055524455 0.028194202 -0.12247478
-0.015927983 -0.055154983 -0.011175394 -0.037159465 -0.019180277 -0.022775339 -0.0659138 0.064550355
0.044056144 -0.021832004 -0.033431925 -0.062911466 -0.07924437 -0.09628118 0.013695227 -0.06707042
-0.07858185 -0.050989017 -0.03238321 -0.030074554 0.013816491 -0.0111829415 -0.016511308 -0.047843035
-0.1073162 0.049312662 -0.028882291 0.0025758874 -0.037966825 0.010641239 0.086454675 0.038866796
-0.08278611 0.023542397 0.076362304 0.031468485 0.0517517 0.07669165 -0.018107401 0.018073851
-0.062674455 -0.015344475 0.036736377 0.03916013 -0.056489855 -0.091670446 -0.06371619 -0.08182929
-0.084449984 -0.0057002977 0.06659523 0.038612396 -0.06979321 -0.071861826 0.04868167 -0.05493974
-0.034625158 0.038252927 -0.027148465 -0.037196618 -0.029425118 -0.039691046 -0.047224328 -0.080917075
-0.07534181 -0.040632185 0.07980212 -0.0455356 -0.053040393 -0.013395941 0.031837016 0.059455153
0.0660759 0.07064222 -0.07047411 -0.005486648 0.040660057 -0.034335338 -0.064364895 0.08780688
-0.011928559 -0.044459544 -0.064573444 0.01058325 0.0260968 -0.009094363 -0.01741169 -0.057846863
-0.09905605 -0.0050339415 0.099263355 0.043030214 -0.073387526 0.016506588 -0.011670434 -0.03836923
0.044897456 0.061680272 0.048544433 -0.09015069 0.044096153 -0.07823498 0.012748612 0.054486442
0.025534851 0.047324367 -0.04619661 0.014221723 0.011460001 -0.021045733 -0.017387114 -0.027497375
0.04815689 0.022435347 0.01772336 -0.059139643 -0.08319938 0.033396162 0.05095302 -0.040575925
0.00079359487 0.05992222 0.006077712 -0.014688536 -0.022187082 -0.0694023 -0.09882872 -0.044576343
-0.03997114 0.015021843 -0.0136692645 -0.017325 0.054073315 0.03398659 0.07147346 -0.04539896

block1.3.bias f4 [16]
00000000: 51b4 fabc 8aa9 2abd 18e1 633d af17 00bd
00000010: 3b1c 9c3d 22f5 50bd 0b67 fbbc 05ce 85bd
00000020: 1ac4 4cbd 25ad a33b aa93 1cbd 9aa4 dfbc
00000030: 29c8 433d 1816 713d 38c1 0cba 4a43 3ebd
-0.03060356 -0.04166559 0.055634588 -0.031272586 0.07622572 -0.051015027 -0.030688783 -0.06533436
-0.049991705 0.0049950057 -0.03822676 -0.027300168 0.04779831 0.05885896 -0.0005369368 -0.04645089

block1.4.weight f4 [16]
00000000: 226e 833f 2510 803f 2fa6 7a3f 76e4 7d3f
00000010: 9fc2 7e3f 5379 7c3f 2e50 7b3f e506 7d3f
00000020: ef2b 843f fc5e 803f 15d8 853f 18a7 813f
00000030: 9c22 7a3f d24c 823f 62a8 843f 9a1a 773f
1.0267985 1.0004927 0.97909826 0.9917673 0.9951572 0.98622626 0.9816922 0.98838645
1.0325907 1.0028987 1.0456568 1.0129118 0.9770906 1.0179694 1.0363886 0.96524966

block1.4.bias f4 [16]
00000000: 1698 48bd 0db7 253d eecf f7bc bb92 67bb
00000010: cc02 9e3c 59f0 bdbb d1ea 81bb a649 32bc
00000020: 8c64 b33c 64b1 433a 9664 4d3d 8bc9 b9bb
00000030: 87e7 3ebb 356f 8d3c 5ab1 74bc 0723 51bd
-0.048973165 0.040457774 -0.030250516 -0.003533526 0.019288443 -0.005796474 -0.00396476 -0.010881817
0.02189853 0.0007465093 0.050144754 -0.0056697777 -0.00291297 0.017264942 -0.014934862 -0.051058795

block1.4.running_mean f4 [16]
00000000: 3f0e d1be cfc8 a4be f08e 41bd 5b43 8dbe
00000010: 506b e23d bdf3 64be 9cb0 19be ce1e 52bd
00000020: 9c3f 8bbc 3c62 78be c6bf f93d dc58 abbd
00000030: bb4c acbe 5b1c 9d3e 1b6e 9ebe 7ac8 903e
-0.4083118 -0.32184455 -0.047255456 -0.2759045 0.110556245 -0.22358604 -0.15008777 -0.05129891
-0.016998105 -0.24256223 0.12194781 -0.08366558 -0.3365229 0.30685696 -0.3094338 0.2827795

block1.4.running_var f4 [16]
00000000: 4d29 093e 880d 153e 5933 0d3e 2b45 9c3e
00000010: e1bf 493e 348d c83d 8d11 c43e 3054 2f3e
00000020: fce4 4c3e a7e6 9b3e db93 503e 7628 a63e
00000030: 3349 2a3e 7424 3c3e 4456 363e 591d 543e
0.13394661 0.14555943 0.13789119 0.3052152 0.19702102 0.09792557 0.3829464 0.17121959
0.20009226 0.3044941 0.20368902 0.32452744 0.16629486 0.18373281 0.17806345 0.2071432

block2.0.weight f4 [32, 16, 3, 3]
00000000: ab19 8fbd 4d40 a6bd 4bb1 043d 59c6 75bd
00000010: 1597 57bd 2988 20bd b2bb 77bd 2905 223d
00000020: abb9 9b3d 9970 aa3c 8d29 eabc f9db db3d
00000030: 24f6 923c 6fe3 6cbc 3b4e 8c3a 6352 82bc
00000040: 12fe fe3c 5b7a 403d b3a8 7a3d ef0d 0cbd
00000050: 861f ec3c e270 abbc 49eb 54bb 2787 3e3c
00000060: f10c 7abd 745f a4bc 915c ddbc e087 96bc
00000070: ce3d 33bb 4da1 b1bc 5cba b3bd 9af2 3a3d
00000080: ec8d 57bd fd5d e33c 7f3d 873d b124 08bd
00000090: f9f4 823b cba3 903d 2320 ac3d cd40 763c
000000a0: 6a58 8a3d cece 2dbd a828 3bbd bbe1 a03d
000000b0: da1a 38bc 72ca fa3d 0866 a73c f443 91bc
000000c0: 9842 723d 95c1 963d 083b f23c 76cb 9bbd
000000d0: 49c1 87bc ad92 afbc d654 b13d f729 453c
000000e0: b369 293c 0a9b 603d d738 9d3c 02dc 80bd
000000f0: e202 123d cb64 fb3b 9eb3 acbd 0f04 833d
00000100: 1792 613d 7316 373b 9e2e 2fbd 753c ad3b
00000110: d706 83bd ff56 5f3d be5c 593d 34a2 37bd
00000120: 82f8 433d f76a 06bd a9ba 2b3d 9645 8fbd
00000130: 6204 d7bc cfe1 023d 9a9d 0c3d 9b7b 523c
00000140: 2aec 67bc cdf1 793d b809 853d b30b 533d
00000150: eb40 99bc 3241 343d 3f2f 093d b581 6b3d
00000160: a647 5a3c 3f67 c43c dc2d f53b eba3 1f3c
00000170: bf5e f3bc e224 863d a093 b63c 64e1 80bd
00000180: 7e6e a33b 9e53 99bd 641d 86bd fde6 2e3d
00000190: 5d02 e83c 45e5 6cbc 476a cc3d 3ddd b8bc
000001a0: 642f 11bd 81c6 a7bc 64d6 8dbc 2a0a 17bd
000001b0: a65d d83d dc74 18bd 2695 44bd 5a63 703b
000001c0: da8d 7e3d c486 243d 5055 003d ac07 bd3c
000001d0: e308 ac3d 658e 3c3d 630a 563d 4df7 3bbc
000001e0: 182b a8bd 879d 45bd a67e 763d 5e4d 3c3d
000001f0: 75dc 53bd 67a1 a53d fda2 adbb bab9 01bd
00000200: c75a b6bb cdba 5fbd cafa 143d be22 07bc
00000210: a164 363c 0207 bfbd 6099 d1bc d363 083d
00000220: 33e8 ad3d 00c7 663d 9ff6 153d 83d9 aabd
00000230: b00e dcbc 704d 94bd 3120 cebd 7acc dabc
00000240: e436 2abd d3f8 6d3d 6a0d 7fbd a093 513c
00000250: e48b 7b3c d2fc 09be 927e 473c 1d39 62bd
00000260: 4abe 31bc b63f 2c3d 90bb 14bd 9e7e 6ebd
00000270: f0fa 833d 351c 37bb cad5 94bc f792 473d
00000280: 8ddb 34bd 8a8a 6cbc a618 063d 75b9 d43c
00000290: ddda 55bd 625f ea3c e7a1 50bd 1406 78bc
000002a0: dde8 743d 6d8d 123c 88c0 dabc f9c6 c43b
000002b0: 8a66 143c b87c aabd 37c2 85bd 415b bfbd
000002c0: 40ca 2dbc a99a 94bd df23 2a3d 36d5 5d3c
000002d0: 3b8e adbd 9361 fbbc d09e 5dbd 7bda a7bd
000002e0: 94d5 adbc 624f a9bd b21e dbbd 5ec1 853d
000002f0: 628b d9bb 9fe5 3cbd f677 dcbb 6496 6a3d
00000300: 5588 bcbd 7556 90bd f77c 87bd 10e0 9abd
00000310: 8655 38bd a23b 53bd afdd 813d 5867 45bd
00000320: be34 9c3d c897 1dbd 1a18 e03a c19a 093c
00000330: e530 a8bc 8ba9 8b3d 2c20 73bd 84f4 13ba
00000340: c1f3 48bd 7c8e 053c 4225 423d b98b 083d
00000350: 32ef 063c e50b 9abd cf0f 2c3d 0eb1 b1bc
00000360: d1f8 8f3d 44c7 4abd e420 2dbd c0ca 6dbd
00000370: c031 403d 4f1d c5bc 4008 e3bd 2746 49bd
00000380: 6727 62bd f49e f13c 9fbc 263d a125 1cbd
00000390: 81ef ed3c 12bd 40bd 04d9 513c c6bb d3bd
000003a0: d5c4 dfbc 1942 223d 8b78 c03d c812 c43c
000003b0: e87f 503d 2257 963d 8444 643c 50c5 0a3d
000003c0: 2787 443b 013c 993d df38 043e dcf1 90bd
000003d0: 3f0a 45bc 39bb dfbc 8678 ec3b e71a 9fbd
000003e0: 9c99 363d ee5e 3fbd 0446 483d c21f 523d
000003f0: dd39 4cbd f1af ad3b 8bc8 483d bcc4 a7bd
-0.06987318 -0.08117733 0.032395642 -0.060003612 -0.052634317 -0.039192352 -0.060481735 0.039555702
0.07603773 0.020805644 -0.028584266 0.10735316 0.017939635 -0.014458521 0.0010704467 -0.015908426
0.03112701 0.046991687 0.06119604 -0.034192976 0.028823625 -0.02092785 -0.0032488874 0.0116289025
-0.061047498 -0.020065047 -0.027021678 -0.018375337 -0.002735007 -0.02168336 -0.087757796 0.04564152
-0.05262558 0.027754778 0.06603526 -0.033238117 0.003996488 0.07062491 0.08404567 0.015030098
0.06755145 -0.042433552 -0.04569307 0.07855555 -0.011236871 0.12245645 0.020434394 -0.017732598
0.05914554 0.073611416 0.029569164 -0.076071665 -0.016571658 -0.021432245 0.08658759 0.012033931
0.010340142 0.054835357 0.019192142 -0.06291963 0.03564728 0.0076719276 -0.08432697 0.063972585
0.055070963 0.0027936965 -0.042769067 0.005286748 -0.06397789 0.054526325 0.05306696 -0.044832423
0.047844417 -0.032816853 0.04192606 -0.06995694 -0.026247207 0.03195363 0.034329988 0.012846853
-0.014155427 0.061021615 0.06495994 0.05152483 -0.018707713 0.044007488 0.033492323 0.057496745
0.013322746 0.023975013 0.0074822735 0.009743671 -0.029708264 0.065500036 0.02228719 -0.0629299
0.004987537 -0.07486652 -0.065485746 0.042700756 0.02832144 -0.014458959 0.09981208 -0.022566432
-0.035445586 -0.020480396 -0.017314143 -0.036874928 0.10564737 -0.03722082 -0.0479938 0.0036680312
0.062147 0.040167585 0.03133136 0.023074947 0.084001325 0.046034236 0.052256 -0.011472535
-0.082113445 -0.048245933 0.060179375 0.04597222 -0.051723916 0.08087426 -0.0052989707 -0.031671263
-0.0055650207 -0.054621506 0.036371984 -0.008248029 0.01113239 -0.093275085 -0.02558583 0.033298325
0.08491554 0.056342125 0.03661215 -0.08342268 -0.026862472 -0.072413325 -0.10064734 -0.02670883
-0.041556254 0.058098625 -0.062268652 0.012791544 0.015353177 -0.1347535 0.012176173 -0.05523025
-0.010848591 0.042052947 -0.036311686 -0.05822622 0.06444347 -0.0027940397 -0.018168349 0.04872414
-0.044154692 -0.014437327 0.03273835 0.025967339 -0.052210677 0.028609935 -0.050935652 -0.015138168
0.05979239 0.008944851 -0.026703134 0.0060051647 0.00905765 -0.083245695 -0.06531184 -0.09343577
-0.010607302 -0.072560616 0.041538116 0.013539603 -0.08474394 -0.030686175 -0.054106534 -0.08195969
-0.021220006 -0.08267094 -0.10699214 0.065310225 -0.00663893 -0.04611742 -0.0067281676 0.05727233
-0.09205691 -0.0704774 -0.06615632 -0.07562268 -0.045003437 -0.051570542 0.06341111 -0.04819426
0.07627247 -0.038474828 0.0017097027 0.008398713 -0.020531127 0.06819447 -0.059356853 -0.00056440406
-0.049060587 0.008151647 0.047398813 0.033336375 0.00823574 -0.075218 0.042007264 -0.021690872
0.0702988 -0.04950644 -0.042267695 -0.058054686 0.046922445 -0.024061827 -0.11085558 -0.049139168
-0.05521336 0.02949474 0.040707227 -0.038121823 0.029044868 -0.04705531 0.012808088 -0.10338549
-0.027315537 0.039613817 0.09397992 0.023934737 0.05090323 0.07340838 0.013932351 0.033879578
0.0029987784 0.07482148 0.1291232 -0.07077381 -0.012026369 -0.027310954 0.007216516 -0.07768803
0.044580087 -0.04672139 0.048894897 0.051299818 -0.04985987 0.005300515 0.049019378 -0.08191821

block2.0.bias f4 [32]
00000000: 7260 a0bc 925c e33a 99e4 c63c aadb 443c
00000010: 2ff7 96bd e56b 57bd a204 b4bd 5fd0 65bd
00000020: 35b3 61bd b125 933d 559d 36bd d3d5 a8bd
00000030: d723 843c f77b 813d 66f8 42bd 3981 81bc
00000040: 6939 8f3c b331 343d 3da7 543c 3ce4 5a3d
00000050: 970c 803d 2729 463c 8ae6 4b3d 797b 3a3d
00000060: 5a4e 83bd f66e cd3b e243 623d bdb6 a0bd
00000070: 9767 64bd 6ee3 56bd 98d2 8bba 78af 883d
-0.019577239 0.0017346314 0.024278926 0.012015263 -0.07371365 -0.05259313 -0.08789946 -0.05610692
-0.055102546 0.071849234 -0.044583637 -0.08243909 0.016130371 0.063224725 -0.047600172 -0.015808688
0.01748343 0.04399271 0.012979326 0.053440318 0.06252401 0.012094772 0.049780406 0.04552791
-0.06411429 0.006269331 0.05524052 -0.078473546 -0.055762853 -0.052462988 -0.001066762 0.06674093

block2.1.weight f4 [32]
00000000: 5e3f 7c3f 6086 813f 45aa 853f 65c3 7f3f
00000010: f5b2 7d3f e8d3 823f 89a5 843f 3e92 803f
00000020: b6a2 7b3f 0769 733f f114 7b3f d2d5 7f3f
00000030: a4ad 7d3f 976f 823f c19e 833f 368b 803f
00000040: f1b6 7d3f dbce 7c3f 11e1 823f 0c6e 813f
00000050: 92ab 7f3f 8675 7b3f 09bd 803f 7b7d 7d3f
00000060: dc77 813f 1a23 813f b761 7f3f f8f0 7f3f
00000070: 480f 823f 9efd 7c3f 8dc0 803f d5b1 793f
0.9853419 1.0119133 1.0442587 0.99907523 0.9910119 1.0220919 1.0363017 1.004463
0.9829515 0.95082134 0.9807883 0.9993564 0.9909308 1.0190305 1.0282823 1.0042484
0.9910727 0.98753136 1.0224935 1.0111709 0.9987117 0.982262 1.0057689 0.99019593
1.0114703 1.0088837 0.99758476 0.99977064 1.0160913 0.9882449 1.0058762 0.97536975

block2.1.bias f4 [32]
00000000: f63a fbbc d510 b53b 6820 b63c a968 58bc
00000010: cb05 be3b a565 923c c6f0 c33c ac01 8abc
00000020: 0e3f 2abd 3d53 4ebd 48f9 b9bc f592 583b
00000030: 5464 6abd d142 84bb 67ab 913c acd0 86bc
00000040: 5af8 5bbc b706 ac3c 715c a939 fd1f f53c
00000050: fd33 72bc 0697 b9bc bc9c d839 37ba 94bc
00000060: 4715 c6ba a421 31bc d2ca 0cbc 20c7 31bc
00000070: 07cd 03bd b0bc 94bd 1501 ca3c 3e53 20bd
-0.030667763 0.005525688 0.02223225 -0.013208547 0.0057990304 0.017870734 0.02391852 -0.0168465
-0.04156404 -0.05037235 -0.022701874 0.0033046578 -0.057224587 -0.0040362854 0.017781926 -0.016456924
-0.013425911 0.020999296 0.00032303066 0.02992248 -0.014782903 -0.022655021 0.00041315507 -0.0181552
-0.0015112542 -0.010811243 -0.008593278 -0.010850698 -0.03217795 -0.07262552 0.02465872 -0.039141886

block2.1.running_mean f4 [32]
00000000: 49ac d63e 88cc a3be 64e2 febe cb23 433e
00000010: 7eac f0be ea32 83be 7fa4 66be f490 7ebe
00000020: 617e d43d 9d21 55bd f519 1b3f 467e 3dbf
00000030: a8c9 a53e 1a10 acbf 20f3 7abc 5eff f13e
00000040: dd7b 5d3e 7f92 203f a965 403f ca0b 083e
00000050: 8647 eb3c eb81 883e 9af8 d3bd 5ef2 073f
00000060: bac3 1fbe ab7f 6dbf f7f5 f73e 2b8a 773d
00000070: c76b 6a3e f9ab ea3e dab8 863e 0934 48bd
0.41928318 -0.31991982 -0.49782097 0.19056623 -0.470066 -0.25624782 -0.22523688 -0.24859983
0.10375667 -0.05203401 0.6058648 -0.740208 0.32380414 -1.3442414 -0.015316755 0.47265142
0.21629281 0.62723535 0.7515512 0.13285747 0.028720628 0.2666162 -0.10350151 0.531042
-0.15602008 -0.9277293 0.48429844 0.0604345 0.22892676 0.4583433 0.26312906 -0.04887775

block2.1.running_var f4 [32]
00000000: ff88 2e3f 658f d93e b4d0 cf3e 1ab1 0b3f
00000010: 5888 083f 93e0 653e d195 783e acb3 113f
00000020: 472e 973e 564c aa3e 2a5b 293f e3d2 c93e
00000030: ab63 8e3e f641 763f 8194 d33e 9eca d13e
00000040: 1975 273f e69c cb3e 0e4e d03e 43c5 b73e
00000050: 640f f83e 3e91 013f 8279 b83e 1b13 8d3e
00000060: b64a f23e a132 923f 7b86 f53e cc3f 963e
00000070: 74a4 983e 293e 043f 22ec ce3e ff19 7a3e
0.6817779 0.42492214 0.40588915 0.5456711 0.53333044 0.2244895 0.242759 0.5691478
0.29527494 0.33261365 0.6615473 0.39418706 0.27810416 0.961944 0.41324237 0.40974897
0.6541305 0.39768142 0.4068455 0.35892686 0.48449242 0.50612247 0.36030203 0.2755364
0.47322625 1.1421701 0.47954163 0.29345548 0.29812968 0.5165735 0.4041453 0.24423979

block2.3.weight f4 [16, 32, 3, 3]
00000000: 088c cc3b 8038 de3a 51e7 153d d5e0 69bd
00000010: fa40 db3c e244 0bbd 1214 06bd 296e 1fbd
00000020: fc96 6cbd cef1 613d 7bb3 b13c 467e c83c
00000030: f3c8 4bbd 8dc0 79bd a794 123b 6cda 293d
00000040: 29fd 2e3d a95c 85bd dd70 4d3c 577a 92bd
00000050: 52aa 253c 34a4 18bd edf7 81ba 5f2b 44bc
00000060: f632 efbd 0c39 c3bd f890 953b 9553 053d
00000070: 55f2 783c 5ddb 603c e769 34bd 919d 9cbd
00000080: 3326 d73c 87dc 593d 911d c2bc 1ab9 90bc
00000090: 1e94 153d 70ed 1a3d fa96 02bd e335 23bd
000000a0: c374 283d 589f f13c 4e2e 873c cf8b ba3b
000000b0: 32a6 4abb 561d 833d 3e4e b6bd f7e8 083b
000000c0: 907d b6bc 3289 8c3c d432 ddbb 8ff0 753d
000000d0: 597c 443b 7eec 133d 6473 37bc fcf0 af3c
000000e0: 10f8 51bc 6ef4 10bd 31b8 383b 73ab 803d
000000f0: 5a5e 863c cd5b b83c aeba bb3d a249 2b3d
00000100: ba14 753c a582 323d a092 7ebd 2429 03bd
00000110: 2eb8 e8ba 66c9 59bc 73b2 14bd fbb2 53bc
00000120: f1d1 a23d de6a a13c 3634 4f3d 63f2 b63c
00000130: f817 133c f882 ae3d f994 43bc a95c 113c
00000140: c862 64bd 08cc 3139 c642 79bd 2787 03bc
00000150: 2e5a e53b 1b7d c4bb 70c4 7dbc ed4e 813c
00000160: 22cf 643d 78cd 51bb dd8a 463d 1998 1bbd
00000170: 1714 c3bb 35b1 30bd f88e 43bd f746 e43b
00000180: e0ba e43b 13f5 823c 06fc 3cbc 96f4 dfbc
00000190: f5ab 37bc 1a44 18bd f9db aabc 3e9b 42bd
000001a0: bd47 783d 2eff c4bc 28f2 99bd 1a1a 44bd
000001b0: fd9f 6bbd 5f97 5c3c 86ac 3fbd fce2 9abb
000001c0: 5227 39bc 3350 293d a7f9 cfbb 9705 693d
000001d0: 8818 3d3d 9dd4 ddbc a51c e0bb 51cc a1bd
000001e0: 6e7e 7ebd 0c6c 3cbc 6da2 52bc 2f04 1cbd
000001f0: 8aea fc39 944d 3cbd 77b2 543d b289 7a3d
00000200: 04a3 7b3d ca81 033d 5508 a1bc c481 51bd
00000210: 6438 4bbd 1a44 54bd 3d14 53bc 4d6a 7d3c
00000220: 98fd 043d f4e3 6b3a 4697 383d 79b3 e2bb
00000230: cadd 6bbd 54f2 3b3d e5cf a03d 8837 ca3d
00000240: 6ad1 73bc fe2d 183d 7dde df3c 6446 31bd
00000250: 3077 8ebd 2cc3 3bbd 2170 f23c 1f54 483d
00000260: 3e76 1d3d 4287 173d b9e1 e0bc 5ec8 323d
00000270: 103b a33c 1f03 96bc 4222 61bd 307f 873d
00000280: e473 c33d dce2 1fbc c6ca 40bc 607b 4cbd
00000290: 0266 003d d438 67bc 7d74 e5bc 131e dc3c
000002a0: f3be 2a3c d1e9 3d3d e8a0 b43b 8e0c 093d
000002b0: 7f8c e53c 7d49 97bc ca70 56bd b0c6 ecbc
000002c0: aecb c33c ea65 00bd 2884 5d3d 792c 9d3c
000002d0: 6ab7 693d 43b7 b7bc 2ed5 063c 9128 0c3c
000002e0: b6b2 593d 4733 e7bb 118c 893c 63c2 2f3c
000002f0: 6b05 023d 7254 c1bc 5f4e 25bc 5cc0 c83c
00000300: f0f3 0dbd 48f8 2e3c 1c3e a73c 4c7e 45bd
00000310: 6447 fc3b bd45 873c 7e0c 1cbd 192b 1b3d
00000320: 23eb e5bc c0b2 b83b 0bf4 1ebc d501 1cbb
00000330: 1a66 923d 9d81 f3bc 07c7 e43c fd57 54bc
00000340: 8f8e 30bd 78d4 1ebd dcd0 55bc 7ada f13c
00000350: e213 d9ba 210b 7dbc add3 42bd 78ad a03c
00000360: 612e a9bc 7aa7 303d 1e92 093d b59b 4cbd
00000370: 67ae 093d e8d4 c6bc 8922 443d 1b06 25bc
00000380: 86b7 17bb 783f 713d ecb5 0abc cb59 6bbd
00000390: 51ec a93c beaa 1dbc 1784 823d c86c a4bd
000003a0: 7651 d6bc b40c b7bc 1dc7 33bd b99a 03bd
000003b0: 2b53 66bd d8e2 7ebd 14bf 3ebd 586a 2dbd
000003c0: 27ff d0bb 6c62 82bc 92d3 0dbd 4727 213d
000003d0: 4087 473d 8e87 2c3d ba68 c33b 7733 b8bc
000003e0: 1617 aabc 25c6 26bc bdbd c53c 3fd4 e43c
000003f0: dae9 d93c 541f 423b 3cd4 3fbd cec2 813c
0.006242279 0.0016954094 0.036597554 -0.057099182 0.026764382 -0.03400124 -0.032733984 -0.038923416
-0.057761177 0.055162244 0.021692028 0.024474274 -0.049752187 -0.060974646 0.0022366436 0.04146807
0.0427219 -0.06511814 0.012539116 -0.07152241 0.010111408 -0.03726597 -0.0009915807 -0.011973231
-0.11679642 -0.09532365 0.0045644008 0.032550413 0.015194495 0.013724175 -0.04404631 -0.07647241
0.026263332 0.053188827 -0.023695739 -0.017666388 0.03651821 0.037824094 -0.031882264 -0.039846312
0.041126978 0.029494926 0.016501572 0.005692936 -0.0030921814 0.0640208 -0.08901642 0.002089081
-0.02227667 0.017155264 -0.006750444 0.060043868 0.0029981344 0.03611421 -0.011196945 0.021477215
-0.01281549 -0.035389356 0.0028185959 0.06282701 0.016402412 0.022504712 0.09166466 0.04181827
0.014958555 0.043581624 -0.06215155 -0.032021657 -0.0017755085 -0.013292646 -0.036302995 -0.01292109
0.079501994 0.019704279 0.0505869 0.022332376 0.008977883 0.08521074 -0.011937373 0.00887219
-0.055758268 0.00016956043 -0.060854696 -0.008027828 0.0069992756 -0.005996359 -0.015488729 0.015784705
0.0558616 -0.0032013338 0.048472274 -0.03798685 -0.0059533226 -0.043137748 -0.047743767 0.0069664675
0.006980285 0.015986001 -0.011534696 -0.027338307 -0.011210431 -0.03717432 -0.020856844 -0.04751133
0.06061529 -0.02404746 -0.07516891 -0.047876455 -0.057525624 0.013463824 -0.04679539 -0.0047267657
-0.011300879 0.04133625 -0.0063468996 0.056890097 0.046165973 -0.027078921 -0.006839352 -0.079002984
-0.06213229 -0.01150037 -0.012856108 -0.038089927 0.0004823993 -0.04597242 0.05192801 0.061166473
0.06143476 0.0321062 -0.019657293 -0.051149145 -0.049614325 -0.05182276 -0.012883243 0.015467239
0.03246841 0.0008998506 0.04506614 -0.0069183675 -0.05758456 0.0458854 0.07852153 0.09873873
-0.014881471 0.037153237 0.02732777 -0.04328002 -0.06956327 -0.045840427 0.029594483 0.04890835
0.038442843 0.036994226 -0.027451383 0.043648116 0.019925624 -0.018312035 -0.05496431 0.06616056
0.09543589 -0.009758677 -0.011767095 -0.049922347 0.031347282 -0.01411267 -0.028009648 0.02686981
0.010421502 0.046365563 0.0055123456 0.03345924 0.028021095 -0.01846766 -0.052353658 -0.028903335
0.023900833 -0.031347193 0.054081112 0.019186245 0.057059683 -0.022426253 0.008229537 0.008554594
0.053148948 -0.0070556733 0.016790422 0.010727498 0.03174345 -0.023599837 -0.010089486 0.024505787
-0.034656465 0.010679312 0.020415358 -0.04821615 0.00769894 0.016512746 -0.03809785 0.037882898
-0.028066223 0.005636543 -0.009701739 -0.0023804803 0.071483806 -0.02972489 0.027926935 -0.012960431
-0.043104704 -0.038776845 -0.013050284 0.029523123 -0.0016561712 -0.015444548 -0.04756515 0.019613966
-0.020651998 0.043128468 0.033586614 -0.04995318 0.03361359 -0.024271443 0.047884498 -0.010072256
-0.002315016 0.05889842 -0.008466225 -0.05745868 0.020742567 -0.009623228 0.063728504 -0.08028561
-0.02616189 -0.022344925 -0.04389106 -0.032129977 -0.05623166 -0.062228054 -0.046568945 -0.042337745
-0.006378073 -0.015916072 -0.034625597 0.0393441 0.04871297 0.042121463 0.005963412 -0.022485478
-0.020762961 -0.010179077 0.024138326 0.027933238 0.026600767 0.0029620724 -0.04683326 0.01583996

block2.3.bias f4 [16]
00000000: d258 613d c286 d9bc a581 b5bc 7fe5 293d
00000010: 81f1 cebb e5f3 cc3c 53dc 8f3c e542 2dbd
00000020: 6cd2 16bd 0041 56bd 19ca 2a3c b650 953c
00000030: f57a 4e3d 5f29 6cbd 126f 853c 2d2f 943c
0.055016346 -0.026553515 -0.022156546 0.04147863 -0.0063154106 0.025018642 0.017561113 -0.042300124
-0.036821768 -0.052308083 0.01042416 0.018226963 0.05041023 -0.057656642 0.016288314 0.018088901

block2.4.weight f4 [16]
00000000: d11e 833f c528 793f 094f 843f abf2 793f
00000010: 3526 7b3f 92b5 7d3f ebbd 743f 2a30 813f
00000020: ba3d 823f 3022 833f 7e63 833f b411 793f
00000030: 1dae 823f 12ad 803f a0ca 833f a544 773f
1.024378 0.97327834 1.033662 0.97635907 0.98105174 0.9910518 0.9560229 1.0092824
1.0175087 1.0244808 1.0264738 0.9729264 1.0209385 1.0052817 1.0296211 0.9658912

block2.4.bias f4 [16]
00000000: 9093 f4bc 1da8 10bd ab94 42bd 926b ab3c
00000010: 6610 47bc 30fe 21bd f343 11bd b874 82bd
00000020: af86 5abd 62c7 0cbd 7860 173d 1448 28bd
00000030: 5d18 02bd a082 4cbd 7156 98bb 154f 11bd
-0.02985552 -0.035316575 -0.047505062 0.020925317 -0.012149906 -0.039549053 -0.035465192 -0.063699186
-0.0533511 -0.034369834 0.036957234 -0.041084364 -0.031761516 -0.04992926 -0.0046489765 -0.03547581

block2.4.running_mean f4 [16]
00000000: 0a99 44bd f084 b53e f2e6 95be 98dc 75ba
00000010: bc1f ea3e 7b00 7c3e 1761 57bd 97c7 af3d
00000020: 0da6 d6bd 52d0 23bf 328c 2fbf ddd3 ccbe
00000030: a890 abbe 079f 9ebe 2999 38bf f7de abbd
-0.047997512 0.35452986 -0.2927776 -0.00093788793 0.45727336 0.24609558 -0.052582826 0.085829906
-0.104808904 -0.63989747 -0.68573296 -0.4000539 -0.335088 -0.30980703 -0.72108704 -0.083921365

block2.4.running_var f4 [16]
00000000: 1529 843e bd6d dc3e d988 063f 59a6 e23e
00000010: d50b a03e 2f03 da3e b753 093f f608 cc3e
00000020: 58ae da3e ac49 913e 0514 7b3f a605 e43e
00000030: a36f 073f ccd7 ee3e d82f dd3e dd99 793e
0.25812593 0.43052474 0.5255256 0.44267538 0.31259027 0.42580554 0.53643364 0.39850587
0.4271114 0.2837652 0.9807742 0.4453556 0.5290472 0.46649015 0.43200564 0.243751

block3.0.weight f4 [32, 16, 3, 3]
00000000: bd1f 5b3d 619d 9e3d 23a1 8b3b e033 89bd
00000010: cee9 f1bc 6f25 a63c 7627 b2bd c1a7 64bd
00000020: a328 403d b5ae 0cbd 52d9 38bd 91cb 363d
00000030: f8e9 bc3c b675 963b 5618 983d a35e 923d
00000040: acbe 20bb 58e5 31bd b58a 6e3b 4c9e 96bc
00000050: 446e 763d e8e2 493d d85b b63d e921 853d
00000060: 56db ea3d 339e e3bc f5d6 49bc e2fc 9ebc
00000070: b3b5 8e3d 1174 2a3c 53b6 e43c b432 1b3d
00000080: d3d9 6ebd 8f2d db3c 8023 883c 60ef 4abd
00000090: d812 223d a395 8fbd 9a85 4ebd f492 0fbd
000000a0: 7b9e 51bd 70bc b73b 19a7 f5bd 2073 123c
000000b0: 5868 bd3c e7ef 153d c818 983d 6568 64bd
000000c0: d0a5 9bbd 1b59 893c 0012 d33c b492 463d
000000d0: 1f5b bd3c 3977 253d 8044 14bd 0dd7 39bd
000000e0: c204 b43b 644a b0bc 0590 bb3d f143 90bd
000000f0: b233 76bd a77e 993d 97be 17bd 76e4 3fbc
00000100: 76ab 713b 3d9c 45bd 7498 053c 185e 3fbd
00000110: 1af6 f2bc 1b25 cbbc 0bf4 d9bc 6ff5 193d
00000120: 2b09 9abc 21a8 e2bc 3fbd 0abd f302 183d
00000130: f8ee c5bd 8549 11bd f6cb a1bd 8040 543c
00000140: 1e11 d73a b33c 4a3c e28f a5bd 6c9c 8bbd
00000150: 6c5e f7bc cc5a ebbc 0d9a 293c cf99 d4bd
00000160: 3849 d2bd 2eac dc3d aed2 d53b 00b3 453d
00000170: 23c3 9abc b6ae 923c f896 953d 42d0 a1bc
00000180: 7736 0bbd 7b76 27bd ebd0 9ebc afef 41bd
00000190: 0fa5 7c3d 30f3 fc3c cd1a 423d ad20 d03d
000001a0: d307 9e3d 820e 30bd b665 103c 0376 3f3c
000001b0: bc3b 983c f091 c8bc 0199 413d 59fd 3ebc
000001c0: 35cf 82ba 1651 443d 876e 533b b9b4 73bd
000001d0: bca9 d0bd 85fa 213d 7c8b f33d 4f7f fd3c
000001e0: f956 a1bc e8a0 24bd a853 5f3d 0445 5b3c
000001f0: a372 833d 96b0 333b c6be 953d e1be bc3d
00000200: 1eaf 10bd 748d eb3d f15f 91bc e084 b13c
00000210: d2a7 9fbd 437a 273c 11f4 90bd 4a4f aebc
00000220: 4086 4dbd 35b0 c63d dc2d b93d de2d 8d3d
00000230: a9c3 69bd e69e febb cc16 87bd f210 7cb9
00000240: a920 6c3b 9fdb cd3d 637b 1b3b e4b3 5b3d
00000250: 18ed 93bc cd9c 1e3d bff0 593d dd47 0cbd
00000260: 07a1 13bc 2e54 6e3c d8ae fc3b aeef 1fbd
00000270: 24b8 98ba a034 8c3d ba21 1f3d 3139 05bc
00000280: 20e5 c1bc 04b4 e33c ddfc 853d bdc0 8e3b
00000290: e9e7 47bd d90b 8dbd 4db0 3dbd 07b8 b5bd
000002a0: f084 e2bc f850 1ebd cf82 b1bc 602e 1c3d
000002b0: 37d2 febc c91f d4bc 1223 f33c 0951 263d
000002c0: 92ca b6ba 7460 a3bd 7921 babc 01db 1d3c
000002d0: bc76 56bd 11f6 69bd 43ee 903d 1f50 84bc
000002e0: ab55 d0bb 31e7 283c 1215 2c3d 2bab d6bd
000002f0: e784 213d cb0b 50bc 3cbc dfbc bf26 6439
00000300: 74b9 683c 9d0e 8cbd 80a7 90bd 5908 febc
00000310: 895a 983c 241a f2bb ae26 1c3d 5281 eb3c
00000320: d40f b5bd 4a08 a73d 6880 063c 0d56 653d
00000330: c7cf 37bd a873 283d df47 233c 07b1 db3d
00000340: 5daa 103e 7048 5ebd 1501 c2bc f93e a2bc
00000350: f3fb 5bbc c853 49bd d52c 9abc fcc7 18bd
00000360: b8b3 e8bc a876 073d cf58 3d3c f574 2e3d
00000370: c218 253d f050 58bc 5e3b 8abb a165 963d
00000380: 72bb 3e3d e0e8 183e bcfb d33d b7b6 1b3c
00000390: 6ee7 9ebc a58f 31bc 80d5 06bb 4b5c 4b3d
000003a0: 1cc7 a9bc d67a 393d 77c6 c33c 752e debc
000003b0: 50c6 0bbd a779 79bd be85 1f3d 6662 46bd
000003c0: 7b5b 233d 9706 583c 1982 ac3d a1f3 1c3c
000003d0: f2fe 7dbc 8c9a 413d 8990 0ebd b5d0 f9bc
000003e0: adbe c13d e89e c93d 5362 c03d e51a a73d
000003f0: 1c91 30bd a3fb 3e3d 619e ba3b 0197 7a3d
0.053497065 0.077448614 0.0042611524 -0.066993475 -0.029530432 0.020281522 -0.08698933 -0.055824045
0.046913754 -0.0343463 -0.045129128 0.04462773 0.023060784 0.004591669 0.07426517 0.07146957
-0.0024527712 -0.04343161 0.0036398594 -0.018386029 0.06016375 0.04928866 0.089042366 0.065006085
0.11467616 -0.027785396 -0.012319316 -0.019407693 0.0696825 0.010403649 0.02791897 0.03789015
-0.058313202 0.026755122 0.01661849 -0.049544692 0.039568752 -0.07010963 -0.05042038 -0.035052255
-0.05117653 0.0056071803 -0.11994762 0.008938581 0.023121044 0.03660574 0.07426602 -0.05576362
-0.075999856 0.016766122 0.025765419 0.04847975 0.023114739 0.040396903 -0.03619814 -0.045371104
0.0054937312 -0.021519847 0.09158329 -0.07044209 -0.060107894 0.0749486 -0.037046995 -0.011712184
0.003687588 -0.048244704 0.008154023 -0.046720594 -0.029658366 -0.024797967 -0.026605627 0.03758758
-0.0188032 -0.02766806 -0.033871885 0.037112188 -0.0966472 -0.035470504 -0.079002306 0.012954831
0.00164083 0.012343573 -0.08084084 -0.068169445 -0.030196391 -0.028729819 0.01035167 -0.10380899
-0.102678716 0.10775028 0.006525359 0.04826641 -0.018891877 0.017905574 0.07304186 -0.019752625
-0.03398749 -0.040884476 -0.01938673 -0.04734772 0.06168085 0.03087768 0.04738884 0.101624824
0.07716336 -0.042982586 0.008813312 0.011685851 0.018583171 -0.02448365 0.047265057 -0.0116570825
-0.0009979965 0.047928892 0.0032261924 -0.059498522 -0.10188624 0.039545555 0.11891839 0.030944495
-0.019694792 -0.040192515 0.05452314 0.013383154 0.064183496 0.0027418486 0.07311778 0.09216095
-0.035323255 0.115015894 -0.017745944 0.021669805 -0.07795681 0.010222021 -0.07077802 -0.021278042
-0.05017686 0.097015776 0.0904195 0.06893514 -0.05707136 -0.007770407 -0.06596145 -0.00024038905
0.003603021 0.10051655 0.0023724667 0.053638354 -0.018057391 0.038723756 0.05320811 -0.03424822
-0.00901056 0.014546437 0.0077112727 -0.039046936 -0.0011651558 0.06845975 0.038850524 -0.008131311
-0.023668826 0.0277958 0.065423705 0.0043564723 -0.04880515 -0.068870254 -0.04631071 -0.08872991
-0.02765128 -0.038651437 -0.02166882 0.038130164 -0.031106098 -0.025894063 0.029679809 0.040604625
-0.0013945869 -0.07977381 -0.02272104 0.009634734 -0.052359328 -0.057119433 0.07076695 -0.016151486
-0.0063578687 0.010309027 0.04201228 -0.104818664 0.039433386 -0.012698124 -0.027311437 0.00021758208
0.014204372 -0.06838725 -0.07063198 -0.03100984 0.018597858 -0.00738837 0.038122825 0.028748188
-0.088409096 0.08155878 0.008209325 0.055990268 -0.044875886 0.041125923 0.009965866 0.10727125
0.14127488 -0.0542683 -0.023682157 -0.019805418 -0.013426769 -0.049152166 -0.018820206 -0.037300095
-0.02840601 0.033072144 0.011556818 0.042592008 0.040306814 -0.013202891 -0.004218503 0.07343603
0.04656548 0.14932585 0.10350749 0.009504012 -0.019397464 -0.01083747 -0.0020574033 0.049648564
-0.020724826 0.04528316 0.023898346 -0.027121762 -0.034124672 -0.060907032 0.038945906 -0.048433684
0.039882164 0.013185165 0.08423252 0.00957957 -0.015502678 0.047266528 -0.03480581 -0.030495027
0.09460197 0.09844762 0.09393754 0.081594266 -0.043107137 0.0466267 0.00569515 0.061179165

block3.0.bias f4 [32]
00000000: 2204 5fbc 3031 af3c 665e b0bd 1f46 2abd
00000010: 949d e7bc 8061 81bc e297 1ebd e6e7 0abd
00000020: d45e 413d a842 51bc c82e 7abd b137 8cbb
00000030: 46fc 913c dec8 16bd f8ac 7d3d aaa7 6dbd
00000040: 507d 9e3d 41e3 083d 6e51 2fbd ec33 9ebd
00000050: 260b 0f3d 2ce9 b6bc 17c6 643c a02e 313d
00000060: 9787 5cbd 204b 0e3c 43a2 dcbc 2d8f 84bd
00000070: 21c6 a43c 51f7 a13c 8237 6dbd 164d 833d
-0.013611825 0.02138576 -0.08611755 -0.04157078 -0.028273381 -0.015793562 -0.038719065 -0.03391256
0.047209576 -0.01277224 -0.06107977 -0.0042791 0.017820489 -0.036812656 0.061932534 -0.058021225
0.07738745 0.03341985 -0.042802267 -0.07724747 0.03492274 -0.022327982 0.013963244 0.043257356
-0.053840246 0.008684903 -0.026932841 -0.06472621 0.020114006 0.01977125 -0.057914265 0.06411187

block3.1.weight f4 [32]
00000000: fe60 923f 0252 923f 0ac3 8f3f e966 903f
00000010: 15f2 903f 2da9 8f3f 4b66 923f 9d66 913f
00000020: 14ce 8f3f 57af 903f eaec 923f 7970 923f
00000030: c3a0 8e3f f524 8f3f 8d9d 923f 0c0a 913f
00000040: 2f37 8f3f 8cfa 933f cbc9 913f c58d 903f
00000050: 738a 903f 4f33 943f f47a 913f 4f81 913f
00000060: 08bb 903f fb51 943f 2f8a 943f cd3c 903f
00000070: c94d 8f3f a3e2 923f e19c 923f 6f44 903f
1.143585 1.1431277 1.1231396 1.1281406 1.1323878 1.1223503 1.1437467 1.135944
1.1234765 1.130351 1.147855 1.1440574 1.114281 1.1183153 1.1454331 1.1331191
1.1188716 1.1560836 1.1389707 1.1293265 1.1292251 1.1578158 1.1365647 1.1367587
1.1307077 1.1587518 1.160467 1.1268555 1.1195613 1.1475414 1.1454126 1.1270884

block3.1.bias f4 [32]
00000000: 8b08 1c3d ea8e 1f3d 9c54 af3d 34c1 203d
00000010: 39de 753d a9aa 833d c27d 993d f0f0 683d
00000020: b726 473d b9b7 973d e705 4b3d 386d 803d
00000030: f923 f03c f4d2 623d 2400 aa3d b59d 8a3d
00000040: 2a78 9d3d 098b 973d c73f 8c3d 20b4 813d
00000050: e2ec 523d 47ad c03d 3819 053d ad6d 863d
00000060: 3932 993d 6ae4 303d 5e89 9c3d 3d23 5b3d
00000070: b9f0 633d 91b2 823d 3af2 643d 6e8d 8f3d
0.038094085 0.038954653 0.0856106 0.039246753 0.06002638 0.06429035 0.074946895 0.0568704
0.048620906 0.07408089 0.049566176 0.06270832 0.029314028 0.05537696 0.08300808 0.067683615
0.07688935 0.07399566 0.06848102 0.06333184 0.05149544 0.0940805 0.032494754 0.06563888
0.07480282 0.043186583 0.07643388 0.053500403 0.055649493 0.06381715 0.055895068 0.070093974

block3.1.running_mean f4 [32]
00000000: 7afd 763e 4d4e f93e fcaf 58be e564 e0bc
00000010: bc95 163f 2658 c4be c589 823e 2e85 133c
00000020: 7cef 2f3f 6ea8 6fbd 2a21 72be eeca 1c3e
00000030: c2e9 363e eee1 e73e 9871 dd3d 2c8c a13e
00000040: ac64 ff3e e7cb 1c3f 162f b63d d643 843e
00000050: 5dbc a43d b1ba 9c3e 3f7c 8e3d fe77 d43d
00000060: e76f 6e3e da1d cdbd d9ff 983e f75a 3cbe
00000070: 141a ee3e f248 033f f86c 1b3e 30ca 2f3f
0.24120131 0.4869255 -0.21160883 -0.02739186 0.58822227 -0.38348502 0.25495735 0.0090039205
0.687248 -0.058510236 -0.23645464 0.15311787 0.17862609 0.45289558 0.10812682 0.31552255
0.49881494 0.6124863 0.088957 0.25833005 0.0804374 0.30611184 0.06957292 0.10374449
0.23284875 -0.10015459 0.29882696 -0.18394075 0.4650427 0.5128318 0.15178287 0.6866789

block3.1.running_var f4 [32]
00000000: fe8d 833e d7c2 623e 3cf4 563e 46a7 973e
00000010: 55f7 923e 9566 593e 0cf6 9b3e 5a36 843e
00000020: de5c b23e a2ad 873e dc12 8b3e 8b81 943e
00000030: 415e 913e a946 d63e 5d4d 6c3e e4f5 953e
00000040: 1011 c83e 7936 9b3e f1f7 603e f039 a63e
00000050: 1199 853e 3a69 913e 2fde ac3e c5b7 8b3e
00000060: 9ecb ba3e 2961 1f3e a2a2 643e 64b6 7f3e
00000070: 9ad4 803e e1a8 5c3e 5acf aa3e fd90 763e
0.2569427 0.22144638 0.20991606 0.29619807 0.28704324 0.21230538 0.30461156 0.25822717
0.34836477 0.2649966 0.27162826 0.29005083 0.28392223 0.41850784 0.23076387 0.29289162
0.39075518 0.30314997 0.21969582 0.32466078 0.26093343 0.28400594 0.33763263 0.27288643
0.36483473 0.15564407 0.22327664 0.2497192 0.25162202 0.21548797 0.33361322 0.24078746

classifier.1.weight f4 [24, 288]
00000000: a69d a03a 94c6 0d3d 8649 dbbd 471b 72bd
00000010: 09d8 133d ebca 733d a46c 1bbc a8a5 d33d
00000020: e811 7d3d 0459 50bd a282 8cbd 93ef 87bd
00000030: 6ef5 4f3d 4a92 003c 705b 213e 0f40 f3bc
00000040: b28c 293d e64e 04bb 637e a4bc c949 36bd
00000050: 25ac 0d3d 317c 37bc 0f22 523d 8c44 4c3d
00000060: 8228 f2bd 3591 7bbd bd99 6cbd a0c6 bf3c
00000070: 6443 b1bb 792f a6bc b05e d93d 1f53 cd3d
00000080: 2185 b23c dd4a d93d 6c4a 9c3b a04b c53d
00000090: 8448 713d 997f 94bd 1cf8 8e3d d9d9 0abd
000000a0: 75b3 bd3b 4e57 e43d f621 bebc 50e9 c1bc
000000b0: 8389 54bd 9cd2 ae3d ddc3 c43c 7a5d 313d
000000c0: a753 103d 5c07 64bd 2be4 93bd d7af 35bd
000000d0: e31c 633c e334 13bd 8a06 023d 8869 8d3d
000000e0: f46f 06bd 0924 123c d90d 7dbd 85ee 8a3d
000000f0: c809 1f3e 9eb8 d33d cb37 8a3d 4406 14bd
00000100: 2519 003c 0580 c53c 1f79 7abc c961 983d
00000110: afb4 1e3d 9df1 783d 6a60 813c 78a5 de3d
00000120: 4a66 9c39 b831 8d3c 3d28 ad3b 113a 66bd
00000130: 213b 573d 88f0 f8bd 0a36 853d 25fa 0e3d
00000140: c7d0 1d3d 5777 a43b faba 753c c642 2cbd
00000150: 3033 5d3d 105b 403d 5cce 9c3d 3474 773d
00000160: 9a04 4b3d 5604 943b e97c cb3d a790 aebc
00000170: 6b33 983c 5500 bebc e121 b9bd 73cc 133d
00000180: 6610 c63d c254 053e cb22 033d 5ad3 74bd
00000190: 4250 043c ea16 043e 8371 df3b a716 493c
000001a0: af4f 113d 4652 333c 1898 c43c 66c5 7fbc
000001b0: 1c91 adbb 0fdb bf3d 3420 99bb ff2b 623d
000001c0: 49b5 bc3d 1fa6 a0bb 57f5 ec3c fba9 4c3d
000001d0: 2625 a23d 2033 913c 6c04 7e3d cf70 b73d
000001e0: aea9 083d b2cb b93b 0450 d33c 2813 1e3d
000001f0: 7b06 6e3d 52f3 e33d aebf 71bd 07f7 e83c
00000200: d067 80bc 1d02 21bd 6fe2 a4bd 4ca8 15bd
00000210: 28d7 b3bc e027 743d bdac 2f3d 45bc a43c
00000220: 2a8d 8aba a83a 8fba dc8a fc3c 8c37 ef3c
00000230: 6433 7abd f819 d33d 2282 6a3d 3521 dc3d
00000240: 272f 0bbd 58ce d03b c62d 3fbd 089b b0bb
00000250: 98d6 4f3c c16f 07bd 23bc 9ebd c232 63bc
00000260: e911 b03d 47c0 a63d 20f3 abbd 3f8b 68bd
00000270: a7db 473d 72af 1b3e 8e45 b53d 7d89 8e3c
00000280: ceef 553d f8fe 823c 80e9 863d 4194 c33d
00000290: 9861 203b a498 833b 2eb6 28bb 6c06 f63c
000002a0: 9c9e 093d b367 8d3d 86a9 05bb af8f 2abd
000002b0: 30c8 da3d fbee e83d 4d4c b43d f695 983d
000002c0: 7968 d43d c5a1 b43d d34a e73d 8d8a 103d
000002d0: 957a abbc 5462 91bd 769c c3bd 4caa 21bc
000002e0: 2bbe 72bd c538 66bc 9d9b ee3c af86 ac3d
000002f0: 6bbc 163e 2e71 a13c 7a32 333d e061 9bbc
00000300: 9483 94bd 60af 1c3d 95fc 1cbd 5fa2 09bc
00000310: b089 a1bd d25a c83d 2344 1dbc 4eb2 453d
00000320: 40c4 a6bd ba65 9e3d e89a d1bb ecd0 883d
00000330: 722f f83c 042b 893d e8e8 2d3d 59ea 44bb
00000340: db29 de3b 9cee af3d ea06 5f3d 5127 593d
00000350: 4db0 633d 8512 0b3d 665b 80bc 2842 c63b
00000360: ecba 79bc 1c30 353c 5c40 a4bb 3a9c 9dbc
00000370: 5e97 debc 91e9 75bd da71 72bd 7b3a 253d
00000380: a39b 573d 3c4a fbbc 7190 123d 5e8b 763d
00000390: 2c75 c83d 0a33 913c d913 43bd f9b0 88bd
000003a0: cdb8 8ebd 4077 5abd 1616 59bc ae1a edba
000003b0: 10cc e8bd ff73 6c3d ff62 863d d33a fa3d
000003c0: 7a81 9b3c 89b3 86bd 97d6 cebb 308d 69bd
000003d0: 4367 adbd 55cd bbbd d6f0 65ba ecbe 2c3d
000003e0: 76f2 c43d 3d6c 6bbd 7006 cabd 979b a03d
000003f0: e94c 603d e36b 16bd 9495 2e3c 000a 033d
0.0012254014 0.034613207 -0.10707383 -0.059108045 0.0360947 0.05951969 -0.009486351 0.10334331
0.061784655 -0.050866142 -0.06860854 -0.06637492 0.05077117 0.007847378 0.15757537 -0.029693631
0.041393943 -0.0020188629 -0.020079797 -0.04450396 0.034587998 -0.011199043 0.051302012 0.04987006
-0.118241325 -0.061417777 -0.057763804 0.023410141 -0.005409645 -0.020286309 0.10613763 0.1002562
0.021791996 0.10609982 0.004769614 0.09633565 0.058907047 -0.072509 0.06980917 -0.033899162
0.005789215 0.111494645 -0.023209553 -0.023670822 -0.051888954 0.08536264 0.024019176 0.043302037
0.035236027 -0.05567108 -0.07221254 -0.044357147 0.013861868 -0.03593911 0.031744517 0.06904894
-0.03282161 0.008919724 -0.061780784 0.06783775 0.15531075 0.10337947 0.06748923 -0.036138788
0.007818495 0.024108896 -0.015287667 0.07440526 0.038746532 0.060777295 0.015793044 0.108714044
0.0002983085 0.017235622 0.005284338 -0.05620772 0.052546624 -0.12155253 0.06504448 0.034906525
0.038529184 0.005019109 0.014998192 -0.042055868 0.054003894 0.046961844 0.076565474 0.060413554
0.049564935 0.0045171184 0.09935934 -0.02130921 0.018579205 -0.023193518 -0.09039665 0.03608365
0.096710965 0.13020614 0.032015603 -0.059771873 0.008075776 0.12899366 0.0068189516 0.012273467
0.035476383 0.0109449085 0.023998305 -0.015611028 -0.0052968394 0.09367954 -0.0046730284 0.05521774
0.09214265 -0.0049026157 0.02892558 0.049966794 0.07917242 0.017724574 0.062015936 0.089570634
0.033364944 0.0056700343 0.02579499 0.038592488 0.05811165 0.11130394 -0.05902069 0.028438104
-0.015674502 -0.039308656 -0.08051001 -0.036537454 -0.02195318 0.05960834 0.042889345 0.020109305
-0.0010570635 -0.0010927515 0.030827932 0.029201292 -0.061084166 0.103076875 0.05725301 0.10748521
-0.033980515 0.0063722543 -0.046674512 -0.005389575 0.0126854405 -0.03306556 -0.07750728 -0.013867082
0.08597166 0.08142143 -0.08395982 -0.05677342 0.04879346 0.15203646 0.08851157 0.017399544
0.05223065 0.01599072 0.06587505 0.095497616 0.0024472233 0.004015999 -0.0025743353 0.030032359
0.033598527 0.06904545 -0.0020395233 -0.041640934 0.10682714 0.11373707 0.08803616 0.07450478
0.10371489 0.088199176 0.112935685 0.035288382 -0.020932475 -0.07098833 -0.09551327 -0.009867262
-0.05926339 -0.014051621 0.029126937 0.08424126 0.14720313 0.019707289 0.04374931 -0.018967569
-0.07251659 0.038253188 -0.03832682 -0.008400529 -0.0788759 0.097829476 -0.009598765 0.048265748
-0.081429005 0.077342466 -0.00639664 0.06680474 0.030296061 0.06697658 0.042458445 -0.0030046909
0.006779892 0.08590433 0.054449953 0.05301601 0.055588055 0.03395321 -0.015668582 0.006050367
-0.01524232 0.011058833 -0.005012555 -0.019239534 -0.027171787 -0.0600372 -0.05919061 0.040338974
0.05263866 -0.030675046 0.03578228 0.060191505 0.09787974 0.017724533 -0.04762635 -0.0667438
-0.06968842 -0.053336382 -0.013249895 -0.0018089616 -0.11367047 0.05772781 0.06561851 0.12218251
0.018982638 -0.06577212 -0.006312202 -0.057019413 -0.08466961 -0.09170023 -0.0008771544 0.042174265
0.09616558 -0.05747627 -0.09864509 0.078421764 0.054760847 -0.036723983 0.010655779 0.03199196

classifier.1.bias f4 [24]
00000000: 2c4b 80bb 5f67 52bc 3d06 263d 1c8b 0c3d
00000010: 129d ab3d 94d9 3d3d 9426 543d f345 1abd
00000020: 1efa 013d b570 033d 3636 903d c9e4 8cbd
00000030: 38fb 633d 9254 813d 820f a23d 0743 a53d
00000040: d76c 36bc 8734 d3bc 2832 4a3d d931 383d
00000050: 5e71 dfbc b80a a53c 9ddf 863c 21ba 75bc
-0.003915211 -0.012842028 0.040533293 0.034312353 0.08379568 0.046350077 0.051794603 -0.037664365
0.03173267 0.032089908 0.0704159 -0.06879575 0.055659503 0.06314959 0.07913114 0.08069425
-0.011134348 -0.025781883 0.04936424 0.044969413 -0.027275737 0.020146713 0.016464049 -0.01499799
